best_lstm.pt (torch, 45148 bytes, 5 tensors)

lstm.weight_ih_l0 f4 [200, 1]
000000 74 a0 1e 3d 5a ac 16 3d b6 c3 33 3d fe 75 30 3d
       0.03872724 0.03678546 0.043887816 0.043081276
000010 b8 e0 58 3e 63 85 32 3d 3a 20 20 3d b3 ed 20 3d
       0.21179473 0.04358424 0.039093234 0.039289188
000020 5c bf 1b 3d 74 be bd 3e 76 9d 0c 3d 11 ca 97 3e
       0.03802429 0.37059367 0.034329854 0.29646352
000030 9c b1 39 3d b8 6c bd 3c ed d4 70 3d fc 13 25 3d
       0.045335397 0.02312313 0.05879681 0.04030226
000040 c4 9d 46 3d df 1d f6 3d 35 35 52 3d 7d 18 1f 3d
       0.0484903 0.12017416 0.051320273 0.038841713
000050 7f 87 38 3d b5 74 09 3d 42 8d a0 3e fa ff 1e 3d
       0.045051094 0.033558566 0.3135777 0.038818337
000060 74 25 9b 3e 46 64 2d 3d f8 bc 73 3d 4c 8c 1a 3d
       0.30302012 0.042331956 0.059506387 0.037731454
000070 8a 42 04 3d 60 21 54 3d cc 8f 0d 3d cd a4 49 3d
       0.03229002 0.05178964 0.034560964 0.049229432
000080 98 66 3a 3d 60 d1 44 3d 39 15 31 3d 51 22 2d 3d
       0.045507997 0.048051238 0.04323313 0.042269055
000090 7a 77 20 3d ad fa 42 3d 33 45 52 3d 3e f5 2c 3d
       0.03917644 0.047602344 0.051335525 0.04222607
0000a0 6c 6f fe 3e db b5 18 3d 99 29 02 3d 04 2b 57 3d
       0.49694383 0.037282806 0.031777952 0.052531257
0000b0 c7 29 7f 3e f8 d3 52 3d 4c d7 42 3d ef 4c 2c 3d
       0.2491828 0.05147168 0.047568604 0.042065557
0000c0 59 de fe 3e 70 dc 27 3d 84 07 a6 3d 6a 1a 1c 3d
       0.49779013 0.04098171 0.08106902 0.038111128
0000d0 66 e9 77 3d ae d9 7c 3e 16 dd 60 3e a9 03 87 3e
       0.06052532 0.24692413 0.21959338 0.2636998
0000e0 f4 ec 1b 3e ae 4f ee 3d 84 c3 27 3e 88 cb 55 3e
       0.15227109 0.116362914 0.16383177 0.20878422
0000f0 c1 84 31 3e ed 00 66 3d f8 e2 66 3e c7 48 a7 3d
       0.17335798 0.056153227 0.22547519 0.08168178
000100 a9 f1 0d 3e 59 e5 f1 3e f1 88 04 3e 94 21 41 3e
       0.13861717 0.4724529 0.12942864 0.18860465
000110 b4 98 2e 3e c5 d2 0f 3e eb df 12 3e 37 b7 08 3e
       0.17050439 0.14045246 0.1434323 0.13351141
000120 f8 a8 f2 3d 22 77 c3 3e c7 89 76 3d a9 10 ba bc
       0.118486345 0.3817683 0.06018999 -0.022713022
000130 03 05 9f 3d 83 e5 cd 3d c2 ed d7 3d 11 0a 8e 3d
       0.07764628 0.100535415 0.105433956 0.06935514
000140 b6 cd d3 3d e9 72 22 3e 22 9b d7 3d be 72 0e 3d
       0.103419706 0.15864147 0.10527636 0.034777395
000150 48 5f f4 3d 58 f1 43 3e aa fa b7 3d 7a 30 32 3b
       0.11932236 0.19135034 0.08983357 0.0027189539
000160 f8 8d 3a 3d 57 a2 cb 3d 0e 38 b2 3d 8f 3e 0a 3f
       0.04554555 0.09943073 0.08702098 0.54001707
000170 92 68 54 3d 1b a1 6c 3d 85 bd ae 3d e7 dc 2b 3d
       0.05185754 0.05777083 0.08532242 0.041958716
000180 02 52 86 3d a3 5a 0a 3e 26 c9 a7 3d 3e 27 9e 3e
       0.065586105 0.13511138 0.08192663 0.30889314
000190 d0 48 93 3c 8a d9 8d bc 10 90 cf bc 0d 53 96 3c
       0.017979056 -0.017315645 -0.025337249 0.018350149
0001a0 b4 45 24 bd 47 62 9d bc fd d9 9d 3c 4b 45 9f 3c
       -0.040105537 -0.019211901 0.019268984 0.019442221
0001b0 d2 20 8c bc 9b eb 19 bd f3 f7 98 bc e9 91 3a 3d
       -0.017105494 -0.037578207 -0.018672919 0.045549307
0001c0 cf 24 9b bc 8d 9a 7b 3d 96 83 b5 3c fb 89 ae bc
       -0.01893845 0.061426688 0.022157472 -0.021306029
0001d0 21 43 da 3c a5 33 e8 3c da d4 b7 bc 24 94 8c 3c
       0.026643338 0.028344939 -0.022440363 0.017160483
0001e0 6a 5e 82 bc d8 24 98 3c 01 1d 1f 3d 6f 6f ee 3e
       -0.01591416 0.018572256 0.03884602 0.46569392
0001f0 0b 50 0b 3d 60 eb 90 3c 39 f9 0b 3d 6a d9 00 3d
       0.03401188 0.01769036 0.034173224 0.031457342
000200 e1 7e 9b bc 99 34 ab 3c 69 26 b0 bc 2f 5b 74 3c
       -0.018981399 0.020899104 -0.02150269 0.014914318
000210 8d ad 9c bc d3 33 aa 3c 2b 95 bd 3c 0f 44 9a bc
       -0.019125724 0.020776665 0.023142418 -0.018831281
000220 d3 e4 d4 3c 0f 86 98 3c c9 aa be 3c ef a5 9a bc
       0.025988018 0.018618612 0.023274796 -0.018877951
000230 14 43 22 3d 5e a1 03 3e 09 4e 14 bd b1 2b b3 3c
       0.039614752 0.12854525 -0.036207233 0.02187142
000240 9c 73 96 3d f3 3b a6 3c 79 6c a6 3c 11 8b bf 3c
       0.073462695 0.020292258 0.020315396 0.023381742
000250 60 54 f6 3c a6 3d aa 3c fd c3 32 3e c9 0c 24 3e
       0.03006953 0.02078135 0.17457576 0.16020502
000260 ee 3b 4b 3f e2 5d 1a 3e 1a 61 5d 3d 4d 3b 18 3d
       0.7938832 0.15074876 0.05404768 0.03716593
000270 d9 9a 60 3e f0 6c 8a 3d e4 0f df 3d 42 3c 42 3e
       0.2193407 0.067590594 0.10891703 0.18968299
000280 12 6e 0a 3e a4 76 fc 3e 5b 97 b2 3d 56 06 38 3f
       0.13518551 0.49309266 0.08720275 0.7188467
000290 63 0c c2 3d c1 8f 53 3e e2 82 28 3d 2a 69 37 3e
       0.09475019 0.20660307 0.041140445 0.1791121
0002a0 8b 85 85 3d d9 22 cb 3d 0a bc 3f 3e 25 20 42 3d
       0.06519612 0.09918756 0.18724075 0.047393937
0002b0 e6 25 c3 3e 9d 42 b4 3d d0 cb 4a 3e 21 13 c2 3d
       0.38114852 0.08801768 0.19804311 0.09476305
0002c0 38 f6 0d 3e 30 94 57 3e bc dd 01 3e 5d 4e 2a 3e
       0.13863456 0.21052623 0.12682241 0.16631456
0002d0 9f 2a 2a 3d 36 2c 29 3e 61 8b 80 3d e3 d8 10 3e
       0.041544553 0.16520771 0.062765844 0.14145236
0002e0 22 34 df 3d bd 7b 1c 3d e3 48 57 3d 6b 0b 31 3e
       0.108986154 0.038203944 0.052559745 0.17289512
0002f0 e7 4e 34 3d 7b 0c 3b 3e 91 b0 4e 3f 04 f1 23 3e
       0.04402056 0.1826648 0.8073817 0.16009909
000300 66 74 15 3e a4 63 19 3e b7 3e 20 3e 07 2f 1f 3e
       0.14595184 0.14979416 0.15648924 0.15545283
000310 b8 c7 08 3d ee fc 6e 3e d1 4f 6a 3e e6 73 20 3e
       0.03339359 0.23338673 0.2288201 0.15669212

lstm.weight_hh_l0 f4 [200, 50]
000000 30 1e 91 3e c0 17 e4 be 98 41 21 bd 9c a2 aa 3d
       0.28343344 -0.4454937 -0.039369196 0.083317965
000010 ec e0 9a 3d 12 44 05 be d1 be 7b 3e d6 e7 e7 3e
       0.07562432 -0.13014248 0.2458451 0.45294064
000020 ed 74 38 be 4c c9 62 be cc 4d c5 be 65 c8 e1 bd
       -0.18013354 -0.22147101 -0.38535917 -0.1102455
000030 63 22 c2 bd 8d c8 dd bd bf be d9 3d a7 37 65 be
       -0.09479215 -0.10829268 0.10632085 -0.22384511
000040 66 fb 55 bd 6d c6 74 3e 15 0e 0f be 99 69 13 3e
       -0.052241705 0.23903818 -0.13970216 0.14395751
000050 e8 6a 3d be 81 ff a5 3e f4 ac de 3c 0d 73 e4 3c
       -0.18497813 0.32421497 0.02718208 0.027886892
000060 bf 72 3c bd f0 e0 52 3e 7c d1 79 3e c2 bd 96 3d
       -0.046007868 0.2059362 0.24396318 0.07360412
000070 cf 98 03 bf b4 df 31 3e 3a 9e 5d be 5b 5a 1b 3e
       -0.5140504 0.17370492 -0.2164239 0.15171187
000080 d4 ea 8e bd 80 f4 d0 bd 42 55 41 3e 00 d2 84 be
       -0.06978384 -0.10202885 0.1888018 -0.25941467
000090 63 b9 2e 3e c9 86 cc bd 94 a9 96 3d 10 6b 23 be
       0.17062907 -0.09986646 0.07356563 -0.1595881
0000a0 d1 a1 39 bd 09 e1 91 3e 69 a6 b1 bd 5b 54 df 3d
       -0.045320336 0.28492 -0.08674318 0.109047614
0000b0 b4 e1 17 3d 49 04 97 3d d7 d1 3d 3e c5 9f 9a bd
       0.03708048 0.07373864 0.18537079 -0.07550005
0000c0 97 37 11 be 16 9d e3 3d dd be ea 3e 46 8c e2 be
       -0.14181362 0.11113946 0.45848742 -0.44247645
0000d0 52 73 2c 3e 7d 2b 1d 3e 09 6f 4e 3c 68 0b 13 3e
       0.16840866 0.1534862 0.012599715 0.1435982
0000e0 da fa fa bd 99 02 cf 3d 04 71 f6 3c 47 6d 2e 3d
       -0.122548774 0.10107917 0.030083187 0.042584684
0000f0 b8 b3 99 be ab 57 71 3b 7d 64 4a 3e 24 ca 80 3d
       -0.30019927 0.0036825936 0.19764896 0.06288555
000100 a7 64 c5 bd b5 80 b6 3d bd 24 87 bd 75 f3 37 3e
       -0.096383385 0.08911268 -0.06598804 0.17963965
000110 fb b3 72 3d ff d9 38 bd 03 d3 35 be 0e b4 04 bd
       0.059253674 -0.045129772 -0.17756276 -0.032398276
000120 f9 6b 33 be 04 0f 2c be 17 f1 81 3e 90 2f 87 bd
       -0.17521657 -0.16802603 0.2537925 -0.06600869
000130 e8 7a 7e 3d e5 be 18 3d b5 17 9d bd e4 cc 99 bc
       0.06212893 0.037291426 -0.076705374 -0.018774457
000140 42 15 9a 3d 97 18 1e be 13 9b ce 3c 2d 5d a7 3d
       0.07523586 -0.15439068 0.02522043 0.08172069
000150 1c 4e f6 bd 64 04 d3 3d 1f 69 98 bc c2 14 92 3d
       -0.12026617 0.10303572 -0.018604813 0.071328655
000160 00 ba 1d 3e 31 08 84 bc 3e 46 9b 3d ab 7a 36 3e
       0.15402985 -0.016117187 0.07581757 0.17820232
000170 b1 f7 c0 3d 5d 16 0a be ea d8 68 bc f9 48 5f 3d
       0.094222434 -0.13485093 -0.014211873 0.05451295
000180 99 7d d6 3c 53 89 4e be b3 e2 50 bc 1a 97 89 3e
       0.026182937 -0.20169573 -0.012749362 0.26873094
000190 0c ed d4 3d 03 6b b9 be 42 d1 fc 3c 75 34 ef 3d
       0.103967756 -0.36214456 0.0308615 0.11679927
0001a0 36 65 ca 3d 49 ff 64 bd 64 22 47 3c b6 c7 c0 3e
       0.09882586 -0.05590752 0.012154195 0.37652367
0001b0 59 42 84 bc c3 d1 1b 3e 73 a4 cf be 36 4c 95 bc
       -0.016144918 0.15216736 -0.40555152 -0.018224817
0001c0 89 92 31 be a7 a8 40 3d 45 3c f0 ba f7 6e 84 be
       -0.17341055 0.04703584 -0.0018328509 -0.2586591
0001d0 5f d1 67 3e 44 93 a6 be 6e a9 47 bd 11 65 95 3e
       0.22638462 -0.3253423 -0.048745565 0.2917867
0001e0 3d b8 57 be 7f 81 dc 3e d7 3d aa 3d 2a d4 98 bc
       -0.21066375 0.43067548 0.08312576 -0.018655855
0001f0 d9 e7 c0 bd 4e a7 86 3e 05 04 0d be 38 3c 51 be
       -0.094192214 0.26299518 -0.13771065 -0.20433128
000200 03 6f b8 be 69 3c 90 bc f6 d1 df bd fc 0e 70 be
       -0.36022195 -0.01760693 -0.10928719 -0.23443216
000210 c2 92 20 3c ca 11 bb 3e 33 86 dd 3d 56 a1 28 be
       0.009800615 0.3653701 0.10816612 -0.16467795
000220 c8 bc 90 3b 6e 75 96 3e c6 69 14 3f 86 83 74 be
       0.0044170357 0.29386467 0.579739 -0.23878297
000230 ba 62 1d 3e f1 af 4d 3d ed 3b 05 be 99 58 7d 3e
       0.15369692 0.05021662 -0.13011141 0.24740829
000240 45 7b 21 3e 83 f1 1c 3f 93 7b 00 3c fa 61 1c 3e
       0.1576968 0.6130602 0.007841962 0.1527175
000250 7c 38 93 bd ea 35 0b bd a1 6f c6 3d 41 9f 84 3c
       -0.07188508 -0.033986963 0.0968926 0.01618922
000260 29 48 a7 bd fe 93 cc 3c d5 8c 04 39 08 8d 74 be
       -0.0816806 0.024972912 0.00012640965 -0.23881924
000270 1d 3d d9 3e 29 7c ff 3d 53 60 d5 be 67 97 3d bd
       0.42429438 0.124748535 -0.41675052 -0.046286967
000280 14 0c cb 3d 7f ea fe bb f0 9e c1 bc 0e ad 14 be
       0.09914413 -0.007779419 -0.023635358 -0.1451914
000290 b1 c1 95 3e 2e fc 53 be 68 02 90 3c 33 61 e9 3d
       0.29249337 -0.20701668 0.017579272 0.113954924
0002a0 85 e0 39 be e9 5b 3d bd 85 c5 1a bd 36 c2 67 3e
       -0.18152054 -0.04623023 -0.037786026 0.2263268
0002b0 97 be 00 3d de da 13 3e c5 0c bb 3d d5 e1 cd 3d
       0.03143176 0.1443896 0.09133295 0.1005284
0002c0 f0 90 d0 bc ec 98 48 3e b1 57 51 be cc 45 5c 3d
       -0.025459737 0.19589585 -0.20443608 0.0537775
0002d0 49 2b a3 be 71 f5 82 3d bf 7c 95 be fb 8b 47 3e
       -0.3186896 0.063944705 -0.29196736 0.19486992
0002e0 fc db 55 3e 36 33 38 bd 47 7b 8c bd 50 d8 10 39
       0.20884699 -0.044970714 -0.06859451 0.00013813493
0002f0 53 03 6b 3e 8d 21 93 be 46 64 11 3d ba 02 40 3c
       0.22950487 -0.28736535 0.03549602 0.0117194
000300 a6 36 38 3e 47 31 87 3e 24 9e 3e 3d d8 b5 04 3e
       0.17989597 0.26404783 0.046537533 0.12959993
000310 3d 2f 89 3e cb 48 26 3e b7 f5 ff bd 22 b3 43 3d
       0.26793852 0.16238706 -0.12498038 0.047778256
000320 f0 e5 db 3e d8 a2 46 3e a8 f6 c9 bd ad cf f5 bc
       0.42948866 0.19398057 -0.09861499 -0.030006254
000330 0b 1c dd 3e f8 6e 41 3e 56 a1 6d 3c cd 96 30 be
       0.43185458 0.18889987 0.0145037975 -0.17245026
000340 11 41 ad 3d a7 69 2e 3e 1f 6a 39 3c 0e dc b1 3d
       0.08459676 0.1703249 0.011316805 0.0868455
000350 7c b4 43 bc 7f 6b 02 3e 9a b9 2c 3d c4 9a 04 3e
       -0.011944886 0.12736319 0.04216919 0.12949663
000360 d0 8e 3b 3d f3 f2 c7 3d 09 41 ba 3d e6 2a a8 be
       0.045790493 0.09763136 0.09094436 -0.3284523
000370 1f 73 21 bd 3b 86 8f be c0 be a7 bd d5 5f 88 be
       -0.03941643 -0.28032097 -0.081906796 -0.26635614
000380 72 90 ff 3d 32 7a a4 bd 54 3e 89 3e 56 d0 38 be
       0.12478723 -0.080311194 0.26805365 -0.18048224
000390 c6 ef 22 3e 3e aa 85 bc 59 ee 86 3e 46 e9 61 be
       0.15911779 -0.01631653 0.2635372 -0.22061643
0003a0 9f 0f 8e 3e ab 79 9d bd 77 ba 49 bd 18 8f b4 bd
       0.27746293 -0.07689222 -0.049250092 -0.088163555
0003b0 cd f0 2d be 06 b5 23 be 14 f1 7e be 15 78 f5 3d
       -0.1698639 -0.15987024 -0.24896652 0.119857945
0003c0 5a 9f 7c 3e 58 00 49 be 58 f1 42 be 59 13 a3 3b
       0.24670163 -0.19629037 -0.19037378 0.0049766717
0003d0 50 c1 04 3e 68 b9 8a be e1 ef 81 be a1 c2 4e be
       0.12964368 -0.2709458 -0.25378326 -0.20191433
0003e0 2f 10 70 bd e1 80 80 3e 57 ec f1 bd 12 1c 8f 3d
       -0.058609184 0.25098327 -0.118126564 0.06987776
0003f0 50 9f b1 be 8b e3 fc bd bb 5d 9c be 55 9d d4 be
       -0.34691858 -0.12348088 -0.3054026 -0.41526285

lstm.bias_ih_l0 f4 [200]
000000 ee 13 88 be 92 8b b6 be c1 97 14 3e 35 01 de be
       -0.26577705 -0.3565336 0.14511015 -0.43360296
000010 39 91 bb bd e2 37 17 bf fb b1 8d be 95 f6 98 be
       -0.091585584 -0.59069645 -0.2767485 -0.29875627
000020 43 f5 69 be 4f 22 01 3e 52 6f 8b be f9 82 05 3d
       -0.22847466 0.12610744 -0.27233368 0.03259561
000030 f8 20 45 bf c4 7a b7 be 4f 2b 7f bf 20 c5 ab be
       -0.7700343 -0.3583585 -0.9967546 -0.33548832
000040 4d e1 bd be 28 5b 93 bc 8f 5e 3c bf 23 9a 4c be
       -0.37085953 -0.017987803 -0.73581785 -0.19980673
000050 0e c4 83 be 13 67 55 be c4 d1 8a 3e 25 be b6 3e
       -0.25735515 -0.20840101 0.27113163 0.35691944
000060 6b d0 16 be 62 c9 09 bf e2 33 90 bd 34 4c d5 3d
       -0.14727943 -0.5382291 -0.07041146 0.10414925
000070 ae 65 af be 6a a4 40 bf 3a a4 19 be 0c c3 1c 3e
       -0.34257263 -0.75250876 -0.15004054 0.1530878
000080 70 89 18 bf 79 fe 29 bf a5 18 a0 be 29 ee b9 be
       -0.59584713 -0.6640392 -0.31268802 -0.36314514
000090 00 a7 a0 3c 96 91 2d bf 41 8c 08 bf 01 cf fc be
       0.019610882 -0.6780027 -0.5333901 -0.4937668
0000a0 78 db 5e 3d b4 4d 48 be 1f c8 d3 bd 76 bc 48 bf
       0.05440852 -0.19560891 -0.103409044 -0.7841257
0000b0 b5 3f cb bd bb be 38 bf 9d 85 d0 be 4e 2a 37 be
       -0.099242605 -0.7216603 -0.4072694 -0.17887232
0000c0 83 85 e9 bd bb 28 be be a5 48 6d 3e 02 68 2c 3e
       -0.114024185 -0.3714045 0.23172243 0.16836551
0000d0 b7 9e b6 3b 18 2e c9 3c 1d b4 b0 3e b9 a7 2a 3e
       0.0055731195 0.024558112 0.34512416 0.16665544
0000e0 a2 ea 9c 3d a7 5d 51 3e 18 9b 25 3e f3 06 0a 3c
       0.0766194 0.20445882 0.16172445 0.008424508
0000f0 0e 14 83 3d df 50 bb 3c da 5f 16 3e ab 09 72 be
       0.064003095 0.02286571 0.14685002 -0.236365
000100 a6 1e 8b 3d b3 b9 f0 3e cc d6 38 3e 9a 60 ea 3c
       0.06792955 0.47016677 0.18050689 0.028610516
000110 4b 17 f5 bb c5 0c d3 bc 15 a5 4d 3e 60 95 9d 3c
       -0.0074795834 -0.025762925 0.20082505 0.019236267
000120 61 d0 85 bd c9 46 c3 3e fd ff 40 be 99 b2 2e 39
       -0.06533886 0.38139942 -0.18847652 0.00016660466
000130 3a 91 d1 3e 87 41 2f 3e 81 9a c4 bd 55 05 4d 3c
       0.40931112 0.1711484 -0.09599782 0.012513478
000140 10 2e a4 3d 40 f1 8f bb f1 fc e7 3d c9 d8 d0 bd
       0.08016598 -0.004392773 0.113275416 -0.101975985
000150 75 57 d8 3d 57 0e 0a 3e 4b 4d 15 3d 4e 8b b8 bc
       0.10563556 0.13482033 0.036450665 -0.022527363
000160 62 1b c5 3d c2 7b e3 3d 1f 77 63 be ee 24 02 3f
       0.096243635 0.11107589 -0.2221341 0.508376
000170 d8 71 cc 3d 19 e5 c8 3d 4c 4e 39 3e 6b d4 07 3e
       0.099826515 0.09809322 0.18096274 0.13264625
000180 d4 9f d4 3d d2 a0 47 bd 8a 3f 3d bd bc db d1 3e
       0.10382047 -0.048737355 -0.046203174 0.40987957
000190 a1 ba ea bd f9 c8 ea 3d c5 e1 4a 3d a2 86 88 be
       -0.11461378 0.11464114 0.049531717 -0.26665217
0001a0 21 57 68 3d 2a 38 8e 3e ee e8 96 3d 30 45 a2 be
       0.056723718 0.27777225 0.073686466 -0.3169341
0001b0 c0 ee 14 3e 06 50 e7 bd 22 f7 9b 3c f6 75 e2 bd
       0.14544201 -0.1129456 0.01903874 -0.110576555
0001c0 2e b8 6c 3e 48 1b a9 bd 8b a9 cf be 60 1b aa bd
       0.23117134 -0.082571566 -0.4055904 -0.083060026
0001d0 4d 5e 0a 3c f1 da 38 bd d6 4a 13 3f f9 c3 5d be
       0.008445335 -0.045130674 0.57536066 -0.21656789
0001e0 ad 41 ea 3d ba b8 02 be 0a 35 27 3e 1c 83 93 3e
       0.11438308 -0.1276578 0.16328827 0.28810966
0001f0 b5 6a 3d be 6e bf 4e be a0 b0 98 3d d0 4f 48 3d
       -0.18497737 -0.20190212 0.074555635 0.04890424
000200 52 7a 63 3e f0 54 01 bf 84 5e 50 be 5a 58 38 3d
       0.2221463 -0.5052023 -0.20348555 0.045006134
000210 32 79 bd 3e cc ef 09 bf f1 ca 85 3c 05 76 02 3e
       0.37006527 -0.53881526 0.016332122 0.12740333
000220 b5 9b b7 3d 5b 58 98 be a0 e3 1c bf 8a 3b 86 3e
       0.08965246 -0.2975491 -0.6128483 0.262173
000230 f1 3d 4d 3c fc 9e 9e 3e fa b5 f0 3c e2 79 db be
       0.012526975 0.3098067 0.029383648 -0.42866427
000240 89 6a e1 3d 60 e2 fc be ff 8e ca be ab f3 75 3d
       0.11006648 -0.4939146 -0.39562222 0.060046833
000250 1a 7d 97 bd a3 e1 81 be ef 7c e7 be 93 26 ad be
       -0.07396908 -0.2536746 -0.45212504 -0.33818492
000260 ed 55 20 3e e7 72 8f be 66 db 8f 3d f7 14 98 bd
       0.15657778 -0.2801735 0.07024269 -0.07425874
000270 23 e6 21 3b 52 a3 29 3d 08 df 00 3e 33 84 70 be
       0.0024703823 0.04141552 0.1258508 -0.2348793
000280 50 fb 47 be 79 c6 d2 3d 32 07 4e 3d 01 07 09 3e
       -0.19529462 0.10291762 0.05029983 0.13381578
000290 5f 2f 02 3d 5f 16 aa bd fd fb fc bd ec 64 12 bf
       0.031783458 -0.08305048 -0.123527505 -0.57185245
0002a0 38 9b 9f bd 54 7c a9 3b 15 68 c2 be fe 02 7b 3d
       -0.077932775 0.005172292 -0.37970033 0.06128215
0002b0 2d 43 75 3d e7 a6 5f 3c ac 05 c5 be a4 8c f9 bc
       0.059878517 0.013650632 -0.3848089 -0.03046257
0002c0 2f ab c9 be 3b 46 06 be 49 50 31 be 75 8a 32 be
       -0.39388415 -0.13112728 -0.17315783 -0.1743563
0002d0 68 96 e7 bd 86 ed 46 be 1b 7b a5 bd 7d 93 ca be
       -0.113079846 -0.19426546 -0.08080121 -0.3956565
0002e0 49 8b 82 3b 17 53 30 be 78 1a 42 3d a0 63 b2 be
       0.0039838892 -0.17219196 0.047388524 -0.34841633
0002f0 a6 a9 8a be 90 2b fc 3d 03 02 8f 3e 90 7b 51 be
       -0.27082556 0.123129964 0.27931222 -0.20457292
000300 19 45 a1 be 64 69 ec bc a1 13 c0 bc 66 38 b6 be
       -0.3149803 -0.028858848 -0.02344686 -0.35589904
000310 38 ad b9 bd de 60 5a be fb 85 4f be 3e c6 d1 be
       -0.09066242 -0.21326014 -0.20265953 -0.4097156

lstm.bias_hh_l0 f4 [200]
000000 6b 32 4d be b6 18 09 bf 1f b3 6e 3d 7c b1 2a bf
       -0.20038764 -0.5355333 0.058276292 -0.6667707
000010 67 b2 eb bd e9 35 04 bf 35 8d 75 be 5e 23 d2 be
       -0.11508637 -0.5164476 -0.23979647 -0.41042608
000020 63 20 ba be 75 ee 09 3e 75 52 4d be 2b 2f d7 3d
       -0.36352834 0.1346987 -0.20050986 0.105070435
000030 d9 18 2a bf b9 e9 65 be 8a 80 60 bf 1b b2 11 be
       -0.66444165 -0.2245244 -0.87696135 -0.14228098
000040 5f b8 ca be 5a 45 b5 3b 02 80 2e bf fb e2 b7 be
       -0.3959379 0.005531949 -0.68164074 -0.3591536
000050 3b a4 81 be ce 43 36 be b5 23 6b 3e 1b f0 d2 3e
       -0.2532061 -0.17799303 0.2296284 0.4119881
000060 8d 4b cd bd 18 50 e0 be cb 77 e5 bd 3f 98 3d 3e
       -0.10024176 -0.43811107 -0.11204489 0.18515109
000070 7c 97 b5 be 36 12 1c bf ca c2 bf 3b 21 82 12 3e
       -0.35467136 -0.6096529 0.005852078 0.14307453
000080 b3 4b d9 be df 2f 20 bf ef 67 82 be f5 89 bc be
       -0.42440566 -0.62573045 -0.2546992 -0.36824003
000090 0f 15 53 3c 59 50 28 bf 0d d9 0d bf ad a5 06 bf
       0.012883439 -0.657476 -0.5540932 -0.5259655
0000a0 bf 0d 88 bd 80 55 80 be 8a 2f 06 be e9 ff 23 bf
       -0.06643247 -0.2506523 -0.13104072 -0.6406236
0000b0 b6 f1 9e 3c a8 38 4b bf dc 36 1d bf 74 08 80 be
       0.019402366 -0.79383326 -0.61411834 -0.2500645
0000c0 0a b4 30 be 79 bb 99 be d2 05 99 3e bd 9e 66 3e
       -0.1725618 -0.30025843 0.29887253 0.22521491
0000d0 6c b2 4e bc cc 6b 75 bd 70 51 f6 3d c3 9e c2 3e
       -0.012615781 -0.059917256 0.12027252 0.3801175
0000e0 2f ba 13 bd f5 2e 32 3e b0 d5 2d 3e 3e 7f df 3d
       -0.03606623 0.17400725 0.16976047 0.109129414
0000f0 21 23 8c 3e 57 1c f0 bc 36 71 82 3e 3d 70 06 be
       0.2737055 -0.029310388 0.25476998 -0.13128753
000100 70 0a 9e 3c 60 97 22 3f 48 43 11 3e 91 15 1d bd
       0.019292086 0.6351223 0.14185822 -0.038350645
000110 46 e1 f1 bd 27 b4 07 3d de fd 6c 3e e7 cd b4 3d
       -0.118105456 0.03313079 0.23143718 0.08828335
000120 41 19 5b be ec 03 f3 3e c6 a0 0b bd 8f e4 15 3e
       -0.21396352 0.4746393 -0.034088872 0.1463797
000130 d8 26 a0 3e dc f1 6a 3e 6d cf d6 3d ea 96 d0 3d
       0.31279635 0.22943825 0.10488782 0.101850346
000140 cf d5 1e bc 67 85 ea bd 84 b9 5f 3c ef a2 e6 bc
       -0.009694531 -0.11451226 0.01365507 -0.028153865
000150 23 8b 40 3e d1 ad f6 3d a5 bf 49 3e 3f ff ce 3d
       0.18803076 0.120448716 0.19702013 0.10107278
000160 78 53 fd 3d fd bb a2 3d fb 9a 79 bc 76 da 2f 3f
       0.12369436 0.07946012 -0.015234704 0.6869272
000170 ed cb 2f 3b 94 45 23 3e 5d bb 30 3d d1 34 29 3e
       0.002682443 0.1594451 0.043147434 0.16524054
000180 90 3a ac 3d 56 66 72 3d 9d b9 e2 bd 96 4e 8a 3e
       0.084096074 0.059179626 -0.11070559 0.2701308
000190 f5 5c 6a be 32 31 82 3e e5 6a b0 bd 2a 79 6e be
       -0.22887023 0.25428158 -0.086141385 -0.23288408
0001a0 56 e4 81 bb 47 9e 20 3e f6 de 11 be 7a 1b 79 be
       -0.0039639873 0.15685378 -0.14245209 -0.24326888
0001b0 5d d6 89 3d 06 cc 10 be 8a 6a 88 bd ad 55 40 be
       0.0673034 -0.14140329 -0.06660946 -0.18782683
0001c0 4d e6 a5 3e 5b 9c f5 bd ef b0 1e bf 61 89 33 bd
       0.32402268 -0.11992713 -0.6198873 -0.043832187
0001d0 a1 c1 d4 bc 1e 09 2b be b1 60 c8 3e ce d4 07 bd
       -0.025971236 -0.16702697 0.3913627 -0.03316193
0001e0 24 5a 17 3e 7c 16 84 bd bb 9d 49 3d a0 58 23 3e
       0.1478048 -0.06449601 0.04922269 0.15951777
0001f0 1d b1 6e bd a5 87 0a be 57 96 b8 3d ee 98 0e bd
       -0.058274377 -0.13528307 0.0901305 -0.034813814
000200 34 a3 2d 3e 6e ef d6 be c1 53 1d be 64 43 7b 3e
       0.16956788 -0.41979545 -0.15363981 0.24537426
000210 d2 ba 93 3e ef 82 cd be 63 ea 08 bd 1b 17 96 3d
       0.2885347 -0.40138957 -0.033426654 0.07328626
000220 7f 91 2f bd a1 d1 d2 be e4 49 0b bf 02 fd 40 3e
       -0.042863365 -0.4117556 -0.54409623 0.18846515
000230 c0 8c 89 bc db 6c 84 3e 19 02 f2 3d 72 92 00 bf
       -0.016790748 0.258643 0.11816806 -0.5022346
000240 93 1f 91 bd 4c fb f4 be bc 8b ab be a4 9d d3 bd
       -0.070861004 -0.47847974 -0.33505046 -0.10332802
000250 7b 9d f9 bb 2a c8 0f bd 47 4f f5 be 4b 02 b1 be
       -0.00761765 -0.035103 -0.47912046 -0.34572062
000260 ea 81 95 3e 42 c0 a6 be 80 00 78 3e 49 56 62 bd
       0.2920068 -0.32568556 0.2421894 -0.05525807
000270 28 3a 71 3d f2 a6 c8 bc 7e 2c 9b 3c d5 4a cb be
       0.058893353 -0.024493668 0.018942114 -0.3970553
000280 43 38 7a be 95 fd 17 bd 7e 20 40 bd 9e a2 92 3e
       -0.24435525 -0.03710707 -0.046905987 0.28639692
000290 7f 8d 3c be 71 2d 44 3e 2b 4e 7e bd 64 d8 0e bf
       -0.18413351 0.1915796 -0.062086266 -0.55798936
0002a0 bc 3e 47 3d b5 a5 9c bd 76 f7 c2 be de b7 99 3c
       0.048643813 -0.076487936 -0.38079423 0.018764433
0002b0 4f 5d 81 3e 6b cb 73 bc 10 0e 6f be 6b bd 2b 3d
       0.252665 -0.014880042 -0.23345208 0.04192869
0002c0 21 17 4d be c0 db 38 be f4 2c 46 3d ce a5 23 be
       -0.20028354 -0.18052578 0.048382714 -0.15981218
0002d0 c7 dd 42 be 88 66 d7 bd 89 c7 89 bd 43 37 a8 be
       -0.19029914 -0.10517603 -0.067275114 -0.3285466
0002e0 8e b1 c6 bc c7 63 96 3d 55 67 22 3d 9e f2 bd be
       -0.024254587 0.0734325 0.039649326 -0.37099165
0002f0 21 f3 37 be ba c8 dd 3d 20 78 8c 3e 97 99 9a be
       -0.1796384 0.10829301 0.27435398 -0.30195305
000300 d2 ea 93 be 79 84 0e 3b 78 71 de bd cb b5 e1 be
       -0.2889009 0.002174644 -0.10861486 -0.4408401
000310 19 0f 57 bd 5f 65 6e bd fd 67 5a be d2 2a a5 be
       -0.052504633 -0.058202144 -0.21328731 -0.32259232

fc.weight f4 [1, 50]
000000 ea 23 41 40 1f 83 19 c0 01 8d 20 c0 22 8c 0b 40
       3.017817 -2.398628 -2.5086062 2.180428
000010 45 00 0f c0 fd 55 02 c0 0e ca f8 3f e6 d4 0b 40
       -2.2343915 -2.0364983 1.9436662 2.1848693
000020 a8 d2 fe bf 80 f1 28 c0 ba 1f 09 c0 76 53 12 40
       -1.9908037 -2.63974 -2.1425614 2.286344
000030 d8 99 05 c0 c0 3b 17 40 20 01 03 40 ba 23 ff bf
       -2.0875149 2.3630219 2.0469437 -1.9932778
000040 02 81 13 40 59 51 46 40 b6 5e 17 c0 e6 f8 06 40
       2.304749 3.098715 -2.3651557 2.1089416
000050 9b 77 29 c0 8d 1e 01 40 8b 28 fa 3f 27 a1 e7 3f
       -2.6479251 2.0174897 1.9543623 1.8096055
000060 f7 f1 2d 40 5f 5b 05 40 71 3e 2e 40 6e 4b fe 3f
       2.7178934 2.0837018 2.7225611 1.9866769
000070 28 b1 05 c0 62 22 00 40 9b 80 fc bf bb f9 fe 3f
       -2.0889378 2.0020986 -1.9726747 1.9919962
000080 3e 77 01 c0 4a e1 2e 40 ca ed 02 40 55 6f 11 c0
       -2.022903 2.7325006 2.0457635 -2.2724202
000090 f6 4a 03 40 0a cf 07 40 3c e8 23 40 af ff 01 c0
       2.0514503 2.1220117 2.5610495 -2.0312307
0000a0 3d 38 1c 40 80 f7 08 40 dd fd 0d c0 77 e1 02 40
       2.4409325 2.1401062 -2.2186196 2.0450113
0000b0 be 23 0c 40 8d a9 1f 40 f2 1b 02 40 9c 73 00 40
       2.1896815 2.4947236 2.0329556 2.0070562
0000c0 cc 1a 0f 40 be 47 21 40
       2.2360106 2.5200038
