cnn.onnx (onnx, 28718 bytes, 7 tensors)

conv1.weight f4 [48, 3, 1]
-0.23184207 0.518945 -0.27741945 0.4032227 -0.19230895 -0.021858357 0.2590227 0.51031196
0.18057257 -0.54896843 0.19872445 0.5784413 -0.19905403 0.17476632 0.38685524 0.33529523
-0.3128539 -0.19326416 0.3307871 0.16486868 0.026459636 -0.08945243 0.43614548 -0.09315999
0.1558663 -0.051859543 -0.15340449 0.4412412 0.054327626 0.21515316 -0.26598343 -0.45490485
-0.26531926 0.03522601 -0.16407217 0.31109586 -0.25999674 0.29552954 0.14616069 0.25363925
0.28050536 -0.13091603 0.44785616 0.38071904 -0.61214685 0.014781149 0.5822631 -0.54242975
-0.43785235 -0.5319959 -0.13871397 -0.41706204 -0.3060116 -0.56622905 -0.26469144 -0.35984024
0.3542899 0.4892457 0.23181657 -0.13461405 -0.0918835 0.5282932 0.18371761 0.45971978
-0.4834248 -0.085485995 -0.4834329 -0.28295624 0.4371763 -0.60946715 -0.2329984 0.3379726
0.37113956 0.4001276 0.3432975 -0.16235197 0.11939109 0.20331305 -0.34634367 -0.14361309
0.12011031 0.092157364 0.29910278 -0.115992025 0.34775424 -0.4096054 0.053128853 0.3009358
0.5443097 -0.56219465 -0.20286122 -0.06679495 -0.13945971 0.5623775 -0.24622568 0.12853414
-0.18161903 0.46084577 0.19510017 0.3219781 0.36669973 -0.025194446 0.5132362 0.39280286
-0.16243084 0.39794508 0.41532606 -0.1415578 -0.44083458 -0.2623049 -0.24031124 0.14454563
0.27039635 -0.4476543 0.54146534 -0.5235175 -0.115724094 0.25541434 -0.5428559 0.21541539
-0.15245217 -0.42484277 0.1359617 0.563353 -0.0014884848 -0.041421026 0.5307934 -0.09610205
0.2860952 0.4628418 -0.47447717 0.4706076 0.30653593 0.2785754 0.08872236 -0.54530543
-0.5536935 -0.249275 -0.16014291 0.1957014 0.53063005 -0.017813683 0.19820918 -0.04725088
00000000: 0268 6dbe 94d9 043f ec09 8ebe 3573 ce3e
00000010: a3ec 44be 4c10 b3bc a09e 843e cea3 023f
00000020: 04e8 383e 3289 0cbf 6c7e 4b3e bb14 143f
00000030: d2d4 4bbe f1f5 323e e411 c63e d1ab ab3e
00000040: 632e a0be 0ae7 45be ed5c a93e 56d3 283e
00000050: e1c1 d83c d632 b7bd 764e df3e aaca bebd
00000060: 6a9b 1f3e ac6a 54bd 1116 1dbe 5eea e13e
00000070: a586 5e3d 1c51 5c3e fb2e 88be 4ae9 e8be
00000080: edd7 87be 2649 103d 8902 28be f547 9f3e
00000090: 4b1e 85be a64f 973e 26ab 153e 01dd 813e
000000a0: 669e 8f3e da0e 06be 674d e53e 9bed c23e
000000b0: a8b5 1cbf a22c 723c 320f 153f addc 0abf
000000c0: 2f2e e0be e230 08bf 090b 0ebe 2889 d5be
000000d0: 8dad 9cbe 63f4 10bf a385 87be fb3c b8be
000000e0: 7c65 b53e 6a7e fa3e 5361 6d3e 44d8 09be
000000f0: 6b2d bcbd 393e 073f 7820 3c3e 6460 eb3e
00000100: 7583 f7be 4813 afbd 8484 f7be a4df 90be
00000110: 92d5 df3e 0a06 1cbf 2297 6ebe bf0a ad3e
00000120: 0106 be3e 86dd cc3e b1c4 af3e 983f 26be
00000130: 5183 f43d 4c31 503e f553 b1be 4f0f 13be
00000140: 65fc f53d 00bd bc3d 0024 993e 3a8d edbd
00000150: d80c b23e cdb7 d1be a49d 593d 4214 9a3e
00000160: e157 0b3f fdeb 0fbf daba 4fbe cacb 88bd
00000170: 87ce 0ebe f9f7 0f3f 9622 7cbe 749e 033e
00000180: 57fa 39be faf3 eb3e 57c8 473e 50da a43e
00000190: 11c0 bb3e 9564 cebc 7363 033f 751d c93e
000001a0: 4554 26be 75bf cb3e 9ea5 d43e 87f4 10be
000001b0: 12b5 e1be d44c 86be 2614 76be c503 143e
000001c0: 6471 8a3e f232 e5be 799d 0a3f 3e05 06bf
000001d0: c100 edbd abc5 823e 9bf8 0abf da95 5c3e
000001e0: 6c1c 1cbe fe84 d9be 8b39 0b3e e737 103f
000001f0: 4319 c3ba 18a9 29bd 14e2 073f 27d1 c4bd
00000200: 127b 923e 9af9 ec3e acee f2be 7bf3 f03e
00000210: 47f2 9c3e 6fa1 8e3e 12b4 b53d 2399 0bbf
00000220: dbbe 0dbf f241 7fbe 81fc 23be f365 483e
00000230: 5fd7 073f 00ee 91bc 59f7 4a3e 248a 41bd

conv1.bias f4 [48]
-0.1308111 0.84415835 0.13062665 0.8995189 0.15753785 -0.1215547 0.9358989 -0.32759646
-0.34059656 0.1766392 -0.030215364 1.1260024 0.31355932 -0.463354 -0.058983576 -0.6151196
-0.2010504 0.24907176 0.22104208 -0.8895455 0.9096609 -0.005207637 0.0014624244 -0.3325325
0.9182901 0.28851807 0.44946265 0.45823097 0.44947037 -1.0111141 0.32503155 0.918278
1.0792769 0.022398388 0.15677486 0.07807363 -0.12371173 0.46798977 -0.6555135 0.0430028
-0.20215115 -0.3075781 0.6411882 0.93619466 0.8522561 -0.5692386 0.3931303 -0.25162974
00000000: 58f3 05be c31a 583f fec2 053e df46 663f
00000010: 9a51 213e acf1 f8bd 1297 6f3f b9ba a7be
00000020: ac62 aebe e8e0 343e 3686 f7bc d920 903f
00000030: d98a a03e bc3c edbe c398 71bd 7a78 1dbf
00000040: 28e0 4dbe ab0c 7f3e db58 623e 41b9 63bf
00000050: 89df 683f d3a4 aabb d2ae bf3a b341 aabe
00000060: 0f15 6b3f a4b8 933e f81f e63e 409d ea3e
00000070: fb20 e63e 306c 81bf 896a a63e 4414 6b3f
00000080: bf25 8a3f d37c b73c 9789 203e 11e5 9f3d
00000090: 935c fdbd 5b9c ef3e bccf 27bf b423 303d
000000a0: b600 4fbe e07a 9dbe e924 243f 74aa 6f3f
000000b0: 752d 5a3f 9fb9 11bf 6048 c93e 9dd5 80be

conv2.weight f4 [96, 48, 1]
-0.09818777 -0.044147544 0.13616623 -0.14831889 -0.12463292 0.024808623 0.081723616 -0.03605598
0.107262254 -0.08307824 -0.04648463 -0.08408103 -0.09591588 0.17083925 0.07890751 0.0920562
0.037789304 0.14119786 -0.07576238 0.017171858 -0.03091631 0.18717347 -0.28773302 0.02732412
0.12691973 0.11217656 -0.024515873 -0.017906161 0.07199264 0.03577003 0.10597965 0.14071469
0.0014702614 -0.092399806 0.09707373 -0.019133102 0.04013565 -0.017634917 0.16368225 -0.016645039
0.10266547 -0.04888442 0.024007887 -0.08901043 -0.08228066 0.11003868 0.02845908 0.058946498
-0.10909532 0.027270759 -0.1440397 0.02220338 0.075165085 -0.0017508781 -0.12812334 0.037312202
-0.08922892 -0.021138804 0.07363912 0.076387376 0.03586437 -0.1399849 -0.1448118 -0.14319183
0.07517095 0.06551442 0.04014869 -0.14239685 0.10219938 0.0010140111 0.02686837 0.057004195
0.025107117 -0.065562986 0.178523 -0.015528204 -0.113209516 0.112833135 -0.0030588983 0.08770389
0.04006659 -0.14729871 0.03889212 -0.13349414 0.006230722 -0.04319324 0.087590404 -0.017124748
0.15266286 -0.15628381 -0.09094437 0.12362097 0.005473705 -0.11427869 0.026460888 0.06995042
0.13108401 -0.004108524 0.14692467 0.10080082 0.160689 -0.05690019 0.0065720757 0.065656796
-0.086958796 -0.03809611 0.03973056 0.16493784 -0.093995154 -0.13189015 -0.13369997 -0.15160225
-0.09907376 0.065576725 0.24943617 0.069274224 0.11125618 0.08971804 -0.005380738 -0.0070425444
-0.08118414 -0.064104274 0.05833338 0.071249336 0.0939621 0.043615207 -0.10334257 -0.107560575
0.044449545 0.11377529 0.14506163 -0.07103145 0.0028976747 0.13285808 -0.116296865 -0.006753029
-0.07336584 0.065767884 0.032175936 0.026788786 0.019570474 -0.098578855 0.1393102 0.015238343
-0.033480942 -0.11645436 0.09360024 -0.023121465 -0.115783505 0.04172864 0.08862998 0.049114097
0.09691485 -0.09551142 -0.058503374 -0.003327344 -0.061466236 -0.13142003 0.0030852153 0.12630455
-0.1395268 0.02491549 -0.31002557 0.11843144 0.051816463 -0.08930052 -0.15338787 0.1508854
0.1355987 -0.1281153 0.09823709 -0.1425121 -0.058136676 -0.026713451 0.015416152 -0.08318945
0.11123218 0.0562137 -0.09951171 0.10682103 0.10273032 0.004279238 0.13853893 0.11769782
0.11108857 -0.032424938 -0.10364076 0.10538678 -0.11044279 -0.14303151 0.02725139 -0.05257645
0.06909362 -0.055081703 0.11449628 0.12056046 0.09599268 -0.119910166 0.11715566 -0.04878483
-0.06747425 0.008446666 -0.04017617 0.22091103 0.07598675 0.08353186 -0.088941544 0.01348361
0.056893855 -0.094791315 0.072117716 -0.073979124 0.02885705 0.045762323 -0.060108263 0.08241116
-0.106785186 0.00010334696 -0.008797333 -0.11858798 -0.016022043 -0.10474238 0.065366395 -0.06462534
-0.04481019 0.032949504 0.09237326 0.077716164 0.007994961 0.1575458 0.038371187 -0.056251515
0.08323852 0.009719476 0.061856274 -0.0100757 0.09759038 0.12940659 -0.0016192422 0.051557105
0.029291313 -0.04328967 -0.11351174 -0.05523597 -0.054570798 0.16839443 -0.08693746 0.006725587
0.09702899 0.028550142 0.024924954 -0.11108868 0.012689297 0.15303436 -0.066540115 0.1748708
00000000: ab16 c9bd 0ed4 34bd 296f 0b3e e8e0 17be
00000010: 8b3f ffbd 743b cb3c b65e a73d 6faf 13bd
00000020: 50ac db3d ed24 aabd ab66 3ebd ad32 acbd
00000030: 8b6f c4bd 7cf0 2e3e 439a a13d f687 bc3d
00000040: f5c8 1a3d 2c96 103e 4f29 9bbd ffab 8c3c
00000050: 3444 fdbc 67aa 3f3e be51 93be d5d6 df3c
00000060: 3ff7 013e d3bc e53d 83d5 c8bc f1af 92bc
00000070: e170 933d 9883 123d dc0b d93d 8317 103e
00000080: c9b5 c03a 1c3c bdbd 97ce c63d 06bd 9cbc
00000090: 4865 243d 1a77 90bc 529c 273e 2d5b 88bc
000000a0: 4642 d23d 083b 48bd 30ac c43c 1a4b b6bd
000000b0: c382 a8bd f65b e13d 0423 e93c e271 713d
000000c0: 5e6d dfbd ed66 df3c 257f 13be dde3 b53c
000000d0: 27f0 993d b87d e5ba c432 03be aed4 183d
000000e0: a7bd b6bd 492b adbc 1bd0 963d fc70 9c3d
000000f0: 85e6 123d 3458 0fbe 8b49 14be e1a0 12be
00000100: 3af3 993d 6d2c 863d f472 243d 7bd0 11be
00000110: e94d d13d 91e8 843a 0e1b dc3c 3b7d 693d
00000120: 71ad cd3c e345 86bd bcce 363e 026a 7ebc
00000130: 64da e7bd 0f15 e73d cc77 48bb 199e b33d
00000140: dd1c 243d 79d5 16be 584d 1f3d b0b2 08be
00000150: 162b cc3b 65eb 30bd 9962 b33d 3349 8cbc
00000160: a753 1c3e dd08 20be 0b41 babd fe2c fd3d
00000170: c45c b33b f20a eabd 81c4 d83c 2a42 8f3d
00000180: e33a 063e cca0 86bb 6c73 163e a970 ce3d
00000190: a88b 243e 2c10 69bd 915a d73b 1277 863d
000001a0: 7417 b2bd ab0a 1cbd 83bc 223d 77e5 283e
000001b0: 8880 c0bd 360e 07be a5e8 08be 9f3d 1bbe
000001c0: 2fe7 cabd 174d 863d 326c 7f3e a5df 8d3d
000001d0: 48da e33d 17be b73d e750 b0bb 25c5 e6bb
000001e0: df43 a6bd 1a49 83bd fbee 6e3d 2ceb 913d
000001f0: 346f c03d dca5 323d 45a5 d3bd b848 dcbd
00000200: ba10 363d 0503 e93d 098b 143e f078 91bd
00000210: eae6 3d3b f30b 083e 0d2d eebd 8348 ddbb
00000220: d440 96bd 50b1 863d eaca 033d 2874 db3c
00000230: 4252 a03c b6e3 c9bd 55a7 0e3e 3eaa 793c
00000240: 5023 09bd a07f eebd 7cb1 bf3d 3a69 bdbc
00000250: e71f edbd a7eb 2a3d a383 b53d dd2b 493d
00000260: 4b7b c63d 7e9b c3bd 3ca1 6fbd 920f 5abb
00000270: 05c4 7bbd f992 06be 5331 4a3b fb55 013e
00000280: 1de0 0ebe 921b cc3c acbb 9ebe 2f8c f23d
00000290: 803d 543d 31e3 b6bd b611 1dbe b481 1a3e
000002a0: 63da 0a3e a830 03be 8730 c93d b1ee 11be
000002b0: b920 6ebd 2bd6 dabc 0794 7c3c 3b5f aabd
000002c0: b2cd e33d 5640 663d cccc cbbd fcc4 da3d
000002d0: 4664 d23d da38 8c3b 26dd 0d3e 8e0b f13d
000002e0: 6782 e33d 03d0 04bd 9b41 d4bd 06d5 d73d
000002f0: d42f e2bd da76 12be 4f3e df3c 675a 57bd
00000300: f580 8d3d 5a9d 61bd 077d ea3d 67e8 f63d
00000310: cf97 c43d 7693 f5bd 4fef ef3d 9ad2 47bd
00000320: f12f 8abd e363 0a3c c58f 24bd 8036 623e
00000330: f19e 9b3d c012 ab3d fc26 b6bd 5cea 5c3c
00000340: 8809 693d f321 c2bd 74b2 933d 5e82 97bd
00000350: 9f65 ec3c 4671 3b3d 1534 76bd 2fc7 a83d
00000360: 31b2 dabd fabb d838 b022 10bc 41de f2bd
00000370: a940 83bc 2c83 d6bd d1de 853d 4a5a 84bd
00000380: e48a 37bd 0ff6 063d 312e bd3d a729 9f3d
00000390: 4cfd 023c b053 213e 1b2b 1d3d fd67 66bd
000003a0: f578 aa3d 703e 1f3c 015d 7d3d 8c14 25bc
000003b0: 77dd c73d 2983 043e c13c d4ba 8b2d 533d
000003c0: 56f4 ef3c 8250 31bd d878 e8bd 1d3f 62bd
000003d0: a185 5fbd 976f 2c3e 440c b2bd 5062 dc3b
000003e0: 23b7 c63d fde1 e93c 6b2f cc3c 7682 e3bd
000003f0: c5e6 4f3c 0ab5 1c3e 2f46 88bd 5511 333e

conv2.bias f4 [96]
-0.46655986 0.18766986 0.5373331 -0.45761493 0.49145678 -0.4361564 0.1328655 -0.3801719
-0.069966696 -0.5781331 0.57993585 0.49432808 -0.11203023 0.51715654 -0.07696057 -0.26731873
-0.06959741 0.117482275 0.6376019 0.70512533 0.11155911 0.6355463 0.44215834 0.7004297
-0.0521833 0.6157014 0.6177806 0.048076343 0.56256807 0.12432954 0.6914678 0.49100518
0.5711959 -0.023521597 0.15124415 0.07489625 0.5650534 0.11009711 -0.10005554 -0.051052134
0.43599713 0.5622644 -0.06041557 0.589261 0.54448324 0.14760913 0.5361613 0.6641088
0.53566706 -0.6548207 0.4756161 0.44908628 0.13565253 0.49159145 0.56451696 -0.6790716
-0.10634934 0.34659702 0.086964965 0.66255814 0.718435 0.5877774 -0.080716275 0.7072022
0.001606852 0.06996761 -0.07367516 0.6815432 0.693584 0.003394713 0.06583995 -0.5261008
0.38918173 0.71393985 0.5961985 0.13942514 -0.003843309 0.10154334 0.58227557 -0.49461114
-0.074750535 0.05461155 0.022298189 0.53748506 0.09077656 0.64303386 0.06934835 0.4461052
0.59222585 0.4697177 0.47633338 0.4788197 0.4869047 0.6039985 -0.16366331 0.29847383
00000000: efe0 eebe 872c 403e a98e 093f 814c eabe
00000010: 39a0 fb3e e44f dfbe e50d 083e e4a5 c2be
00000020: b34a 8fbd 8800 14bf ad76 143f 9218 fd3e
00000030: 1b70 e5bd 5f64 043f 819d 9dbd 00de 88be
00000040: 1689 8ebd 8c9a f03d e139 233f 1883 343f
00000050: 1a79 e43d 2ab3 223f 9462 e23e 5c4f 333f
00000060: 28be 55bd 9b9e 1d3f df26 1e3f b3eb 443d
00000070: 7604 103f 7ca0 fe3d 0904 313f 0865 fb3e
00000080: e539 123f 5db0 c0bc bfdf 1a3e 3563 993d
00000090: 57a7 103f 987a e13d ebe9 ccbd 0b1c 51bd
000000a0: 043b df3e 8ff0 0f3f 5176 77bd cfd9 163f
000000b0: 4163 0b3f d926 173e de41 093f 0903 2a3f
000000c0: 7a21 093f 54a2 27bf f483 f33e a3ee e53e
000000d0: 7fe8 0a3e e0b1 fb3e 2f84 103f a3d7 2dbf
000000e0: afcd d9bd 2a75 b13e b01a b23d 699d 293f
000000f0: 5beb 373f 9478 163f 934e a5bd 340b 353f
00000100: 029d d23a 2e4b 8f3d 01e3 96bd 9d79 2e3f
00000110: b98e 313f d579 5e3b 19d7 863d 8bae 06bf
00000120: d442 c73e c3c4 363f 77a0 183f 77c5 0e3e
00000130: 06e0 7bbb f4f5 cf3d 0310 153f ac3d fdbe
00000140: cf16 99bd 5cb0 5f3d b1aa b63c 9f98 093f
00000150: 10e9 b93d de9d 243f 8206 8e3d e767 e43e
00000160: 1d9c 173f d77e f03e f8e1 f33e db27 f53e
00000170: 934b f93e a59f 1a3f 5b97 27be 90d1 983e

fc1.bias f4 [20]
0.66116303 -0.5851368 -0.6384299 0.07844111 0.5605575 0.054206792 0.06969751 0.66928214
0.0173739 0.5003466 0.6748351 0.56954885 0.54401004 0.67661875 0.057996374 0.68273866
0.0790358 -0.069768704 0.6525436 -0.44125634
00000000: fb41 293f 86cb 15bf 2470 23bf bca5 a03d
00000010: b280 0f3f f107 5e3d 91bd 8e3d 1356 2b3f
00000020: b653 8e3c b716 003f fec1 2c3f f4cd 113f
00000030: 3e44 0b3f e336 2d3f 9b8d 6d3d f6c7 2e3f
00000040: 86dd a13d e5e2 8ebd 190d 273f 5aec e1be

onnx::MatMul_22 f4 [96, 20]
0.053078648 0.106689 0.13054132 0.06657094 -0.051914625 0.086868 -0.054517735 -0.12393128
-0.107737914 -0.010567522 -0.06755425 -0.12899056 -0.026405083 0.0044523566 -0.3543513 -0.13283475
-0.023387458 -0.08243181 0.009469093 0.1383633 0.04417782 0.011637368 -0.09019645 -0.03612356
0.12284611 0.020247173 0.07694234 0.018588874 -0.061223175 -0.018283367 0.08649264 0.18481857
-0.002493031 0.03417129 0.09931424 0.10168372 -0.050891206 -0.024457097 0.14202432 -0.09461123
0.09669515 0.046867546 -0.008762647 -0.08825149 -0.00043354536 -0.03721304 -0.041155923 0.11256144
-0.035449803 0.02182338 0.03913047 0.12213196 0.07055532 0.071348354 0.01655415 0.12006387
-0.021864278 0.08733545 0.10503937 -0.00922029 0.046190236 0.06474756 -0.03973968 0.008325038
-0.03219422 -0.07282609 0.021633005 -0.06881316 0.054571934 0.022590287 -0.10989253 0.073030494
-0.10452758 -0.092168406 -0.02935702 -0.0261106 0.024881948 0.051753663 -0.07418672 0.0075924075
0.121185616 -0.04824493 -0.107724406 0.018985335 -0.01152301 -0.08394555 0.02874674 0.069053516
-0.09765627 0.13752796 0.12463198 0.12592097 -0.035039175 -0.051100656 0.052152958 0.01990766
0.007199259 -0.008028615 0.08206638 0.05125437 0.04680048 0.02785842 0.106476255 0.055246215
-0.10666181 0.091566585 0.058240544 0.0013511389 -0.058561306 -0.1335884 0.01993105 -0.11110557
-0.12535845 0.0007880589 -0.052724645 0.040870495 -0.0075308396 -0.06174418 -0.018357243 0.070488416
-0.038816147 -0.095820315 -0.05267272 0.020681987 0.036302205 -0.016083661 -0.07878244 0.06165182
-0.00016068624 0.018646806 0.076972835 0.03580365 0.06756433 0.033852015 -0.09783436 -0.043214634
0.009702105 0.079145834 0.06945237 0.004382183 0.04449475 0.06033014 0.0869622 0.028711908
0.057865407 -0.06727089 0.078859866 -0.051761087 -0.034365788 -0.054820497 0.06106528 -0.017884584
0.030224333 0.095215425 0.006759624 0.009521936 -0.08419796 0.05636167 0.124323964 0.0776579
-0.0579746 -0.05736855 0.025418112 -0.0054046395 -0.055293903 0.055823106 0.046891667 0.03240814
0.028174125 -0.09878893 0.04686321 0.083919644 -0.030749861 0.05985563 0.095729664 0.010435505
-0.048995517 -0.083481096 0.09103314 -0.036640257 0.048320003 -0.014947807 0.03807163 0.0076610185
-0.072249554 -0.026787197 0.07794116 -0.043217544 0.07806211 -0.070908666 -0.0914318 -0.01405969
0.031089716 0.012808162 -0.10462133 -0.040662736 -0.011730886 0.0003552195 0.051730026 0.10701789
0.10803279 -0.068115495 -0.01723539 0.022449322 0.015958888 -0.028233526 -0.052675214 0.1773997
0.010941978 0.17474058 0.12866294 -0.01461028 0.17559002 0.04431573 0.033615004 -0.011177674
0.088438965 0.08510524 0.07249776 -0.03547476 0.16534035 -0.14783594 -0.17571656 -0.08373294
0.20067024 -0.0773791 -0.079918966 0.24755749 -0.06815994 0.11270011 0.06251693 0.17987938
0.20138833 0.11596788 0.012381333 0.20702799 0.0701673 -0.06015936 0.16879767 -0.030234251
-0.068800464 0.036815934 0.088856876 0.100573026 0.027709123 0.029467802 0.097915895 0.04324538
0.0301775 -0.098879606 -0.013524934 0.041120943 0.048850767 0.040156145 -0.075954184 0.015966764
00000000: ff68 593d c37f da3d a0ac 053e 5856 883d
00000010: 6ea4 54bd dae7 b13d fd4d 5fbd afcf fdbd
00000020: b2a5 dcbd 6623 2dbc e259 8abd 1a16 04be
00000030: 794f d8bc 13e5 913b 896d b5be d505 08be
00000040: 0e97 bfbc 02d2 a8bd 4124 1b3c 1caf 0d3e
00000050: cdf3 343d a9aa 3e3c ebb8 b8bd 4cf6 13bd
00000060: be96 fb3d 66dd a53c f293 9d3d b247 983c
00000070: 27c5 7abd 00c7 95bc 0e23 b13d 1441 3d3e
00000080: 1f62 23bb 32f7 0b3d 4465 cb3d 8e3f d03d
00000090: 4c73 50bd 405a c8bc d36e 113e 88c3 c1bd
000000a0: 1b08 c63d 2ff8 3f3d 3591 0fbc 32bd b4bd
000000b0: 794d e3b9 b36c 18bd 1d93 28bd 9d86 e63d
000000c0: d033 11bd f2c6 b23c 4647 203d 5220 fa3d
000000d0: 4f7f 903d 161f 923d 929c 873c 0ce4 f53d
000000e0: b71c b3bc eedc b23d e21e d73d b310 17bc
000000f0: f931 3d3d 5e9a 843d 13c6 22bd bd65 083c
00000100: 16de 03bd d825 95bd b337 b13c eaed 8cbd
00000110: d286 5f3d 440f b93c 560f e1bd 0391 953d
00000120: 8e12 d6bd cac2 bcbd 227e f0bc e6e5 d5bc
00000130: 3ad5 cb3c a6fb 533d 35ef 97bd bbc9 f83b
00000140: 2a30 f83d 7a9c 45bd 9d9e dcbd 2287 9b3c
00000150: 02cb 3cbc a5eb abbd 497e eb3c ee6b 8d3d
00000160: 0300 c8bd 21d4 0c3e 0d3f ff3d 6df1 003e
00000170: 3d85 0fbd ec4e 51bd 579e 553d 6415 a33c
00000180: c3e7 eb3b 748a 03bc 6b12 a83d 1af0 513d
00000190: dcb1 3f3d 5737 e43c 3910 da3d db49 623d
000001a0: 8271 dabd 4387 bb3d a38d 6e3d b318 b13a
000001b0: fbdd 6fbd 66cb 08be 7146 a33c 518b e3bd
000001c0: f75d 00be bd95 4e3a ccf5 57bd d267 273d
000001d0: 43c5 f6bb 77e7 7cbd ee61 96bc 3b5c 903d
000001e0: aefd 1ebd 713d c4bd 5abf 57bd 456d a93c
000001f0: 9fb1 143d e2c1 83bc b058 a1bd 9e86 7c3d
00000200: e27d 28b9 30c1 983c efa3 9d3d d9a6 123d
00000210: 2b5f 8a3d 69a8 0a3d 625d c8bd d401 31bd
00000220: 94f5 1e3c 3617 a23d 0b3d 8e3d 6a98 8f3b
00000230: 2140 363d bd1c 773d 3d19 b23d 3c35 eb3c
00000240: 4704 6d3d 52c5 89bd 4881 a13d 6f03 54bd
00000250: 24c3 0cbd 758b 60bd 961f 7a3d b182 92bc
00000260: 0599 f73c 4e00 c33d d67f dd3b e501 1c3c
00000270: fb6f acbd 7fdb 663d 909d fe3d 1b0b 9f3d
00000280: c676 6dbd 49fb 6abd a539 d03c 6719 b1bb
00000290: dc7b 62bd c5a6 643d 7a11 403d 66be 043d
000002a0: 6ccd e63c da51 cabd a3f3 3f3d 10de ab3d
000002b0: 22e7 fbbc 2d2b 753d ea0d c43d aef9 2a3c
000002c0: 86af 48bd 23f8 aabd 956f ba3d 1814 16bd
000002d0: 32eb 453d a6e7 74bc fff0 1b3d 4809 fb3b
000002e0: 93f7 93bd d370 dbbc 9d9f 9f3d e104 31bd
000002f0: 07df 9f3d 9038 91bd 9840 bbbd 9d5a 66bc
00000300: dcaf fe3c 53d9 513c b543 d6bd f88d 26bd
00000310: e732 40bc c13c ba39 dde2 533d 322c db3d
00000320: 4c40 dd3d 2380 8bbd 3c31 8dbc a4e7 b73c
00000330: 37bc 823c ff49 e7bc f7c1 57bd 44a8 353e
00000340: fb45 333c 32ef 323e 38c0 033e f55f 6fbc
00000350: dfcd 333e 6984 353d e3af 093d 9022 37bc
00000360: 7d1f b53d a84b ae3d b579 943d fb4d 11bd
00000370: fb4e 293e 4e62 17be 0bef 33be 2d7c abbd
00000380: 807c 4d3e ef78 9ebd 8eac a3bd b67f 7d3e
00000390: 7097 8bbd 51cf e63d e008 803d 4d32 383e
000003a0: be38 4e3e 9180 ed3d 13db 4a3c 25ff 533e
000003b0: e0b3 8f3d a969 76bd 4cd9 2c3e d2ad f7bc
000003c0: 42e7 8cbd 4ecc 163d 98fa b53d 3bf9 cd3d
000003d0: 3efe e23c 7666 f13c 2188 c83d 1122 313d
000003e0: ce36 f73c 6481 cabd af97 5dbc 6f6e 283d
000003f0: be17 483d c57a 243d de8d 9bbd bbcc 823c

onnx::MatMul_23 f4 [20, 1]
0.06066932 -0.2182341 -0.22950473 0.21994068 0.22486205 -0.14748083 -0.22830474 0.2050281
-0.040008653 0.08048824 0.05398858 0.06940984 0.22540194 0.05779622 0.23714985 0.110106796
0.13510069 -0.17659344 0.19121718 -0.2319298
00000000: 6580 783d c378 5fbe 4a03 6bbe 2138 613e
00000010: 3d42 663e 3705 17be b8c8 69be e3f2 513e
00000020: 1de0 23bd 05d7 a43d 2123 5d3d bf26 8e3d
00000030: c4cf 663e bbbb 6c3d 69d7 723e ac7f e13d
00000040: d657 0a3e e9d4 34be 70ce 433e 017f 6dbe
