model200.pt (torch, 30668 bytes, 7 tensors)

conv1.weight f4 [48, 3, 1]
-0.23184207 0.518945 -0.27741945 0.4032227 -0.19230895 -0.021858357 0.2590227 0.51031196
0.18057257 -0.54896843 0.19872445 0.5784413 -0.19905403 0.17476632 0.38685524 0.33529523
-0.3128539 -0.19326416 0.3307871 0.16486868 0.026459636 -0.08945243 0.43614548 -0.09315999
0.1558663 -0.051859543 -0.15340449 0.4412412 0.054327626 0.21515316 -0.26598343 -0.45490485
-0.26531926 0.03522601 -0.16407217 0.31109586 -0.25999674 0.29552954 0.14616069 0.25363925
0.28050536 -0.13091603 0.44785616 0.38071904 -0.61214685 0.014781149 0.5822631 -0.54242975
-0.43785235 -0.5319959 -0.13871397 -0.41706204 -0.3060116 -0.56622905 -0.26469144 -0.35984024
0.3542899 0.4892457 0.23181657 -0.13461405 -0.0918835 0.5282932 0.18371761 0.45971978
-0.4834248 -0.085485995 -0.4834329 -0.28295624 0.4371763 -0.60946715 -0.2329984 0.3379726
0.37113956 0.4001276 0.3432975 -0.16235197 0.11939109 0.20331305 -0.34634367 -0.14361309
0.12011031 0.092157364 0.29910278 -0.115992025 0.34775424 -0.4096054 0.053128853 0.3009358
0.5443097 -0.56219465 -0.20286122 -0.06679495 -0.13945971 0.5623775 -0.24622568 0.12853414
-0.18161903 0.46084577 0.19510017 0.3219781 0.36669973 -0.025194446 0.5132362 0.39280286
-0.16243084 0.39794508 0.41532606 -0.1415578 -0.44083458 -0.2623049 -0.24031124 0.14454563
0.27039635 -0.4476543 0.54146534 -0.5235175 -0.115724094 0.25541434 -0.5428559 0.21541539
-0.15245217 -0.42484277 0.1359617 0.563353 -0.0014884848 -0.041421026 0.5307934 -0.09610205
0.2860952 0.4628418 -0.47447717 0.4706076 0.30653593 0.2785754 0.08872236 -0.54530543
-0.5536935 -0.249275 -0.16014291 0.1957014 0.53063005 -0.017813683 0.19820918 -0.04725088
00000000: 0268 6dbe 94d9 043f ec09 8ebe 3573 ce3e
00000010: a3ec 44be 4c10 b3bc a09e 843e cea3 023f
00000020: 04e8 383e 3289 0cbf 6c7e 4b3e bb14 143f
00000030: d2d4 4bbe f1f5 323e e411 c63e d1ab ab3e
00000040: 632e a0be 0ae7 45be ed5c a93e 56d3 283e
00000050: e1c1 d83c d632 b7bd 764e df3e aaca bebd
00000060: 6a9b 1f3e ac6a 54bd 1116 1dbe 5eea e13e
00000070: a586 5e3d 1c51 5c3e fb2e 88be 4ae9 e8be
00000080: edd7 87be 2649 103d 8902 28be f547 9f3e
00000090: 4b1e 85be a64f 973e 26ab 153e 01dd 813e
000000a0: 669e 8f3e da0e 06be 674d e53e 9bed c23e
000000b0: a8b5 1cbf a22c 723c 320f 153f addc 0abf
000000c0: 2f2e e0be e230 08bf 090b 0ebe 2889 d5be
000000d0: 8dad 9cbe 63f4 10bf a385 87be fb3c b8be
000000e0: 7c65 b53e 6a7e fa3e 5361 6d3e 44d8 09be
000000f0: 6b2d bcbd 393e 073f 7820 3c3e 6460 eb3e
00000100: 7583 f7be 4813 afbd 8484 f7be a4df 90be
00000110: 92d5 df3e 0a06 1cbf 2297 6ebe bf0a ad3e
00000120: 0106 be3e 86dd cc3e b1c4 af3e 983f 26be
00000130: 5183 f43d 4c31 503e f553 b1be 4f0f 13be
00000140: 65fc f53d 00bd bc3d 0024 993e 3a8d edbd
00000150: d80c b23e cdb7 d1be a49d 593d 4214 9a3e
00000160: e157 0b3f fdeb 0fbf daba 4fbe cacb 88bd
00000170: 87ce 0ebe f9f7 0f3f 9622 7cbe 749e 033e
00000180: 57fa 39be faf3 eb3e 57c8 473e 50da a43e
00000190: 11c0 bb3e 9564 cebc 7363 033f 751d c93e
000001a0: 4554 26be 75bf cb3e 9ea5 d43e 87f4 10be
000001b0: 12b5 e1be d44c 86be 2614 76be c503 143e
000001c0: 6471 8a3e f232 e5be 799d 0a3f 3e05 06bf
000001d0: c100 edbd abc5 823e 9bf8 0abf da95 5c3e
000001e0: 6c1c 1cbe fe84 d9be 8b39 0b3e e737 103f
000001f0: 4319 c3ba 18a9 29bd 14e2 073f 27d1 c4bd
00000200: 127b 923e 9af9 ec3e acee f2be 7bf3 f03e
00000210: 47f2 9c3e 6fa1 8e3e 12b4 b53d 2399 0bbf
00000220: dbbe 0dbf f241 7fbe 81fc 23be f365 483e
00000230: 5fd7 073f 00ee 91bc 59f7 4a3e 248a 41bd

conv1.bias f4 [48]
-0.1308111 0.84415835 0.13062665 0.8995189 0.15753785 -0.1215547 0.9358989 -0.32759646
-0.34059656 0.1766392 -0.030215364 1.1260024 0.31355932 -0.463354 -0.058983576 -0.6151196
-0.2010504 0.24907176 0.22104208 -0.8895455 0.9096609 -0.005207637 0.0014624244 -0.3325325
0.9182901 0.28851807 0.44946265 0.45823097 0.44947037 -1.0111141 0.32503155 0.918278
1.0792769 0.022398388 0.15677486 0.07807363 -0.12371173 0.46798977 -0.6555135 0.0430028
-0.20215115 -0.3075781 0.6411882 0.93619466 0.8522561 -0.5692386 0.3931303 -0.25162974
00000000: 58f3 05be c31a 583f fec2 053e df46 663f
00000010: 9a51 213e acf1 f8bd 1297 6f3f b9ba a7be
00000020: ac62 aebe e8e0 343e 3686 f7bc d920 903f
00000030: d98a a03e bc3c edbe c398 71bd 7a78 1dbf
00000040: 28e0 4dbe ab0c 7f3e db58 623e 41b9 63bf
00000050: 89df 683f d3a4 aabb d2ae bf3a b341 aabe
00000060: 0f15 6b3f a4b8 933e f81f e63e 409d ea3e
00000070: fb20 e63e 306c 81bf 896a a63e 4414 6b3f
00000080: bf25 8a3f d37c b73c 9789 203e 11e5 9f3d
00000090: 935c fdbd 5b9c ef3e bccf 27bf b423 303d
000000a0: b600 4fbe e07a 9dbe e924 243f 74aa 6f3f
000000b0: 752d 5a3f 9fb9 11bf 6048 c93e 9dd5 80be

conv2.weight f4 [96, 48, 1]
-0.09818777 -0.044147544 0.13616623 -0.14831889 -0.12463292 0.024808623 0.081723616 -0.03605598
0.107262254 -0.08307824 -0.04648463 -0.08408103 -0.09591588 0.17083925 0.07890751 0.0920562
0.037789304 0.14119786 -0.07576238 0.017171858 -0.03091631 0.18717347 -0.28773302 0.02732412
0.12691973 0.11217656 -0.024515873 -0.017906161 0.07199264 0.03577003 0.10597965 0.14071469
0.0014702614 -0.092399806 0.09707373 -0.019133102 0.04013565 -0.017634917 0.16368225 -0.016645039
0.10266547 -0.04888442 0.024007887 -0.08901043 -0.08228066 0.11003868 0.02845908 0.058946498
-0.10909532 0.027270759 -0.1440397 0.02220338 0.075165085 -0.0017508781 -0.12812334 0.037312202
-0.08922892 -0.021138804 0.07363912 0.076387376 0.03586437 -0.1399849 -0.1448118 -0.14319183
0.07517095 0.06551442 0.04014869 -0.14239685 0.10219938 0.0010140111 0.02686837 0.057004195
0.025107117 -0.065562986 0.178523 -0.015528204 -0.113209516 0.112833135 -0.0030588983 0.08770389
0.04006659 -0.14729871 0.03889212 -0.13349414 0.006230722 -0.04319324 0.087590404 -0.017124748
0.15266286 -0.15628381 -0.09094437 0.12362097 0.005473705 -0.11427869 0.026460888 0.06995042
0.13108401 -0.004108524 0.14692467 0.10080082 0.160689 -0.05690019 0.0065720757 0.065656796
-0.086958796 -0.03809611 0.03973056 0.16493784 -0.093995154 -0.13189015 -0.13369997 -0.15160225
-0.09907376 0.065576725 0.24943617 0.069274224 0.11125618 0.08971804 -0.005380738 -0.0070425444
-0.08118414 -0.064104274 0.05833338 0.071249336 0.0939621 0.043615207 -0.10334257 -0.107560575
0.044449545 0.11377529 0.14506163 -0.07103145 0.0028976747 0.13285808 -0.116296865 -0.006753029
-0.07336584 0.065767884 0.032175936 0.026788786 0.019570474 -0.098578855 0.1393102 0.015238343
-0.033480942 -0.11645436 0.09360024 -0.023121465 -0.115783505 0.04172864 0.08862998 0.049114097
0.09691485 -0.09551142 -0.058503374 -0.003327344 -0.061466236 -0.13142003 0.0030852153 0.12630455
-0.1395268 0.02491549 -0.31002557 0.11843144 0.051816463 -0.08930052 -0.15338787 0.1508854
0.1355987 -0.1281153 0.09823709 -0.1425121 -0.058136676 -0.026713451 0.015416152 -0.08318945
0.11123218 0.0562137 -0.09951171 0.10682103 0.10273032 0.004279238 0.13853893 0.11769782
0.11108857 -0.032424938 -0.10364076 0.10538678 -0.11044279 -0.14303151 0.02725139 -0.05257645
0.06909362 -0.055081703 0.11449628 0.12056046 0.09599268 -0.119910166 0.11715566 -0.04878483
-0.06747425 0.008446666 -0.04017617 0.22091103 0.07598675 0.08353186 -0.088941544 0.01348361
0.056893855 -0.094791315 0.072117716 -0.073979124 0.02885705 0.045762323 -0.060108263 0.08241116
-0.106785186 0.00010334696 -0.008797333 -0.11858798 -0.016022043 -0.10474238 0.065366395 -0.06462534
-0.04481019 0.032949504 0.09237326 0.077716164 0.007994961 0.1575458 0.038371187 -0.056251515
0.08323852 0.009719476 0.061856274 -0.0100757 0.09759038 0.12940659 -0.0016192422 0.051557105
0.029291313 -0.04328967 -0.11351174 -0.05523597 -0.054570798 0.16839443 -0.08693746 0.006725587
0.09702899 0.028550142 0.024924954 -0.11108868 0.012689297 0.15303436 -0.066540115 0.1748708
00000000: ab16 c9bd 0ed4 34bd 296f 0b3e e8e0 17be
00000010: 8b3f ffbd 743b cb3c b65e a73d 6faf 13bd
00000020: 50ac db3d ed24 aabd ab66 3ebd ad32 acbd
00000030: 8b6f c4bd 7cf0 2e3e 439a a13d f687 bc3d
00000040: f5c8 1a3d 2c96 103e 4f29 9bbd ffab 8c3c
00000050: 3444 fdbc 67aa 3f3e be51 93be d5d6 df3c
00000060: 3ff7 013e d3bc e53d 83d5 c8bc f1af 92bc
00000070: e170 933d 9883 123d dc0b d93d 8317 103e
00000080: c9b5 c03a 1c3c bdbd 97ce c63d 06bd 9cbc
00000090: 4865 243d 1a77 90bc 529c 273e 2d5b 88bc
000000a0: 4642 d23d 083b 48bd 30ac c43c 1a4b b6bd
000000b0: c382 a8bd f65b e13d 0423 e93c e271 713d
000000c0: 5e6d dfbd ed66 df3c 257f 13be dde3 b53c
000000d0: 27f0 993d b87d e5ba c432 03be aed4 183d
000000e0: a7bd b6bd 492b adbc 1bd0 963d fc70 9c3d
000000f0: 85e6 123d 3458 0fbe 8b49 14be e1a0 12be
00000100: 3af3 993d 6d2c 863d f472 243d 7bd0 11be
00000110: e94d d13d 91e8 843a 0e1b dc3c 3b7d 693d
00000120: 71ad cd3c e345 86bd bcce 363e 026a 7ebc
00000130: 64da e7bd 0f15 e73d cc77 48bb 199e b33d
00000140: dd1c 243d 79d5 16be 584d 1f3d b0b2 08be
00000150: 162b cc3b 65eb 30bd 9962 b33d 3349 8cbc
00000160: a753 1c3e dd08 20be 0b41 babd fe2c fd3d
00000170: c45c b33b f20a eabd 81c4 d83c 2a42 8f3d
00000180: e33a 063e cca0 86bb 6c73 163e a970 ce3d
00000190: a88b 243e 2c10 69bd 915a d73b 1277 863d
000001a0: 7417 b2bd ab0a 1cbd 83bc 223d 77e5 283e
000001b0: 8880 c0bd 360e 07be a5e8 08be 9f3d 1bbe
000001c0: 2fe7 cabd 174d 863d 326c 7f3e a5df 8d3d
000001d0: 48da e33d 17be b73d e750 b0bb 25c5 e6bb
000001e0: df43 a6bd 1a49 83bd fbee 6e3d 2ceb 913d
000001f0: 346f c03d dca5 323d 45a5 d3bd b848 dcbd
00000200: ba10 363d 0503 e93d 098b 143e f078 91bd
00000210: eae6 3d3b f30b 083e 0d2d eebd 8348 ddbb
00000220: d440 96bd 50b1 863d eaca 033d 2874 db3c
00000230: 4252 a03c b6e3 c9bd 55a7 0e3e 3eaa 793c
00000240: 5023 09bd a07f eebd 7cb1 bf3d 3a69 bdbc
00000250: e71f edbd a7eb 2a3d a383 b53d dd2b 493d
00000260: 4b7b c63d 7e9b c3bd 3ca1 6fbd 920f 5abb
00000270: 05c4 7bbd f992 06be 5331 4a3b fb55 013e
00000280: 1de0 0ebe 921b cc3c acbb 9ebe 2f8c f23d
00000290: 803d 543d 31e3 b6bd b611 1dbe b481 1a3e
000002a0: 63da 0a3e a830 03be 8730 c93d b1ee 11be
000002b0: b920 6ebd 2bd6 dabc 0794 7c3c 3b5f aabd
000002c0: b2cd e33d 5640 663d cccc cbbd fcc4 da3d
000002d0: 4664 d23d da38 8c3b 26dd 0d3e 8e0b f13d
000002e0: 6782 e33d 03d0 04bd 9b41 d4bd 06d5 d73d
000002f0: d42f e2bd da76 12be 4f3e df3c 675a 57bd
00000300: f580 8d3d 5a9d 61bd 077d ea3d 67e8 f63d
00000310: cf97 c43d 7693 f5bd 4fef ef3d 9ad2 47bd
00000320: f12f 8abd e363 0a3c c58f 24bd 8036 623e
00000330: f19e 9b3d c012 ab3d fc26 b6bd 5cea 5c3c
00000340: 8809 693d f321 c2bd 74b2 933d 5e82 97bd
00000350: 9f65 ec3c 4671 3b3d 1534 76bd 2fc7 a83d
00000360: 31b2 dabd fabb d838 b022 10bc 41de f2bd
00000370: a940 83bc 2c83 d6bd d1de 853d 4a5a 84bd
00000380: e48a 37bd 0ff6 063d 312e bd3d a729 9f3d
00000390: 4cfd 023c b053 213e 1b2b 1d3d fd67 66bd
000003a0: f578 aa3d 703e 1f3c 015d 7d3d 8c14 25bc
000003b0: 77dd c73d 2983 043e c13c d4ba 8b2d 533d
000003c0: 56f4 ef3c 8250 31bd d878 e8bd 1d3f 62bd
000003d0: a185 5fbd 976f 2c3e 440c b2bd 5062 dc3b
000003e0: 23b7 c63d fde1 e93c 6b2f cc3c 7682 e3bd
000003f0: c5e6 4f3c 0ab5 1c3e 2f46 88bd 5511 333e

conv2.bias f4 [96]
-0.46655986 0.18766986 0.5373331 -0.45761493 0.49145678 -0.4361564 0.1328655 -0.3801719
-0.069966696 -0.5781331 0.57993585 0.49432808 -0.11203023 0.51715654 -0.07696057 -0.26731873
-0.06959741 0.117482275 0.6376019 0.70512533 0.11155911 0.6355463 0.44215834 0.7004297
-0.0521833 0.6157014 0.6177806 0.048076343 0.56256807 0.12432954 0.6914678 0.49100518
0.5711959 -0.023521597 0.15124415 0.07489625 0.5650534 0.11009711 -0.10005554 -0.051052134
0.43599713 0.5622644 -0.06041557 0.589261 0.54448324 0.14760913 0.5361613 0.6641088
0.53566706 -0.6548207 0.4756161 0.44908628 0.13565253 0.49159145 0.56451696 -0.6790716
-0.10634934 0.34659702 0.086964965 0.66255814 0.718435 0.5877774 -0.080716275 0.7072022
0.001606852 0.06996761 -0.07367516 0.6815432 0.693584 0.003394713 0.06583995 -0.5261008
0.38918173 0.71393985 0.5961985 0.13942514 -0.003843309 0.10154334 0.58227557 -0.49461114
-0.074750535 0.05461155 0.022298189 0.53748506 0.09077656 0.64303386 0.06934835 0.4461052
0.59222585 0.4697177 0.47633338 0.4788197 0.4869047 0.6039985 -0.16366331 0.29847383
00000000: efe0 eebe 872c 403e a98e 093f 814c eabe
00000010: 39a0 fb3e e44f dfbe e50d 083e e4a5 c2be
00000020: b34a 8fbd 8800 14bf ad76 143f 9218 fd3e
00000030: 1b70 e5bd 5f64 043f 819d 9dbd 00de 88be
00000040: 1689 8ebd 8c9a f03d e139 233f 1883 343f
00000050: 1a79 e43d 2ab3 223f 9462 e23e 5c4f 333f
00000060: 28be 55bd 9b9e 1d3f df26 1e3f b3eb 443d
00000070: 7604 103f 7ca0 fe3d 0904 313f 0865 fb3e
00000080: e539 123f 5db0 c0bc bfdf 1a3e 3563 993d
00000090: 57a7 103f 987a e13d ebe9 ccbd 0b1c 51bd
000000a0: 043b df3e 8ff0 0f3f 5176 77bd cfd9 163f
000000b0: 4163 0b3f d926 173e de41 093f 0903 2a3f
000000c0: 7a21 093f 54a2 27bf f483 f33e a3ee e53e
000000d0: 7fe8 0a3e e0b1 fb3e 2f84 103f a3d7 2dbf
000000e0: afcd d9bd 2a75 b13e b01a b23d 699d 293f
000000f0: 5beb 373f 9478 163f 934e a5bd 340b 353f
00000100: 029d d23a 2e4b 8f3d 01e3 96bd 9d79 2e3f
00000110: b98e 313f d579 5e3b 19d7 863d 8bae 06bf
00000120: d442 c73e c3c4 363f 77a0 183f 77c5 0e3e
00000130: 06e0 7bbb f4f5 cf3d 0310 153f ac3d fdbe
00000140: cf16 99bd 5cb0 5f3d b1aa b63c 9f98 093f
00000150: 10e9 b93d de9d 243f 8206 8e3d e767 e43e
00000160: 1d9c 173f d77e f03e f8e1 f33e db27 f53e
00000170: 934b f93e a59f 1a3f 5b97 27be 90d1 983e

fc1.weight f4 [20, 96]
0.053078648 0.04417782 0.09669515 0.046190236 0.121185616 0.04680048 -0.038816147 0.04449475
-0.0579746 0.048320003 0.10803279 0.16534035 -0.068800464 0.0704419 0.022927713 -0.022449499
0.00594506 -0.018099796 -0.014712473 -0.04379816 -0.09262117 -0.022038292 0.029200856 -0.02845969
-0.026976595 0.09718534 0.047010012 -0.00930345 -0.042249378 -0.03899802 0.049911708 0.09829244
0.11138592 0.008358803 -0.15749379 0.01984618 0.14165922 0.0016612406 -0.015874965 -0.046830323
0.09039874 0.10994696 0.0097271325 0.09933963 0.0010387747 -0.22172773 0.013707184 -0.015858177
-0.031385504 -0.061652504 -0.014195176 -0.05476619 0.010428151 0.06886281 0.07274225 -0.08687599
-0.057596825 0.08474346 0.08228492 -0.028737377 0.12741555 0.1410976 -0.043195654 -0.030002812
-0.025707595 -0.020423783 -0.07309503 0.0023485739 0.0422542 0.027175976 0.03278582 -0.042265218
-0.10911186 0.114258505 0.1236983 -0.08399597 -0.008393717 0.08540445 0.11955552 -0.009916639
0.045630626 0.08897632 0.032109883 0.06036834 0.19132397 0.01569872 0.08030294 -0.051632524
0.052024603 0.12186648 0.07504125 0.042151477 0.0024280436 0.09418891 0.061314937 0.06343456
0.106689 0.011637368 0.046867546 0.06474756 -0.04824493 0.02785842 -0.095820315 0.06033014
-0.05736855 -0.014947807 -0.068115495 -0.14783594 0.036815934 -0.052574433 -0.04517207 0.1003336
-0.07537172 0.021238402 -0.054376632 -0.07125217 0.06537672 -0.028253537 -0.03466512 0.037730787
0.0060186344 -0.0397591 -0.019562144 0.09887153 -0.045990862 0.01274443 0.055393722 -0.10546526
-0.011107351 0.10676042 0.10433937 -0.085029155 0.0063886633 0.085453965 0.037889224 -0.036035143
0.0426961 0.03749584 0.0007711406 0.07702063 -0.09818671 0.15134908 0.011008358 0.02103872
0.022154579 -0.030254934 -0.019204235 -0.04955395 0.07284437 0.011174643 0.025681185 -0.0034802158
-0.052528083 -0.03569205 -0.0665443 -0.0366611 0.008921408 -0.07828432 -0.023760853 0.039611407
-0.031603895 -0.050051056 0.014796201 -0.07607698 -0.0072520906 -0.13693468 0.046373103 0.080113545
0.119716235 -0.024390597 -0.013823614 -0.06681086 -0.051935013 0.098174155 -0.049471468 0.09385794
-0.085093826 0.06694099 0.06162926 0.0062035765 -0.10266902 -0.013394054 0.045542687 0.060178995
0.07095429 -0.11554032 -0.062270556 0.05374713 0.052630123 0.0054285503 0.108671136 -0.1233325
0.13054132 -0.09019645 -0.008762647 -0.03973968 -0.107724406 0.106476255 -0.05267272 0.0869622
0.025418112 0.03807163 -0.01723539 -0.17571656 0.088856876 -0.021508506 0.015774492 0.027612498
-0.059442982 -0.17586996 -0.08629405 0.07341766 0.027866561 0.048712693 -0.12568572 0.0188013
-0.010920472 -0.0060124937 -0.0244088 -0.090123065 0.051815692 0.043173987 0.030725647 -0.0034298291
0.0518039 -0.0045187175 0.21663979 0.008738913 0.0025220048 -0.026881186 0.032703307 -0.011107413
0.031016193 -0.031546224 0.045842625 0.061262745 -0.09239146 0.107744366 0.0066445353 0.07415655
-0.09340452 0.021067265 0.05427006 -0.054330792 0.077946566 -0.058686048 -0.020570522 0.061585736
0.07612022 0.06486626 0.07849248 -0.009076173 -0.08654665 -0.11507939 0.012029567 -0.079432026
00000000: ff68 593d cdf3 343d 1b08 c63d f931 3d3d
00000010: 2a30 f83d dcb1 3f3d aefd 1ebd 2140 363d
00000020: c676 6dbd 32eb 453d 4c40 dd3d fb4e 293e
00000030: 42e7 8cbd d843 903d e6d2 bb3c 03e8 b7bc
00000040: c7ce c23b 0646 94bc 960c 71bc b365 33bd
00000050: 2bb0 bdbd a689 b4bc a236 ef3c 4c24 e9bc
00000060: 05fe dcbc 1c09 c73d 928d 403d 7f6d 18bc
00000070: af0d 2dbd 63bc 1fbd 3870 4c3d 8c4d c93d
00000080: 4d1e e43d 5cf3 083c 0d46 21be 7594 a23c
00000090: 1d0f 113e fcbd d93a 370c 82bc 27d1 3fbd
000000a0: f922 b93d df2b e13d 8d5e 1f3c 9372 cb3d
000000b0: 7f27 883a 980c 63be 1994 603c 02e9 81bc
000000c0: 168e 00bd 5687 7cbd e292 68bc 8352 60bd
000000d0: d6da 2a3c f207 8d3d e4f9 943d 0aec b1bd
000000e0: a6ea 6bbd fb8d ad3d ff84 a83d a66a ebbc
000000f0: 3979 023e e47b 103e eded 30bd 75c8 f5bc
00000100: bc98 d2bc c74f a7bc d9b2 95bd 88ea 193b
00000110: bd12 2d3d 27a0 de3c 6d4a 063d 4b1e 2dbd
00000120: 0a76 dfbd 5d00 ea3d 8955 fd3d 1406 acbd
00000130: cd85 09bc 87e8 ae3d 86d9 f43d 6679 22bc
00000140: 2ee7 3a3d 3839 b63d a785 033d cb44 773d
00000150: 6eea 433e 9a9a 803c de75 a43d a07c 53bd
00000160: c017 553d 2295 f93d 3aaf 993d 07a7 2c3d
00000170: d01f 1f3b 1ee6 c03d 5f25 7b3d fbe9 813d
00000180: c37f da3d a9aa 3e3c 2ff8 3f3d 5e9a 843d
00000190: 7a9c 45bd 5737 e43c 713d c4bd bd1c 773d
000001a0: 49fb 6abd a6e7 74bc 2380 8bbd 4e62 17be
000001b0: 4ecc 163d 4a58 57bd 5906 39bd b47b cd3d
000001c0: 7d5c 9abd 28fc ad3c 08ba 5ebd a8ec 91bd
000001d0: 3be4 853d f673 e7bc 03fd 0dbd 998b 1a3d
000001e0: f737 c53b 70da 22bd ca40 a0bc 287d ca3d
000001f0: ea60 3cbd 04ce 503c 87e4 623d 2cfe d7bd
00000200: 9bfb 35bc 35a5 da3d e1af d53d c423 aebd
00000210: fe57 d13b 7d02 af3d bb31 1b3d 9699 13bd
00000220: 1be2 2e3d 3d95 193d 5f26 4a3a febc 9d3d
00000230: 1d16 c9bd 41fb 1a3e 665c 343c 6559 ac3c
00000240: 857d b53c 32d9 f7bc 3352 9dbc 15f9 4abd
00000250: 6e2f 953d da15 373c 5961 d23c 5514 64bb
00000260: b027 57bd d431 12bd 6148 88bd f329 16bd
00000270: 192b 123c 8853 a0bd 1fa6 c2bc 923f 223d
00000280: 1673 01bd 5602 4dbd c46b 723c 3fce 9bbd
00000290: f2a2 edbb 9b38 0cbe b9f1 3d3d 9212 a43d
000002a0: c92d f53d cace c7bc 717c 62bc 22d4 88bd
000002b0: cfb9 54bd 880f c93d 98a2 4abd 9738 c03d
000002c0: ac45 aebd 5c18 893d f76e 7c3d 5f47 cb3b
000002d0: 2344 d2bd bc72 5bbc f88a 3a3d 407e 763d
000002e0: 7c50 913d 67a0 ecbd 690f 7fbd f325 5c3d
000002f0: af92 573d fbe1 b13b f98e de3d c095 fcbd
00000300: a0ac 053e ebb8 b8bd 3591 0fbc 13c6 22bd
00000310: 9d9e dcbd 3910 da3d 5abf 57bd 3d19 b23d
00000320: a539 d03c fff0 1b3d 3c31 8dbc 0bef 33be
00000330: 98fa b53d 9b32 b0bc 8239 813c 9b33 e23c
00000340: 7c7a 73bd 4117 34be efba b0bd 005c 963d
00000350: 6a48 e43c f686 473d c2b3 00be 2f05 9a3c
00000360: c8eb 32bc 7404 c5bb f7f4 c7bc 7192 b8bd
00000370: b13c 543d 35d7 303d 5ab4 fb3c fcc6 60bb
00000380: 5430 543d c011 94bb d2d6 5d3e a82d 0f3c
00000390: 3848 253b ef35 dcbc e7f3 053d defb 35bc
000003a0: ac15 fe3c 9d36 01bd 7ac5 3b3d a5ee 7a3d
000003b0: bc37 bdbd 14a9 dc3d 67ba d93b 64df 973d
000003c0: de4a bfbd 4295 ac3c 484a 5e3d f789 5ebd
000003d0: 73a2 9f3d c860 70bd 8383 a8bc 5341 7c3d
000003e0: ebe4 9b3d 9ad8 843d aac0 a03d 3bb4 14bc
000003f0: 5f3f b1bd beae ebbd a917 453c 42ad a2bd

fc1.bias f4 [20]
0.66116303 -0.5851368 -0.6384299 0.07844111 0.5605575 0.054206792 0.06969751 0.66928214
0.0173739 0.5003466 0.6748351 0.56954885 0.54401004 0.67661875 0.057996374 0.68273866
0.0790358 -0.069768704 0.6525436 -0.44125634
00000000: fb41 293f 86cb 15bf 2470 23bf bca5 a03d
00000010: b280 0f3f f107 5e3d 91bd 8e3d 1356 2b3f
00000020: b653 8e3c b716 003f fec1 2c3f f4cd 113f
00000030: 3e44 0b3f e336 2d3f 9b8d 6d3d f6c7 2e3f
00000040: 86dd a13d e5e2 8ebd 190d 273f 5aec e1be

fc2.weight f4 [1, 20]
0.06066932 -0.2182341 -0.22950473 0.21994068 0.22486205 -0.14748083 -0.22830474 0.2050281
-0.040008653 0.08048824 0.05398858 0.06940984 0.22540194 0.05779622 0.23714985 0.110106796
0.13510069 -0.17659344 0.19121718 -0.2319298
00000000: 6580 783d c378 5fbe 4a03 6bbe 2138 613e
00000010: 3d42 663e 3705 17be b8c8 69be e3f2 513e
00000020: 1de0 23bd 05d7 a43d 2123 5d3d bf26 8e3d
00000030: c4cf 663e bbbb 6c3d 69d7 723e ac7f e13d
00000040: d657 0a3e e9d4 34be 70ce 433e 017f 6dbe
