TCN.pt (torch, 78494 bytes, 42 tensors)

tcn.network.0.conv1.bias f4 [32]
0	0x3f58dd8a	0.8471304
1	0x3f83553b	1.0260385
2	0x3d728afc	0.059214577
3	0xbeedd28e	-0.46449703
4	0x3fba758b	1.4567121
5	0x3fc94525	1.5724226
6	0xbc8e2bd5	-0.017354885
7	0x3d4aa997	0.04947814
8	0x400140dd	2.019584
9	0x3fa6e417	1.3038357
10	0x3cb248ff	0.021763323
11	0x3f420f0a	0.758042
12	0xbf6b6699	-0.91953427
13	0x3f9c73c2	1.2222826
14	0x3ef9e8a2	0.48810297
15	0x3f74e5e0	0.9566326
16	0x3fa38d0a	1.2777417
17	0x3f4e213f	0.8051948
18	0xbe7bc0de	-0.24585292
19	0x3f0143cf	0.5049409
20	0xbe88a959	-0.26691702
21	0x3fb0eb36	1.3821781
22	0x3fbaf538	1.4606085
23	0xbc492d5a	-0.012278879
24	0xbd20dcc8	-0.039273053
25	0x3fe441f4	1.7832627
26	0x3ee0c515	0.43900362
27	0xbf87d2de	-1.0611227
28	0x3f7d8e24	0.99045014
29	0x3f9bd711	1.2175008
30	0x3f0e4a13	0.5558178
31	0x3f0e517d	0.5559309

tcn.network.0.conv1.parametrizations.weight.original0 f4 [32, 1, 1]
0	0x3f50ed0c	0.81611705
1	0x3f6b0060	0.9179745
2	0x3f0f0acb	0.55875844
3	0x3f5125fb	0.8169858
4	0x3f3e9bf2	0.74456704
5	0x3f3812e4	0.71903825
6	0x3f108f1b	0.5646836
7	0x3f0c6233	0.5483734
8	0x3f487ed5	0.7831853
9	0x3f3cb296	0.7371
10	0x3f13bd73	0.5771095
11	0x3f966bd0	1.1751652
12	0x3f76e0cc	0.9643676
13	0x3f3dfc0b	0.7421271
14	0x3f3ee16e	0.7456273
15	0x3f3c7acc	0.73624873
16	0x3f3d3d59	0.73921734
17	0x3f5db8a4	0.86609864
18	0x3f6bda8f	0.9213037
19	0x3f7d7c5f	0.990179
20	0x3f84e4ff	1.0382384
21	0x3f4ca85f	0.79944414
22	0x3f41c3e7	0.7568955
23	0x3f11b18a	0.5691153
24	0x3f87ef61	1.0619928
25	0x3f4e88b4	0.8067734
26	0x3f263753	0.6492817
27	0x3f7b64e9	0.9820085
28	0x3f64c7c8	0.8936734
29	0x3f562810	0.8365488
30	0x3f60d486	0.87824285
31	0x3f83010d	1.0234696

tcn.network.0.conv1.parametrizations.weight.original1 f4 [32, 32, 5]
0	0x9a677780	-4.7866212e-23
1	0xb1c64569	-5.7704495e-09
2	0xba787eab	-0.0009479324
3	0x9555e1c6	-4.319311e-26
4	0x3d88e956	0.0668513
5	0xa08661b4	-2.2765137e-19
6	0x2a4360e5	1.7353096e-13
7	0xad16a738	-8.563643e-12
8	0x12411cb8	6.093546e-28
9	0x3d849a4d	0.06474743
10	0x390ba050	0.00013315794
11	0x39d579b4	0.00040717202
12	0x2d961ba4	1.70653e-11
13	0x2298f512	4.145916e-18
14	0x3d4e51d7	0.050371017
15	0x20a77e9a	2.8374678e-19
16	0x34f6eb49	4.5992263e-07
17	0x21b1b4d4	1.2041851e-18
18	0x3a73e668	0.00093040476
19	0xbd06eba2	-0.03293956
20	0x27dc549d	6.1154004e-15
21	0xb96338ee	-0.00021669615
22	0x3a317b4e	0.0006770388
23	0xb49dc982	-2.9390145e-07
24	0xbd289651	-0.041158978
25	0x3a99afb3	0.0011725336
26	0xb073cf59	-8.8697544e-10
27	0xaf1c4752	-1.4213455e-10
28	0xa59543c5	-2.5893302e-16
29	0xbd703ded	-0.058652807
30	0x26cdbf79	1.4276631e-15
31	0x23324fd5	9.6663044e-18
32	0x36df87b9	6.661718e-06
33	0x1b861202	2.2180078e-22
34	0xbcdc6372	-0.026902888
35	0xaa471ed6	-1.7685449e-13
36	0x915cb9ac	-1.7412154e-28
37	0xadf2a1da	-2.7584091e-11
38	0x1745a1b2	6.385822e-25
39	0xbd1d5a08	-0.03841594
40	0x8c808476	-1.9801245e-31
41	0xae99c127	-6.991945e-11
42	0x252592e5	1.4361238e-16
43	0x30475bb0	7.2526074e-10
44	0x3c8847e5	0.016635844
45	0x15377eac	3.7056482e-26
46	0xa5102531	-1.250261e-16
47	0xaccc3a31	-5.8044893e-12
48	0xb2e0059d	-2.6079585e-08
49	0x3c8cbac2	0.017178897
50	0x33edc53a	1.1072048e-07
51	0xb840260b	-4.5811797e-05
52	0xb901158c	-0.00012310426
53	0xb95fb69d	-0.00021334966
54	0x3d93fdea	0.07226165
55	0xb002aa99	-4.753616e-10
56	0xb68f291e	-4.2665188e-06
57	0xb519487c	-5.710242e-07
58	0x11eef3c6	3.7700016e-28
59	0x3d8add35	0.06780473
60	0x3a1dbe1b	0.00060174026
61	0xb7a3852f	-1.9493133e-05
62	0xb9830352	-0.0002498874
63	0x3a880046	0.0010376058
64	0x3d0635b1	0.032766048
65	0xb49dea8e	-2.941419e-07
66	0x35b0d605	1.317531e-06
67	0x931d6ed3	-1.9870826e-27
68	0xb18a91fc	-4.032925e-09
69	0xbd402cae	-0.04691761
70	0x36e63f4f	6.8619042e-06
71	0xb6d928d6	-6.471858e-06
72	0x1618f154	1.2354612e-25
73	0x3a3afd02	0.0007133038
74	0xbd559d73	-0.05215211
75	0x22328950	2.419619e-18
76	0x97a4b1b8	-1.0643114e-24
77	0x1b57d679	1.7853683e-22
78	0xa30d3bea	-7.656313e-18
79	0xbd8f1a24	-0.06987408
80	0x87c4b9ea	-2.9600073e-34
81	0xb291e14e	-1.6982678e-08
82	0x35f3f8ee	1.8177359e-06
83	0x9f15c313	-3.171334e-20
84	0xbd21537a	-0.03938625
85	0x347206d0	2.2540485e-07
86	0x3aed3300	0.0018096864
87	0xad580326	-1.2278878e-11
88	0xb600a6ba	-1.9170534e-06
89	0x3d515c41	0.05111337
90	0x1fa7aa3d	7.1008887e-20
91	0x1df57751	6.497433e-21
92	0x221892b9	2.0677516e-18
93	0x13e0273f	5.658425e-27
94	0xbbc5341f	-0.006018176
95	0x3745e3bb	1.1795138e-05
96	0x142aa560	8.615421e-27
97	0xa040a519	-1.6317659e-19
98	0x92963fb1	-9.482032e-28
99	0x3d14d7ea	0.036338724
100	0x0e745803	3.0117698e-30
101	0xb9351cf6	-0.00017272294
102	0xb4c6024d	-3.6882048e-07
103	0x979907fb	-9.889408e-25
104	0xbcf7582d	-0.030193413
105	0xae635d26	-5.1696557e-11
106	0x0b84a257	5.108881e-32
107	0x3952e4f6	0.00020112455
108	0xb9eda6b8	-0.00045328378
109	0x3d623e13	0.05523498
110	0x20a89b57	2.8563102e-19
111	0x2f41684e	1.7590304e-10
112	0xb9c20fe8	-0.00037014415
113	0x34818fcd	2.413275e-07
114	0x3d993f34	0.07482758
115	0x36efff2d	7.1524614e-06
116	0x36056ed8	1.9883064e-06
117	0x3947b6b3	0.0001904618
118	0x2e7cb2b8	5.74569e-11
119	0xbdda1f7b	-0.10650536
120	0x22d91289	5.8837593e-18
121	0x2d50a6b0	1.1860443e-11
122	0xb00b8677	-5.075899e-10
123	0xb99597ea	-0.0002853268
124	0xbe0c76bd	-0.1371717
125	0x38c56aa7	9.4135576e-05
126	0x1a96a492	6.2304424e-23
127	0x95a1638e	-6.518445e-26
128	0x942a4c86	-8.597898e-27
129	0xbd8a1520	-0.067423105
130	0x217471c5	8.282099e-19
131	0x969e755c	-2.560034e-25
132	0x3323350f	3.799965e-08
133	0x95a6b266	-6.732833e-26
134	0x3da7b408	0.08188635
135	0x280916df	7.609987e-15
136	0x2931ab62	3.9450546e-14
137	0x37345015	1.0747482e-05
138	0xb4bf9c21	-3.569012e-07
139	0xbcabcb8a	-0.020971078
140	0x3a790d30	0.0009500561
141	0xb131ed21	-2.5891682e-09
142	0xaa9f8057	-2.8333127e-13
143	0xb490367e	-2.6861738e-07
144	0xbcb140ed	-0.021637404
145	0x34b65989	3.3965287e-07
146	0xaf7482ef	-2.2238188e-10
147	0x128af669	8.769769e-28
148	0xb03f435a	-6.958111e-10
149	0xbd4104ea	-0.047123827
150	0x248efcf0	6.2011176e-17
151	0xa62815c6	-5.8316217e-16
152	0x8941f06e	-2.334458e-33
153	0x38a4b8a6	7.854523e-05
154	0xbdc977fa	-0.09837337
155	0xb9099b3c	-0.00013123167
156	0x39e32e57	0.0004333134
157	0x95f27172	-9.7922007e-26
158	0xb655b4d1	-3.1844722e-06
159	0x3eadba46	0.33931178
160	0x32430d87	1.135357e-08
161	0xb6dac424	-6.51974e-06
162	0xa3b5bb9f	-1.970352e-17
163	0x3a49a5f2	0.0007692269
164	0x3d2e7765	0.042594332
165	0x9e06d04a	-7.136974e-21
166	0x9a97c851	-6.2775765e-23
167	0x220317ba	1.7766371e-18
168	0xbbd47583	-0.006483735
169	0x3cbcdbad	0.023053968
170	0xa211a444	-1.9738126e-18
171	0xbbb2308b	-0.0054379157
172	0xbbd5063b	-0.006500987
173	0xb78377ed	-1.5672262e-05
174	0x3d8e8401	0.069587715
175	0x2a585130	1.9212821e-13
176	0x211a09f2	5.219039e-19
177	0x390a3dde	0.00013183753
178	0x9f981777	-6.4413323e-20
179	0xbc775542	-0.015096011
180	0x32a30d7a	1.8981826e-08
181	0xad6f7442	-1.36113915e-11
182	0x32be82d0	2.2178398e-08
183	0x3b90c181	0.0044175987
184	0xbdba39cf	-0.09093057
185	0xb87718cf	-5.8912494e-05
186	0x32543f5f	1.2354433e-08
187	0x1d49ac63	2.669125e-21
188	0xb7a7e7e5	-2.0015936e-05
189	0xbd9048fe	-0.07045172
190	0x9f0b83a7	-2.9543295e-20
191	0x169a58f4	2.493618e-25
192	0xbb01499e	-0.0019727717
193	0x23db3f7e	2.3770918e-17
194	0xbd2c65e7	-0.04208937
195	0xa14ae360	-6.874119e-19
196	0xb6ba6c95	-5.5558726e-06
197	0x1ea08de9	1.6999352e-20
198	0xa40caa54	-3.0501934e-17
199	0xbd6f80d5	-0.058472473
200	0x323c99b0	1.0977985e-08
201	0xb9976ae8	-0.00028880616
202	0xbbaaed95	-0.0052163103
203	0x22965737	4.0749924e-18
204	0x3d8aee12	0.067836896
205	0xb24c0ffd	-1.1877998e-08
206	0xbb5baa3d	-0.0033518218
207	0x30538cdc	7.6961526e-10
208	0x17e29452	1.4642349e-24
209	0x3da5f6ec	0.08103737
210	0x16430daa	1.5756286e-25
211	0x3593f445	1.1023445e-06
212	0x2a33de67	1.5975555e-13
213	0xbbb196b4	-0.0054195765
214	0x3cdfafc9	0.0273055
215	0x3c0974da	0.008389676
216	0x198b12d9	1.4379876e-23
217	0x38375ff6	4.371997e-05
218	0x390d0a08	0.00013450545
219	0x3d3ba45a	0.045811035
220	0x398a8933	0.00026423633
221	0x2b6245ce	8.03882e-13
222	0xb5ced6bc	-1.5410692e-06
223	0x1ba1523c	2.6688358e-22
224	0xbcf9f444	-0.030511983
225	0x3107629a	1.9701134e-09
226	0xad6f19e0	-1.35913225e-11
227	0x3bfafd63	0.0076596006
228	0x358871ea	1.0165943e-06
229	0xbd13216c	-0.035920545
230	0xb0897bb1	-1.0003217e-09
231	0xa1e6e6b7	-1.5646476e-18
232	0xb9d138ac	-0.0003990581
233	0x18704588	3.1054377e-24
234	0xbdba6b84	-0.09102538
235	0xbb2a3a71	-0.0025974775
236	0x3c089539	0.008336359
237	0x1e73fc01	1.2916426e-20
238	0x3b6fa356	0.0036565862
239	0xbdc6a375	-0.09699146
240	0x3a10be76	0.0005521545
241	0xbb8845bb	-0.004158703
242	0x1b8685e2	2.225496e-22
243	0xb773ecea	-1.45390895e-05
244	0xbdc4588f	-0.09587204
245	0x372605a1	9.895682e-06
246	0xae9716d6	-6.8707415e-11
247	0xb42d5041	-1.6141077e-07
248	0x3ba0373d	0.0048893974
249	0x3da17542	0.07883693
250	0x2d3e12da	1.08044355e-11
251	0xa605b8ff	-4.639436e-16
252	0xbb8dc207	-0.0043261084
253	0x263d630d	6.5706786e-16
254	0x3e18d70a	0.14925781
255	0x229753cf	4.1017368e-18

tcn.network.0.conv2.bias f4 [32]
0	0x3f6b62e8	0.91947794
1	0x3f13d016	0.5773939
2	0x3f3190ff	0.6936187
3	0x3fb76f2a	1.43308
4	0x3ef71f72	0.48266178
5	0xbedd20b0	-0.43189
6	0xbf69b502	-0.9129182
7	0xbe959d1f	-0.29221436
8	0xbee97d69	-0.45603493
9	0x3dc6dd79	0.09710211
10	0x3f02776c	0.50963473
11	0x3f62dffa	0.8862301
12	0x3f81ad68	1.0131044
13	0x3fa17567	1.2613953
14	0x3e6131d1	0.2199166
15	0x3f828e96	1.0199764
16	0x3f5595f6	0.8343195
17	0x3ed50412	0.41604668
18	0xbe1858d3	-0.14877634
19	0xba03f601	-0.0005033911
20	0x3f68e0ce	0.90968025
21	0x3f1637b1	0.5867873
22	0x3f453089	0.77027184
23	0x3f73daea	0.9525591
24	0x3fae2a46	1.3606651
25	0x3f144c11	0.5792857
26	0x3fa895d1	1.317072
27	0x3fc25661	1.5182611
28	0x3f973ce5	1.1815459
29	0x3f985c92	1.190325
30	0x3fa61117	1.2973965
31	0x3fa4d062	1.2876093

tcn.network.0.conv2.parametrizations.weight.original0 f4 [32, 1, 1]
0	0x3fdc039e	1.7188604
1	0x3fffaac6	1.9973991
2	0x3f9e6a08	1.2376108
3	0x3fbf5106	1.4946601
4	0x3fa09e49	1.2548305
5	0x3f978e83	1.1840366
6	0x3fae0a13	1.3596824
7	0x3f9aad7e	1.2084196
8	0x3ef7b5a0	0.48380756
9	0x3f090f1a	0.5353867
10	0x3f0f14aa	0.55890906
11	0x3f1243f0	0.57134914
12	0x3f753780	0.9578781
13	0x3f20c6f0	0.62803555
14	0x3fdd94e2	1.731106
15	0x3f0c9f2a	0.54930365
16	0x3f1ca168	0.61183786
17	0x3f0c3bb1	0.5477858
18	0x3f120fd1	0.57055384
19	0x3f131fa3	0.5747015
20	0x3ef5dfdc	0.48022354
21	0x3f09a62c	0.53769183
22	0x3f0ff861	0.5623837
23	0x3f130bda	0.5743996
24	0x3f1255e6	0.5716232
25	0x3ffff249	1.9995815
26	0x3f0a98ee	0.541396
27	0x3edf245a	0.43582422
28	0x3f069e00	0.5258484
29	0x3f189c19	0.59613186
30	0x3f7ac823	0.97961634
31	0x3f23157d	0.63704664

tcn.network.0.conv2.parametrizations.weight.original1 f4 [32, 32, 5]
0	0xa37dfa69	-1.3768184e-17
1	0x9e281867	-8.898892e-21
2	0x2c1c2086	2.2186987e-12
3	0x3a2cdb36	0.0006593944
4	0xbdc8a17f	-0.09796428
5	0xb889f76c	-6.578755e-05
6	0xad8501d5	-1.5121163e-11
7	0x12f06615	1.5171295e-27
8	0xa6506e01	-7.231358e-16
9	0xbdb14035	-0.08654825
10	0xb8950d66	-7.107369e-05
11	0x2cdc0959	6.253814e-12
12	0xa19ca9fa	-1.0615964e-18
13	0x8b71be1c	-4.6557934e-32
14	0xa745fe8d	-2.7477234e-15
15	0xb9d55f09	-0.00040697333
16	0x2ccea972	5.8736844e-12
17	0x377cb279	1.5061924e-05
18	0x8a822e7e	-1.2536033e-32
19	0x3d6e47b4	0.05817385
20	0x14561319	1.0808005e-26
21	0xb38f0bc8	-6.6610994e-08
22	0x9c26fb3e	-5.5249516e-22
23	0xafdaf9e7	-3.9831535e-10
24	0xbdb7df6c	-0.08978161
25	0x21c47e8b	1.3314972e-18
26	0xbb8022f0	-0.003910415
27	0xa42434e3	-3.5606628e-17
28	0x1c35eb72	6.019218e-22
29	0xbd109d00	-0.035305977
30	0x333b73c2	4.364461e-08
31	0x1fbb920f	7.9439214e-20
32	0xb893c937	-7.0469854e-05
33	0x3618c175	2.2762372e-06
34	0xab65f405	-8.169579e-13
35	0xbb3c18a9	-0.0028701222
36	0xa10be770	-4.7401337e-19
37	0x35c2720a	1.4487316e-06
38	0x239a5d44	1.6736213e-17
39	0x9dfaae5e	-6.635474e-21
40	0xb18763de	-3.9403707e-09
41	0xb9ba321c	-0.0003551402
42	0x233c0300	1.0192136e-17
43	0x2da742f3	1.9015433e-11
44	0xbe031b1f	-0.12803315
45	0xa39901a6	-1.6588991e-17
46	0xa13b9752	-6.3558335e-19
47	0x1285778c	8.422951e-28
48	0xa711699d	-2.0180045e-15
49	0xbdaaf4b1	-0.083474524
50	0x33eb87b9	1.0967728e-07
51	0x376aec6a	1.4002531e-05
52	0x1e871ba0	1.4305106e-20
53	0x1ded8e9f	6.2880844e-21
54	0x35b000b3	1.3113225e-06
55	0x1b0805ae	1.1251492e-22
56	0x9ed83b28	-2.2894356e-20
57	0x1cc9df9e	1.3358868e-21
58	0xbad741e5	-0.0016422836
59	0xbd8a8a0a	-0.0676461
60	0x14e8ac75	2.3494036e-26
61	0x95ca8255	-8.179278e-26
62	0xa1437ca0	-6.623351e-19
63	0xafe44fc2	-4.152963e-10
64	0xbc1f6359	-0.009728276
65	0xb2b63c03	-2.1214879e-08
66	0x30cf6464	1.5089765e-09
67	0x36552ada	3.1764416e-06
68	0x323af5e1	1.0882531e-08
69	0xbd262d6d	-0.040570665
70	0x0d1e2481	4.873145e-31
71	0x1eff7eb4	2.7051578e-20
72	0xaeaa45b8	-7.7430895e-11
73	0xad44657a	-1.1163842e-11
74	0x3c8fc9fc	0.017552368
75	0xb02a53cc	-6.196472e-10
76	0xb3847a49	-6.1689725e-08
77	0x2eb8a0d1	8.395918e-11
78	0xb74a6a74	-1.2064924e-05
79	0xbd991be0	-0.0747602
80	0x2ddd7684	2.5177423e-11
81	0x2ba6fc8a	1.1865103e-12
82	0x9845fa71	-2.5588094e-24
83	0xb299851f	-1.787208e-08
84	0xbdb80ce7	-0.08986836
85	0xb8838d6e	-6.27291e-05
86	0x0aa48b06	1.584492e-32
87	0x3a009d4c	0.00049062516
88	0x380dc3d0	3.3799384e-05
89	0xbcbc8f8f	-0.023017673
90	0x9f022fb5	-2.7568033e-20
91	0x330747a0	3.149728e-08
92	0x9f865ee8	-5.6908217e-20
93	0x852c0e42	-8.09002e-36
94	0x3cd6f6cc	0.026240729
95	0x183ee38a	2.4671802e-24
96	0x38f3e441	0.000116296585
97	0x9159a57e	-1.7169278e-28
98	0xa63e1bdc	-6.595725e-16
99	0x3e0a21bb	0.1348943
100	0x179c187a	1.0087442e-24
101	0xadd65fc2	-2.4371508e-11
102	0x1f836fab	5.56654e-20
103	0xa46265a5	-4.9092034e-17
104	0x3e3fec6b	0.1874253
105	0x29885f02	6.0560945e-14
106	0xb2b819fb	-2.1432234e-08
107	0x9b545813	-1.7564687e-22
108	0x20bee00b	3.233551e-19
109	0xbdce9235	-0.100864805
110	0x3a0d4997	0.0005389689
111	0xb5eb60c7	-1.753703e-06
112	0x32939824	1.7182238e-08
113	0xb87b74a0	-5.995168e-05
114	0x3cebb4c5	0.028772721
115	0xad63b474	-1.2943525e-11
116	0xaf012e4e	-1.1748932e-10
117	0x36454f31	2.9401383e-06
118	0x178b1eeb	8.990469e-25
119	0xa3a4a883	-1.7852283e-17
120	0x1e660c36	1.2178624e-20
121	0x148611e1	1.3537594e-26
122	0x2cd88e99	6.1549208e-12
123	0xaa0d5dcd	-1.255586e-13
124	0xbdaae44a	-0.08344324
125	0x3974fbef	0.00023363506
126	0xaf0b628c	-1.2676987e-10
127	0x9bd6ff0a	-3.5568145e-22
128	0xb9fc9bfc	-0.00048181403
129	0xbc4af4a6	-0.01238743
130	0x379146e6	1.7318362e-05
131	0x334ce4a5	4.7705402e-08
132	0xb75cacbb	-1.3153239e-05
133	0xb1002499	-1.8647255e-09
134	0x3da42284	0.08014396
135	0x33dea617	1.0367892e-07
136	0x10571afb	4.242206e-29
137	0xb66ce152	-3.5297894e-06
138	0x1ba5fbce	2.7459685e-22
139	0x3c0e5822	0.008688005
140	0x1e275149	8.857716e-21
141	0xb9d56648	-0.0004070273
142	0xb183e42e	-3.838543e-09
143	0x06da8c5d	8.220873e-35
144	0x3bc8d0dc	0.0061284136
145	0x2cefc237	6.8143507e-12
146	0x378c0d34	1.6695449e-05
147	0xb7d3096d	-2.515755e-05
148	0x9cedfbff	-1.5748484e-21
149	0xbd780f80	-0.060561657
150	0xb55cf0bb	-8.2306696e-07
151	0x99d2b094	-2.178481e-23
152	0xb4f68097	-4.5914632e-07
153	0x9e4e8b60	-1.0934371e-20
154	0x3da13975	0.07872287
155	0x1fc134bc	8.182592e-20
156	0x1ef15fa4	2.5556424e-20
157	0x37dca4c7	2.6302774e-05
158	0x22ca448e	5.4824795e-18
159	0x3db8a7bc	0.09016368
160	0x997e624b	-1.3151342e-23
161	0x9d02af76	-1.7296068e-21
162	0xab79a3f5	-8.8690107e-13
163	0x22e8bad2	6.308153e-18
164	0xbdafc276	-0.08582012
165	0x1fb4faf1	7.664811e-20
166	0x8dea97e3	-1.4457929e-30
167	0x9a1aa505	-3.1979755e-23
168	0x243e10bc	4.1213857e-17
169	0xbdbf0a29	-0.0932811
170	0xad2ff700	-1.0002443e-11
171	0x3b1c3847	0.0023837255
172	0x2f19f340	1.4001689e-10
173	0x901db62e	-3.1103137e-29
174	0x85abb5a7	-1.6147491e-35
175	0x22dcd60f	5.9857763e-18
176	0xae397066	-4.216396e-11
177	0x3a2aae04	0.00065109157
178	0xb2a35605	-1.9014815e-08
179	0x3ce97392	0.028497491
180	0x0ab015aa	1.6956333e-32
181	0x0ab21de7	1.7152025e-32
182	0x3b35fcd3	0.0027769103
183	0x1baf320c	2.8983663e-22
184	0xbd01c415	-0.03168114
185	0x1fb8b46a	7.82255e-20
186	0xba98915c	-0.001164
187	0xba882c15	-0.0010389114
188	0xaa46f8d3	-1.7672261e-13
189	0x38582ad1	5.153829e-05
190	0xabdd4f71	-1.5725044e-12
191	0xba77246a	-0.00094277284
192	0x9bc7e616	-3.3070478e-22
193	0x99b6a197	-1.8883625e-23
194	0x34032156	1.2212453e-07
195	0x3a0a7f5c	0.000528326
196	0xa1fd1271	-1.7148828e-18
197	0x393de1ce	0.00018108563
198	0x9ef407cb	-2.5837728e-20
199	0xa461e217	-4.8980603e-17
200	0x2ea41045	7.4607466e-11
201	0xba072c29	-0.00051564217
202	0xbb8986ce	-0.004196978
203	0xab1248ef	-5.1970835e-13
204	0xbd805926	-0.06267004
205	0x3ae06c4a	0.0017122116
206	0xb0a20ded	-1.1791009e-09
207	0x1b2d6bf6	1.4345109e-22
208	0x39dbc60c	0.00041918491
209	0x3cb2f0cb	0.021843335
210	0x114c19cd	1.6100713e-28
211	0xb1bd0563	-5.5012364e-09
212	0x9e1a32fd	-8.163236e-21
213	0x0aba1208	1.7917931e-32
214	0x9abc1657	-7.779107e-23
215	0xaea9b7ab	-7.717856e-11
216	0xb310c7e3	-3.370941e-08
217	0x1909bf79	7.1214016e-24
218	0xbb4fb962	-0.003169619
219	0xbdbc901d	-0.09207175
220	0x9b2b2275	-1.4155922e-22
221	0xba5d32aa	-0.00084380305
222	0x9c57499e	-7.123268e-22
223	0x04fe2aeb	5.9754527e-36
224	0x3db201bf	0.08691739
225	0xad403675	-1.0926028e-11
226	0x373cdb76	1.125677e-05
227	0x1db4473a	4.771925e-21
228	0xb9135b53	-0.00014053033
229	0x3cd3deed	0.025863135
230	0x2be5378d	1.6286847e-12
231	0x27d74d92	5.975859e-15
232	0x3b608d9b	0.003426409
233	0x89b3f6b2	-4.3324674e-33
234	0x3dacf167	0.08444481
235	0xa42d32c6	-3.7556402e-17
236	0x3b652df4	0.0034970017
237	0x8f139d5c	-7.277966e-30
238	0xa9a56f9f	-7.346835e-14
239	0xbd138284	-0.03601314
240	0x3040b532	7.0106687e-10
241	0x12fa8eeb	1.581245e-27
242	0x88bd7ae6	-1.1403917e-33
243	0xad2c98fa	-9.811036e-12
244	0xbdb14cc0	-0.08657217
245	0x2cfd7c4e	7.204493e-12
246	0x1b78f448	2.0593011e-22
247	0x2f197058	1.3955181e-10
248	0xa629e4e0	-5.8943837e-16
249	0xbd2d0cbe	-0.04224848
250	0xa16a855b	-7.945878e-19
251	0xb599bd35	-1.1454455e-06
252	0xadabc18a	-1.9526398e-11
253	0x15143a9a	2.993459e-26
254	0x3d66e9d9	0.05637536
255	0xb4edeaa6	-4.431542e-07

tcn.network.0.net.0.bias f4 [32]
0	0x3f58dd8a	0.8471304
1	0x3f83553b	1.0260385
2	0x3d728afc	0.059214577
3	0xbeedd28e	-0.46449703
4	0x3fba758b	1.4567121
5	0x3fc94525	1.5724226
6	0xbc8e2bd5	-0.017354885
7	0x3d4aa997	0.04947814
8	0x400140dd	2.019584
9	0x3fa6e417	1.3038357
10	0x3cb248ff	0.021763323
11	0x3f420f0a	0.758042
12	0xbf6b6699	-0.91953427
13	0x3f9c73c2	1.2222826
14	0x3ef9e8a2	0.48810297
15	0x3f74e5e0	0.9566326
16	0x3fa38d0a	1.2777417
17	0x3f4e213f	0.8051948
18	0xbe7bc0de	-0.24585292
19	0x3f0143cf	0.5049409
20	0xbe88a959	-0.26691702
21	0x3fb0eb36	1.3821781
22	0x3fbaf538	1.4606085
23	0xbc492d5a	-0.012278879
24	0xbd20dcc8	-0.039273053
25	0x3fe441f4	1.7832627
26	0x3ee0c515	0.43900362
27	0xbf87d2de	-1.0611227
28	0x3f7d8e24	0.99045014
29	0x3f9bd711	1.2175008
30	0x3f0e4a13	0.5558178
31	0x3f0e517d	0.5559309

tcn.network.0.net.0.parametrizations.weight.original0 f4 [32, 1, 1]
0	0x3f50ed0c	0.81611705
1	0x3f6b0060	0.9179745
2	0x3f0f0acb	0.55875844
3	0x3f5125fb	0.8169858
4	0x3f3e9bf2	0.74456704
5	0x3f3812e4	0.71903825
6	0x3f108f1b	0.5646836
7	0x3f0c6233	0.5483734
8	0x3f487ed5	0.7831853
9	0x3f3cb296	0.7371
10	0x3f13bd73	0.5771095
11	0x3f966bd0	1.1751652
12	0x3f76e0cc	0.9643676
13	0x3f3dfc0b	0.7421271
14	0x3f3ee16e	0.7456273
15	0x3f3c7acc	0.73624873
16	0x3f3d3d59	0.73921734
17	0x3f5db8a4	0.86609864
18	0x3f6bda8f	0.9213037
19	0x3f7d7c5f	0.990179
20	0x3f84e4ff	1.0382384
21	0x3f4ca85f	0.79944414
22	0x3f41c3e7	0.7568955
23	0x3f11b18a	0.5691153
24	0x3f87ef61	1.0619928
25	0x3f4e88b4	0.8067734
26	0x3f263753	0.6492817
27	0x3f7b64e9	0.9820085
28	0x3f64c7c8	0.8936734
29	0x3f562810	0.8365488
30	0x3f60d486	0.87824285
31	0x3f83010d	1.0234696

tcn.network.0.net.0.parametrizations.weight.original1 f4 [32, 32, 5]
0	0x9a677780	-4.7866212e-23
1	0xb1c64569	-5.7704495e-09
2	0xba787eab	-0.0009479324
3	0x9555e1c6	-4.319311e-26
4	0x3d88e956	0.0668513
5	0xa08661b4	-2.2765137e-19
6	0x2a4360e5	1.7353096e-13
7	0xad16a738	-8.563643e-12
8	0x12411cb8	6.093546e-28
9	0x3d849a4d	0.06474743
10	0x390ba050	0.00013315794
11	0x39d579b4	0.00040717202
12	0x2d961ba4	1.70653e-11
13	0x2298f512	4.145916e-18
14	0x3d4e51d7	0.050371017
15	0x20a77e9a	2.8374678e-19
16	0x34f6eb49	4.5992263e-07
17	0x21b1b4d4	1.2041851e-18
18	0x3a73e668	0.00093040476
19	0xbd06eba2	-0.03293956
20	0x27dc549d	6.1154004e-15
21	0xb96338ee	-0.00021669615
22	0x3a317b4e	0.0006770388
23	0xb49dc982	-2.9390145e-07
24	0xbd289651	-0.041158978
25	0x3a99afb3	0.0011725336
26	0xb073cf59	-8.8697544e-10
27	0xaf1c4752	-1.4213455e-10
28	0xa59543c5	-2.5893302e-16
29	0xbd703ded	-0.058652807
30	0x26cdbf79	1.4276631e-15
31	0x23324fd5	9.6663044e-18
32	0x36df87b9	6.661718e-06
33	0x1b861202	2.2180078e-22
34	0xbcdc6372	-0.026902888
35	0xaa471ed6	-1.7685449e-13
36	0x915cb9ac	-1.7412154e-28
37	0xadf2a1da	-2.7584091e-11
38	0x1745a1b2	6.385822e-25
39	0xbd1d5a08	-0.03841594
40	0x8c808476	-1.9801245e-31
41	0xae99c127	-6.991945e-11
42	0x252592e5	1.4361238e-16
43	0x30475bb0	7.2526074e-10
44	0x3c8847e5	0.016635844
45	0x15377eac	3.7056482e-26
46	0xa5102531	-1.250261e-16
47	0xaccc3a31	-5.8044893e-12
48	0xb2e0059d	-2.6079585e-08
49	0x3c8cbac2	0.017178897
50	0x33edc53a	1.1072048e-07
51	0xb840260b	-4.5811797e-05
52	0xb901158c	-0.00012310426
53	0xb95fb69d	-0.00021334966
54	0x3d93fdea	0.07226165
55	0xb002aa99	-4.753616e-10
56	0xb68f291e	-4.2665188e-06
57	0xb519487c	-5.710242e-07
58	0x11eef3c6	3.7700016e-28
59	0x3d8add35	0.06780473
60	0x3a1dbe1b	0.00060174026
61	0xb7a3852f	-1.9493133e-05
62	0xb9830352	-0.0002498874
63	0x3a880046	0.0010376058
64	0x3d0635b1	0.032766048
65	0xb49dea8e	-2.941419e-07
66	0x35b0d605	1.317531e-06
67	0x931d6ed3	-1.9870826e-27
68	0xb18a91fc	-4.032925e-09
69	0xbd402cae	-0.04691761
70	0x36e63f4f	6.8619042e-06
71	0xb6d928d6	-6.471858e-06
72	0x1618f154	1.2354612e-25
73	0x3a3afd02	0.0007133038
74	0xbd559d73	-0.05215211
75	0x22328950	2.419619e-18
76	0x97a4b1b8	-1.0643114e-24
77	0x1b57d679	1.7853683e-22
78	0xa30d3bea	-7.656313e-18
79	0xbd8f1a24	-0.06987408
80	0x87c4b9ea	-2.9600073e-34
81	0xb291e14e	-1.6982678e-08
82	0x35f3f8ee	1.8177359e-06
83	0x9f15c313	-3.171334e-20
84	0xbd21537a	-0.03938625
85	0x347206d0	2.2540485e-07
86	0x3aed3300	0.0018096864
87	0xad580326	-1.2278878e-11
88	0xb600a6ba	-1.9170534e-06
89	0x3d515c41	0.05111337
90	0x1fa7aa3d	7.1008887e-20
91	0x1df57751	6.497433e-21
92	0x221892b9	2.0677516e-18
93	0x13e0273f	5.658425e-27
94	0xbbc5341f	-0.006018176
95	0x3745e3bb	1.1795138e-05
96	0x142aa560	8.615421e-27
97	0xa040a519	-1.6317659e-19
98	0x92963fb1	-9.482032e-28
99	0x3d14d7ea	0.036338724
100	0x0e745803	3.0117698e-30
101	0xb9351cf6	-0.00017272294
102	0xb4c6024d	-3.6882048e-07
103	0x979907fb	-9.889408e-25
104	0xbcf7582d	-0.030193413
105	0xae635d26	-5.1696557e-11
106	0x0b84a257	5.108881e-32
107	0x3952e4f6	0.00020112455
108	0xb9eda6b8	-0.00045328378
109	0x3d623e13	0.05523498
110	0x20a89b57	2.8563102e-19
111	0x2f41684e	1.7590304e-10
112	0xb9c20fe8	-0.00037014415
113	0x34818fcd	2.413275e-07
114	0x3d993f34	0.07482758
115	0x36efff2d	7.1524614e-06
116	0x36056ed8	1.9883064e-06
117	0x3947b6b3	0.0001904618
118	0x2e7cb2b8	5.74569e-11
119	0xbdda1f7b	-0.10650536
120	0x22d91289	5.8837593e-18
121	0x2d50a6b0	1.1860443e-11
122	0xb00b8677	-5.075899e-10
123	0xb99597ea	-0.0002853268
124	0xbe0c76bd	-0.1371717
125	0x38c56aa7	9.4135576e-05
126	0x1a96a492	6.2304424e-23
127	0x95a1638e	-6.518445e-26
128	0x942a4c86	-8.597898e-27
129	0xbd8a1520	-0.067423105
130	0x217471c5	8.282099e-19
131	0x969e755c	-2.560034e-25
132	0x3323350f	3.799965e-08
133	0x95a6b266	-6.732833e-26
134	0x3da7b408	0.08188635
135	0x280916df	7.609987e-15
136	0x2931ab62	3.9450546e-14
137	0x37345015	1.0747482e-05
138	0xb4bf9c21	-3.569012e-07
139	0xbcabcb8a	-0.020971078
140	0x3a790d30	0.0009500561
141	0xb131ed21	-2.5891682e-09
142	0xaa9f8057	-2.8333127e-13
143	0xb490367e	-2.6861738e-07
144	0xbcb140ed	-0.021637404
145	0x34b65989	3.3965287e-07
146	0xaf7482ef	-2.2238188e-10
147	0x128af669	8.769769e-28
148	0xb03f435a	-6.958111e-10
149	0xbd4104ea	-0.047123827
150	0x248efcf0	6.2011176e-17
151	0xa62815c6	-5.8316217e-16
152	0x8941f06e	-2.334458e-33
153	0x38a4b8a6	7.854523e-05
154	0xbdc977fa	-0.09837337
155	0xb9099b3c	-0.00013123167
156	0x39e32e57	0.0004333134
157	0x95f27172	-9.7922007e-26
158	0xb655b4d1	-3.1844722e-06
159	0x3eadba46	0.33931178
160	0x32430d87	1.135357e-08
161	0xb6dac424	-6.51974e-06
162	0xa3b5bb9f	-1.970352e-17
163	0x3a49a5f2	0.0007692269
164	0x3d2e7765	0.042594332
165	0x9e06d04a	-7.136974e-21
166	0x9a97c851	-6.2775765e-23
167	0x220317ba	1.7766371e-18
168	0xbbd47583	-0.006483735
169	0x3cbcdbad	0.023053968
170	0xa211a444	-1.9738126e-18
171	0xbbb2308b	-0.0054379157
172	0xbbd5063b	-0.006500987
173	0xb78377ed	-1.5672262e-05
174	0x3d8e8401	0.069587715
175	0x2a585130	1.9212821e-13
176	0x211a09f2	5.219039e-19
177	0x390a3dde	0.00013183753
178	0x9f981777	-6.4413323e-20
179	0xbc775542	-0.015096011
180	0x32a30d7a	1.8981826e-08
181	0xad6f7442	-1.36113915e-11
182	0x32be82d0	2.2178398e-08
183	0x3b90c181	0.0044175987
184	0xbdba39cf	-0.09093057
185	0xb87718cf	-5.8912494e-05
186	0x32543f5f	1.2354433e-08
187	0x1d49ac63	2.669125e-21
188	0xb7a7e7e5	-2.0015936e-05
189	0xbd9048fe	-0.07045172
190	0x9f0b83a7	-2.9543295e-20
191	0x169a58f4	2.493618e-25
192	0xbb01499e	-0.0019727717
193	0x23db3f7e	2.3770918e-17
194	0xbd2c65e7	-0.04208937
195	0xa14ae360	-6.874119e-19
196	0xb6ba6c95	-5.5558726e-06
197	0x1ea08de9	1.6999352e-20
198	0xa40caa54	-3.0501934e-17
199	0xbd6f80d5	-0.058472473
200	0x323c99b0	1.0977985e-08
201	0xb9976ae8	-0.00028880616
202	0xbbaaed95	-0.0052163103
203	0x22965737	4.0749924e-18
204	0x3d8aee12	0.067836896
205	0xb24c0ffd	-1.1877998e-08
206	0xbb5baa3d	-0.0033518218
207	0x30538cdc	7.6961526e-10
208	0x17e29452	1.4642349e-24
209	0x3da5f6ec	0.08103737
210	0x16430daa	1.5756286e-25
211	0x3593f445	1.1023445e-06
212	0x2a33de67	1.5975555e-13
213	0xbbb196b4	-0.0054195765
214	0x3cdfafc9	0.0273055
215	0x3c0974da	0.008389676
216	0x198b12d9	1.4379876e-23
217	0x38375ff6	4.371997e-05
218	0x390d0a08	0.00013450545
219	0x3d3ba45a	0.045811035
220	0x398a8933	0.00026423633
221	0x2b6245ce	8.03882e-13
222	0xb5ced6bc	-1.5410692e-06
223	0x1ba1523c	2.6688358e-22
224	0xbcf9f444	-0.030511983
225	0x3107629a	1.9701134e-09
226	0xad6f19e0	-1.35913225e-11
227	0x3bfafd63	0.0076596006
228	0x358871ea	1.0165943e-06
229	0xbd13216c	-0.035920545
230	0xb0897bb1	-1.0003217e-09
231	0xa1e6e6b7	-1.5646476e-18
232	0xb9d138ac	-0.0003990581
233	0x18704588	3.1054377e-24
234	0xbdba6b84	-0.09102538
235	0xbb2a3a71	-0.0025974775
236	0x3c089539	0.008336359
237	0x1e73fc01	1.2916426e-20
238	0x3b6fa356	0.0036565862
239	0xbdc6a375	-0.09699146
240	0x3a10be76	0.0005521545
241	0xbb8845bb	-0.004158703
242	0x1b8685e2	2.225496e-22
243	0xb773ecea	-1.45390895e-05
244	0xbdc4588f	-0.09587204
245	0x372605a1	9.895682e-06
246	0xae9716d6	-6.8707415e-11
247	0xb42d5041	-1.6141077e-07
248	0x3ba0373d	0.0048893974
249	0x3da17542	0.07883693
250	0x2d3e12da	1.08044355e-11
251	0xa605b8ff	-4.639436e-16
252	0xbb8dc207	-0.0043261084
253	0x263d630d	6.5706786e-16
254	0x3e18d70a	0.14925781
255	0x229753cf	4.1017368e-18

tcn.network.0.net.4.bias f4 [32]
0	0x3f6b62e8	0.91947794
1	0x3f13d016	0.5773939
2	0x3f3190ff	0.6936187
3	0x3fb76f2a	1.43308
4	0x3ef71f72	0.48266178
5	0xbedd20b0	-0.43189
6	0xbf69b502	-0.9129182
7	0xbe959d1f	-0.29221436
8	0xbee97d69	-0.45603493
9	0x3dc6dd79	0.09710211
10	0x3f02776c	0.50963473
11	0x3f62dffa	0.8862301
12	0x3f81ad68	1.0131044
13	0x3fa17567	1.2613953
14	0x3e6131d1	0.2199166
15	0x3f828e96	1.0199764
16	0x3f5595f6	0.8343195
17	0x3ed50412	0.41604668
18	0xbe1858d3	-0.14877634
19	0xba03f601	-0.0005033911
20	0x3f68e0ce	0.90968025
21	0x3f1637b1	0.5867873
22	0x3f453089	0.77027184
23	0x3f73daea	0.9525591
24	0x3fae2a46	1.3606651
25	0x3f144c11	0.5792857
26	0x3fa895d1	1.317072
27	0x3fc25661	1.5182611
28	0x3f973ce5	1.1815459
29	0x3f985c92	1.190325
30	0x3fa61117	1.2973965
31	0x3fa4d062	1.2876093

tcn.network.0.net.4.parametrizations.weight.original0 f4 [32, 1, 1]
0	0x3fdc039e	1.7188604
1	0x3fffaac6	1.9973991
2	0x3f9e6a08	1.2376108
3	0x3fbf5106	1.4946601
4	0x3fa09e49	1.2548305
5	0x3f978e83	1.1840366
6	0x3fae0a13	1.3596824
7	0x3f9aad7e	1.2084196
8	0x3ef7b5a0	0.48380756
9	0x3f090f1a	0.5353867
10	0x3f0f14aa	0.55890906
11	0x3f1243f0	0.57134914
12	0x3f753780	0.9578781
13	0x3f20c6f0	0.62803555
14	0x3fdd94e2	1.731106
15	0x3f0c9f2a	0.54930365
16	0x3f1ca168	0.61183786
17	0x3f0c3bb1	0.5477858
18	0x3f120fd1	0.57055384
19	0x3f131fa3	0.5747015
20	0x3ef5dfdc	0.48022354
21	0x3f09a62c	0.53769183
22	0x3f0ff861	0.5623837
23	0x3f130bda	0.5743996
24	0x3f1255e6	0.5716232
25	0x3ffff249	1.9995815
26	0x3f0a98ee	0.541396
27	0x3edf245a	0.43582422
28	0x3f069e00	0.5258484
29	0x3f189c19	0.59613186
30	0x3f7ac823	0.97961634
31	0x3f23157d	0.63704664

tcn.network.0.net.4.parametrizations.weight.original1 f4 [32, 32, 5]
0	0xa37dfa69	-1.3768184e-17
1	0x9e281867	-8.898892e-21
2	0x2c1c2086	2.2186987e-12
3	0x3a2cdb36	0.0006593944
4	0xbdc8a17f	-0.09796428
5	0xb889f76c	-6.578755e-05
6	0xad8501d5	-1.5121163e-11
7	0x12f06615	1.5171295e-27
8	0xa6506e01	-7.231358e-16
9	0xbdb14035	-0.08654825
10	0xb8950d66	-7.107369e-05
11	0x2cdc0959	6.253814e-12
12	0xa19ca9fa	-1.0615964e-18
13	0x8b71be1c	-4.6557934e-32
14	0xa745fe8d	-2.7477234e-15
15	0xb9d55f09	-0.00040697333
16	0x2ccea972	5.8736844e-12
17	0x377cb279	1.5061924e-05
18	0x8a822e7e	-1.2536033e-32
19	0x3d6e47b4	0.05817385
20	0x14561319	1.0808005e-26
21	0xb38f0bc8	-6.6610994e-08
22	0x9c26fb3e	-5.5249516e-22
23	0xafdaf9e7	-3.9831535e-10
24	0xbdb7df6c	-0.08978161
25	0x21c47e8b	1.3314972e-18
26	0xbb8022f0	-0.003910415
27	0xa42434e3	-3.5606628e-17
28	0x1c35eb72	6.019218e-22
29	0xbd109d00	-0.035305977
30	0x333b73c2	4.364461e-08
31	0x1fbb920f	7.9439214e-20
32	0xb893c937	-7.0469854e-05
33	0x3618c175	2.2762372e-06
34	0xab65f405	-8.169579e-13
35	0xbb3c18a9	-0.0028701222
36	0xa10be770	-4.7401337e-19
37	0x35c2720a	1.4487316e-06
38	0x239a5d44	1.6736213e-17
39	0x9dfaae5e	-6.635474e-21
40	0xb18763de	-3.9403707e-09
41	0xb9ba321c	-0.0003551402
42	0x233c0300	1.0192136e-17
43	0x2da742f3	1.9015433e-11
44	0xbe031b1f	-0.12803315
45	0xa39901a6	-1.6588991e-17
46	0xa13b9752	-6.3558335e-19
47	0x1285778c	8.422951e-28
48	0xa711699d	-2.0180045e-15
49	0xbdaaf4b1	-0.083474524
50	0x33eb87b9	1.0967728e-07
51	0x376aec6a	1.4002531e-05
52	0x1e871ba0	1.4305106e-20
53	0x1ded8e9f	6.2880844e-21
54	0x35b000b3	1.3113225e-06
55	0x1b0805ae	1.1251492e-22
56	0x9ed83b28	-2.2894356e-20
57	0x1cc9df9e	1.3358868e-21
58	0xbad741e5	-0.0016422836
59	0xbd8a8a0a	-0.0676461
60	0x14e8ac75	2.3494036e-26
61	0x95ca8255	-8.179278e-26
62	0xa1437ca0	-6.623351e-19
63	0xafe44fc2	-4.152963e-10
64	0xbc1f6359	-0.009728276
65	0xb2b63c03	-2.1214879e-08
66	0x30cf6464	1.5089765e-09
67	0x36552ada	3.1764416e-06
68	0x323af5e1	1.0882531e-08
69	0xbd262d6d	-0.040570665
70	0x0d1e2481	4.873145e-31
71	0x1eff7eb4	2.7051578e-20
72	0xaeaa45b8	-7.7430895e-11
73	0xad44657a	-1.1163842e-11
74	0x3c8fc9fc	0.017552368
75	0xb02a53cc	-6.196472e-10
76	0xb3847a49	-6.1689725e-08
77	0x2eb8a0d1	8.395918e-11
78	0xb74a6a74	-1.2064924e-05
79	0xbd991be0	-0.0747602
80	0x2ddd7684	2.5177423e-11
81	0x2ba6fc8a	1.1865103e-12
82	0x9845fa71	-2.5588094e-24
83	0xb299851f	-1.787208e-08
84	0xbdb80ce7	-0.08986836
85	0xb8838d6e	-6.27291e-05
86	0x0aa48b06	1.584492e-32
87	0x3a009d4c	0.00049062516
88	0x380dc3d0	3.3799384e-05
89	0xbcbc8f8f	-0.023017673
90	0x9f022fb5	-2.7568033e-20
91	0x330747a0	3.149728e-08
92	0x9f865ee8	-5.6908217e-20
93	0x852c0e42	-8.09002e-36
94	0x3cd6f6cc	0.026240729
95	0x183ee38a	2.4671802e-24
96	0x38f3e441	0.000116296585
97	0x9159a57e	-1.7169278e-28
98	0xa63e1bdc	-6.595725e-16
99	0x3e0a21bb	0.1348943
100	0x179c187a	1.0087442e-24
101	0xadd65fc2	-2.4371508e-11
102	0x1f836fab	5.56654e-20
103	0xa46265a5	-4.9092034e-17
104	0x3e3fec6b	0.1874253
105	0x29885f02	6.0560945e-14
106	0xb2b819fb	-2.1432234e-08
107	0x9b545813	-1.7564687e-22
108	0x20bee00b	3.233551e-19
109	0xbdce9235	-0.100864805
110	0x3a0d4997	0.0005389689
111	0xb5eb60c7	-1.753703e-06
112	0x32939824	1.7182238e-08
113	0xb87b74a0	-5.995168e-05
114	0x3cebb4c5	0.028772721
115	0xad63b474	-1.2943525e-11
116	0xaf012e4e	-1.1748932e-10
117	0x36454f31	2.9401383e-06
118	0x178b1eeb	8.990469e-25
119	0xa3a4a883	-1.7852283e-17
120	0x1e660c36	1.2178624e-20
121	0x148611e1	1.3537594e-26
122	0x2cd88e99	6.1549208e-12
123	0xaa0d5dcd	-1.255586e-13
124	0xbdaae44a	-0.08344324
125	0x3974fbef	0.00023363506
126	0xaf0b628c	-1.2676987e-10
127	0x9bd6ff0a	-3.5568145e-22
128	0xb9fc9bfc	-0.00048181403
129	0xbc4af4a6	-0.01238743
130	0x379146e6	1.7318362e-05
131	0x334ce4a5	4.7705402e-08
132	0xb75cacbb	-1.3153239e-05
133	0xb1002499	-1.8647255e-09
134	0x3da42284	0.08014396
135	0x33dea617	1.0367892e-07
136	0x10571afb	4.242206e-29
137	0xb66ce152	-3.5297894e-06
138	0x1ba5fbce	2.7459685e-22
139	0x3c0e5822	0.008688005
140	0x1e275149	8.857716e-21
141	0xb9d56648	-0.0004070273
142	0xb183e42e	-3.838543e-09
143	0x06da8c5d	8.220873e-35
144	0x3bc8d0dc	0.0061284136
145	0x2cefc237	6.8143507e-12
146	0x378c0d34	1.6695449e-05
147	0xb7d3096d	-2.515755e-05
148	0x9cedfbff	-1.5748484e-21
149	0xbd780f80	-0.060561657
150	0xb55cf0bb	-8.2306696e-07
151	0x99d2b094	-2.178481e-23
152	0xb4f68097	-4.5914632e-07
153	0x9e4e8b60	-1.0934371e-20
154	0x3da13975	0.07872287
155	0x1fc134bc	8.182592e-20
156	0x1ef15fa4	2.5556424e-20
157	0x37dca4c7	2.6302774e-05
158	0x22ca448e	5.4824795e-18
159	0x3db8a7bc	0.09016368
160	0x997e624b	-1.3151342e-23
161	0x9d02af76	-1.7296068e-21
162	0xab79a3f5	-8.8690107e-13
163	0x22e8bad2	6.308153e-18
164	0xbdafc276	-0.08582012
165	0x1fb4faf1	7.664811e-20
166	0x8dea97e3	-1.4457929e-30
167	0x9a1aa505	-3.1979755e-23
168	0x243e10bc	4.1213857e-17
169	0xbdbf0a29	-0.0932811
170	0xad2ff700	-1.0002443e-11
171	0x3b1c3847	0.0023837255
172	0x2f19f340	1.4001689e-10
173	0x901db62e	-3.1103137e-29
174	0x85abb5a7	-1.6147491e-35
175	0x22dcd60f	5.9857763e-18
176	0xae397066	-4.216396e-11
177	0x3a2aae04	0.00065109157
178	0xb2a35605	-1.9014815e-08
179	0x3ce97392	0.028497491
180	0x0ab015aa	1.6956333e-32
181	0x0ab21de7	1.7152025e-32
182	0x3b35fcd3	0.0027769103
183	0x1baf320c	2.8983663e-22
184	0xbd01c415	-0.03168114
185	0x1fb8b46a	7.82255e-20
186	0xba98915c	-0.001164
187	0xba882c15	-0.0010389114
188	0xaa46f8d3	-1.7672261e-13
189	0x38582ad1	5.153829e-05
190	0xabdd4f71	-1.5725044e-12
191	0xba77246a	-0.00094277284
192	0x9bc7e616	-3.3070478e-22
193	0x99b6a197	-1.8883625e-23
194	0x34032156	1.2212453e-07
195	0x3a0a7f5c	0.000528326
196	0xa1fd1271	-1.7148828e-18
197	0x393de1ce	0.00018108563
198	0x9ef407cb	-2.5837728e-20
199	0xa461e217	-4.8980603e-17
200	0x2ea41045	7.4607466e-11
201	0xba072c29	-0.00051564217
202	0xbb8986ce	-0.004196978
203	0xab1248ef	-5.1970835e-13
204	0xbd805926	-0.06267004
205	0x3ae06c4a	0.0017122116
206	0xb0a20ded	-1.1791009e-09
207	0x1b2d6bf6	1.4345109e-22
208	0x39dbc60c	0.00041918491
209	0x3cb2f0cb	0.021843335
210	0x114c19cd	1.6100713e-28
211	0xb1bd0563	-5.5012364e-09
212	0x9e1a32fd	-8.163236e-21
213	0x0aba1208	1.7917931e-32
214	0x9abc1657	-7.779107e-23
215	0xaea9b7ab	-7.717856e-11
216	0xb310c7e3	-3.370941e-08
217	0x1909bf79	7.1214016e-24
218	0xbb4fb962	-0.003169619
219	0xbdbc901d	-0.09207175
220	0x9b2b2275	-1.4155922e-22
221	0xba5d32aa	-0.00084380305
222	0x9c57499e	-7.123268e-22
223	0x04fe2aeb	5.9754527e-36
224	0x3db201bf	0.08691739
225	0xad403675	-1.0926028e-11
226	0x373cdb76	1.125677e-05
227	0x1db4473a	4.771925e-21
228	0xb9135b53	-0.00014053033
229	0x3cd3deed	0.025863135
230	0x2be5378d	1.6286847e-12
231	0x27d74d92	5.975859e-15
232	0x3b608d9b	0.003426409
233	0x89b3f6b2	-4.3324674e-33
234	0x3dacf167	0.08444481
235	0xa42d32c6	-3.7556402e-17
236	0x3b652df4	0.0034970017
237	0x8f139d5c	-7.277966e-30
238	0xa9a56f9f	-7.346835e-14
239	0xbd138284	-0.03601314
240	0x3040b532	7.0106687e-10
241	0x12fa8eeb	1.581245e-27
242	0x88bd7ae6	-1.1403917e-33
243	0xad2c98fa	-9.811036e-12
244	0xbdb14cc0	-0.08657217
245	0x2cfd7c4e	7.204493e-12
246	0x1b78f448	2.0593011e-22
247	0x2f197058	1.3955181e-10
248	0xa629e4e0	-5.8943837e-16
249	0xbd2d0cbe	-0.04224848
250	0xa16a855b	-7.945878e-19
251	0xb599bd35	-1.1454455e-06
252	0xadabc18a	-1.9526398e-11
253	0x15143a9a	2.993459e-26
254	0x3d66e9d9	0.05637536
255	0xb4edeaa6	-4.431542e-07

tcn.network.1.conv1.bias f4 [16]
0	0xbca514ad	-0.02015146
1	0x3e0a82ee	0.13526508
2	0x3f61eaf6	0.88249147
3	0x3ae8372e	0.001771664
4	0x3f1f9612	0.62338364
5	0xbd9eac48	-0.07747704
6	0x3fb248a9	1.3928424
7	0x3dcc9adf	0.09990477
8	0xbc7efd84	-0.0155633725
9	0x3eeb24a2	0.45926386
10	0x3e494b27	0.19657575
11	0xbfb3e18b	-1.4053205
12	0xbd74864d	-0.05969839
13	0xbd27991e	-0.04091751
14	0xbca66bde	-0.020315107
15	0x3fb70d19	1.4300872

tcn.network.1.conv1.parametrizations.weight.original0 f4 [16, 1, 1]
0	0x3f16b89b	0.58875436
1	0x3f39c24d	0.72562104
2	0x3f45b109	0.7722326
3	0x3f07eaac	0.53092456
4	0x3f416968	0.7555146
5	0x3f8d2eda	1.1029923
6	0x3f518b25	0.8185294
7	0x3f925afc	1.1434016
8	0x3f0e09a7	0.5548348
9	0x3f69185c	0.91052794
10	0x3f56320b	0.8367011
11	0x3f79bca9	0.975535
12	0x3f14ff9d	0.58202535
13	0x3f08d99a	0.53457034
14	0x3f09e176	0.5385965
15	0x3f206639	0.6265598

tcn.network.1.conv1.parametrizations.weight.original1 f4 [16, 32, 5]
0	0xbd952bd7	-0.072837524
1	0x3d634c35	0.0554926
2	0xbd0d307d	-0.03447007
3	0x3d427e85	0.04748394
4	0xbcb5d919	-0.022198247
5	0x3d699f12	0.057036467
6	0x3d757333	0.059924316
7	0xbd7f4442	-0.062320955
8	0x3d8a14e4	0.06742266
9	0x3d62d043	0.055374395
10	0xbd9394e3	-0.07206132
11	0x3d7ff7cb	0.062492173
12	0xbd49d1b4	-0.049272254
13	0xbd1fdea1	-0.039030675
14	0xbdaa704e	-0.08322202
15	0x3d857061	0.06515575
16	0xbd9ad8f9	-0.075609155
17	0xbd389737	-0.045066085
18	0xbd5eb7cf	-0.054374512
19	0xbd187e31	-0.03722972
20	0xbd867028	-0.06564361
21	0x3d86ef14	0.06588569
22	0xbd569d91	-0.05239636
23	0x3d4011f1	0.04689211
24	0xbcf6ac09	-0.03011133
25	0x3d1ae53e	0.03781628
26	0xbd536f35	-0.051619727
27	0x3d93156e	0.07181822
28	0x3d9d143b	0.07669874
29	0x3c76b129	0.015056887
30	0xbd4b1e81	-0.049589638
31	0xbd9d20b2	-0.07672252
32	0x3c6339c0	0.013868749
33	0xbdb48736	-0.08814852
34	0x3ce39600	0.027781487
35	0xbcefde1d	-0.029280717
36	0xbd8b5a63	-0.06804349
37	0x3da8ee6b	0.082485996
38	0xbc845355	-0.016153017
39	0xbc3cd986	-0.011526471
40	0x3d587065	0.052841563
41	0x3cb6315e	0.022240337
42	0xbd332b70	-0.043742597
43	0x3cd8e2f8	0.026475415
44	0xbcf42952	-0.02980486
45	0xbdac11e7	-0.08401852
46	0x3d7fd11f	0.062455293
47	0x3d4bd1fb	0.0497608
48	0xbd839f7e	-0.06426905
49	0x3cd00cc5	0.025396714
50	0x3c5deb83	0.01354492
51	0x3d571456	0.05250963
52	0x3ceb6bf6	0.028738003
53	0x3c91a359	0.017778086
54	0xbcb509cc	-0.022099398
55	0x3db5ad46	0.0887094
56	0x3c8be285	0.017075786
57	0xbca43584	-0.02004505
58	0x3d699277	0.057024445
59	0xbcc8c402	-0.024507526
60	0x3cd9610f	0.026535539
61	0x3d84f6c1	0.06492377
62	0xbdaf3b2f	-0.0855621
63	0x3d3bef49	0.045882497
64	0x3c8c8666	0.01715393
65	0x3d114691	0.035467688
66	0x3d247af1	0.04015631
67	0x3d55723d	0.0521109
68	0x3c8dfd00	0.017332554
69	0xbd5f3cfb	-0.054501515
70	0x3c944353	0.018098509
71	0xbd13d6c9	-0.036093507
72	0x3cedab2e	0.029012289
73	0x3d603fb7	0.054748263
74	0x3d7121fd	0.058870304
75	0xbd432e7c	-0.047651753
76	0xbd5d60b2	-0.054047294
77	0x3cc51679	0.024058567
78	0xbd89e062	-0.06732251
79	0xbc4c0867	-0.012453175
80	0xbd3f4ca5	-0.046703953
81	0xbd948dc4	-0.07253602
82	0x3daf68a4	0.085648805
83	0xbd994f9a	-0.07485886
84	0xbd4465ee	-0.04794877
85	0x3d95a0ae	0.07306038
86	0x3d8c6dc3	0.06856873
87	0xbd916ce3	-0.071008466
88	0x3cb37010	0.021904022
89	0xbd96c618	-0.07362002
90	0xbc37c9d3	-0.011217552
91	0x3d769e15	0.060209353
92	0xbd93aaef	-0.07210337
93	0x3daa275e	0.0830829
94	0xbc55d8e4	-0.013052199
95	0x3d66deb0	0.056364715
96	0x3d89002d	0.06689487
97	0x3d6e3a7b	0.05816124
98	0x3cf93863	0.030422395
99	0x3d487dde	0.04894816
100	0xbda6df30	-0.081480384
101	0xbd81f0ee	-0.06344782
102	0x3d791a5d	0.060816158
103	0xbcc03fdb	-0.023467949
104	0xbd6cfc21	-0.057857636
105	0xbcd51a6a	-0.026013572
106	0xbc75458d	-0.0149701955
107	0x3d40f8aa	0.047112145
108	0xbd84727f	-0.06467151
109	0x3bec4176	0.007209952
110	0xbd6a94c9	-0.0572708
111	0x3db50a52	0.08839859
112	0x3d1d23a5	0.03836407
113	0xbc943e85	-0.018096218
114	0xbd31f638	-0.043447703
115	0xbd81617b	-0.06317421
116	0x3d83438b	0.06409367
117	0xbd83f075	-0.06442348
118	0x3db3667a	0.0875978
119	0x3d2696ca	0.040671147
120	0x3d5fd3d4	0.054645374
121	0x3d9d1084	0.07669166
122	0x3c7cfc5c	0.015441027
123	0xbd508a4d	-0.050913144
124	0xbacf77fa	-0.0015828602
125	0xbd5add90	-0.053433955
126	0x3c84d9f0	0.016217202
127	0x3dad9455	0.08475558
128	0xbd98dbb1	-0.07463778
129	0xbb3fb316	-0.002925103
130	0x3d88c44e	0.06678067
131	0xbc759d9d	-0.014991191
132	0x3cd4fd9d	0.025999838
133	0xbda21156	-0.07913463
134	0x3d35ac31	0.044353668
135	0xbcff7338	-0.03118287
136	0x3d9341c9	0.07190282
137	0xbce9d631	-0.028544517
138	0x3da55a80	0.08073902
139	0xbbb3e755	-0.0054902234
140	0x3d94d6af	0.0726751
141	0x3d9f41b1	0.077762015
142	0xbdb31b35	-0.08745424
143	0xbda62908	-0.08113295
144	0xbd6c0b6a	-0.057628073
145	0x3d9259f7	0.07146066
146	0xbd9e7317	-0.077367954
147	0xbd442bc7	-0.04789331
148	0x3da4f16b	0.08053859
149	0x3d0118ea	0.0315179
150	0x3d923677	0.071392946
151	0x3c5b5d1b	0.013388897
152	0xbd80596c	-0.06267056
153	0x3d412c6b	0.0471615
154	0xbc18c34c	-0.009323906
155	0xbdb3b182	-0.08774091
156	0xbd8d120a	-0.06888206
157	0x3d556a9f	0.052103635
158	0xbda8bd88	-0.08239275
159	0xbda2d904	-0.07951549
160	0xbd982afb	-0.07430073
161	0xb5b1603d	-1.3215537e-06
162	0x3d342772	0.04398293
163	0xbc0a96d3	-0.008458811
164	0xbdff5b7d	-0.12468622
165	0xbd9b936e	-0.07596479
166	0xbd9d9cef	-0.07695948
167	0x3da86e97	0.08224218
168	0x3d58cabf	0.05292773
169	0xbdf6bf93	-0.12048259
170	0xbda7cda7	-0.08193522
171	0xbda41aae	-0.08012901
172	0x3d8863af	0.06659638
173	0xbd4dfb8c	-0.050288722
174	0xbd2269ec	-0.039651796
175	0xaaf5bbeb	-4.3651137e-13
176	0xbd95e4ce	-0.07319032
177	0x3cfd124a	0.03089251
178	0x2c81166a	3.668889e-12
179	0x3df25f19	0.11834545
180	0x3d513054	0.05107148
181	0xbd943532	-0.07236709
182	0x3da31570	0.07963073
183	0xbd94c23f	-0.07263612
184	0x3c54ddf5	0.012992372
185	0xbdaca5dd	-0.084300734
186	0xac375138	-2.605095e-12
187	0xbd984f1d	-0.07436965
188	0xbd957f00	-0.07299614
189	0xbce8f408	-0.028436676
190	0x3b512e48	0.0031918455
191	0xa4f0a4ef	-1.0436282e-16
192	0x1b5f4af8	1.8470351e-22
193	0xb92db6ce	-0.00016566666
194	0xbdd784d1	-0.105233796
195	0xbd96c42f	-0.07361638
196	0x3d55f56d	0.05223601
197	0x3d279ec5	0.0409229
198	0xbd9671d8	-0.07345933
199	0xbcab3681	-0.020900013
200	0x3d58db50	0.052943528
201	0x3d9f0d67	0.07766228
202	0x3db086ca	0.08619459
203	0x3d932a16	0.07185762
204	0x3e1a823d	0.15088744
205	0xbd2bade0	-0.041913867
206	0xbd342bc7	-0.04398706
207	0xbd9d6793	-0.07685771
208	0x3d385492	0.045002528
209	0x3d925935	0.07145921
210	0xbd9f096e	-0.077654704
211	0x160804e7	1.098754e-25
212	0x3d9ff3c3	0.07810166
213	0xbcdf81e7	-0.027283622
214	0x3d03cf13	0.032179903
215	0x3d9d0fd7	0.07669037
216	0x3cd85ea2	0.026412312
217	0x3da0d139	0.07852406
218	0x2a40ccd9	1.7124096e-13
219	0x3c863ca0	0.01638633
220	0x3d9f1242	0.07767154
221	0xb75befd9	-1.3109261e-05
222	0x3d9f2ce5	0.07772235
223	0x3d62df0b	0.05538849
224	0x3c5fc8f4	0.013658751
225	0xbd32a490	-0.04361397
226	0xbd529349	-0.051409993
227	0x34328ef6	1.6629551e-07
228	0xbd993308	-0.074804366
229	0xbd52407c	-0.05133103
230	0xbd9e88b1	-0.077409156
231	0x3d0b250e	0.033970885
232	0x3d975094	0.07388416
233	0x3d941bf1	0.07231892
234	0xbd5d7fce	-0.054076962
235	0xbd98840c	-0.07447061
236	0xbd9e8a73	-0.07741251
237	0x3d235857	0.03987917
238	0xbda66a14	-0.081257015
239	0x3d202e81	0.03910685
240	0xb5e91044	-1.7364587e-06
241	0x2afd4460	4.4989273e-13
242	0x3ce065f6	0.027392369
243	0x3d8a681e	0.0675814
244	0x3dab94ea	0.083780125
245	0xbd3372ae	-0.04381054
246	0xbd9e27df	-0.077224486
247	0xb8d92c45	-0.00010355612
248	0xbd504290	-0.05084473
249	0x38cd0b71	9.777293e-05
250	0x3d9441ba	0.07239099
251	0xbd9f1150	-0.07766974
252	0x3d9807c1	0.07423354
253	0xb70b324d	-8.296757e-06
254	0x3accb8ab	0.0015619
255	0x3d9bc470	0.07605827

tcn.network.1.conv2.bias f4 [16]
0	0xbe954347	-0.2915289
1	0x3d3c5f34	0.04598923
2	0x3fcc645a	1.5968125
3	0x3fb626ac	1.4230552
4	0xbe1fc2a9	-0.156016
5	0x3ff140b7	1.8847874
6	0x3f94f70d	1.1637894
7	0xbf00c270	-0.5029669
8	0x3fd08837	1.629157
9	0x3f8c4c1d	1.0960728
10	0x3d3e56b0	0.04646939
11	0xbd9feb70	-0.07808578
12	0x3fa6cab3	1.3030609
13	0x3fbda1e1	1.4815027
14	0x3dbe7f73	0.09301653
15	0x3fdd7c1d	1.7303501

tcn.network.1.conv2.parametrizations.weight.original0 f4 [16, 1, 1]
0	0x3f202eeb	0.6257159
1	0x3f17c308	0.5928197
2	0x3f711387	0.9417042
3	0x3f5bc75b	0.8585107
4	0x3f34c75f	0.70616716
5	0x3f4f4ae0	0.80973625
6	0x3f317aa1	0.6932774
7	0x3f1fa7e2	0.62365544
8	0x3faf3929	1.3689319
9	0x3f80c50f	1.0060138
10	0x3f12dabe	0.57365024
11	0x3f103d43	0.5634348
12	0x3f8631a4	1.0483899
13	0x3f98577d	1.1901699
14	0x3f7de9df	0.99184984
15	0x3f6fd245	0.9368022
