TCN_best.pt (torch, 79850 bytes, 42 tensors)

tcn.network.0.conv1.bias f4 [32]
-0.04733896 -0.09854147 0.06564144 -0.09015799 -0.0853224 -0.03357247 0.004883356 -0.010545139
-0.5752507 0.00049586943 -1.298701 0.0038367747 1.2009574 1.3880267 -0.048431527 -0.0806815
-0.03391073 1.2906036 -0.7577066 1.4036225 -0.041035634 0.044315074 1.2917051 0.40248975
-0.10782652 -0.9318611 0.044834964 -0.49376944 0.044554673 -0.015805513 0.010383555 1.2140464
00000000: 7fe6 41bd 1cd0 c9bd 056f 863d c1a4 b8bd
00000010: 83bd aebd 4983 09bd 8f04 a03b 85c5 2cbc
00000020: a143 13bf 3cfd 013a d63b a6bf 6672 7b3b
00000030: f9b8 993f dcaa b13f 2360 46bd 583c a5bd
00000040: fae5 0abd 8032 a53f 0ff9 41bf e7a9 b33f
00000050: fb14 28bd b983 353d 9856 a53f 2313 ce3e
00000060: 27d4 dcbd 738e 6ebf dea4 373d 59cf fcbe
00000070: f67e 363d 907a 81bc c91f 2a3c df65 9b3f

tcn.network.0.conv1.parametrizations.weight.original0 f4 [32, 1, 1]
0.8192703 0.57803905 0.5829444 0.5838528 0.5578779 0.5961695 0.53368956 0.5427729
0.7400581 0.5839563 0.68527913 0.56307626 0.6783824 0.80317867 0.56067294 0.5935364
0.57072896 0.72310936 0.59138244 0.8284888 0.5925368 0.58829474 0.71253145 0.9922827
0.64482594 0.84078705 0.5736741 0.8580061 0.5529465 0.5054096 0.538236 0.66319436
00000000: b3bb 513f 5efa 133f d83b 153f 6177 153f
00000010: 16d1 0e3f 909e 183f e19f 083f 2af3 0a3f
00000020: 7374 3d3f 297e 153f 746e 2f3f c425 103f
00000030: 78aa 2d3f 1e9d 4d3f 4388 0f3f 00f2 173f
00000040: 4b1b 123f b21d 393f d764 173f d817 543f
00000050: 7eb0 173f 7c9a 163f 7668 363f 3d06 7e3f
00000060: 5013 253f d23d 573f 4edc 123f 4aa6 5b3f
00000070: e78d 0d3f 8662 013f d6c9 093f 1bc7 293f

tcn.network.0.conv1.parametrizations.weight.original1 f4 [32, 32, 5]
0.016629614 1.6446402e-05 0.0062465793 -1.8682102e-12 0.14384133 -3.42651e-11 -0.0025123977 -1.2109344e-28
7.910399e-06 0.11824252 0.0048922105 2.0818222e-23 2.4320225e-06 -2.3098691e-11 -0.08288437 -8.647801e-06
-4.8422608e-05 8.3002925e-22 0.0003859921 -0.01918594 -5.358043e-07 0.0070931464 -0.0003246157 1.4981126e-07
-0.18125977 1.8292134e-06 0.10428438 0.05784174 -1.091437e-07 -0.11091229 -3.913007e-06 0.063921586
4.135767e-18 -2.2777196e-09 0.066096395 1.4549982e-08 0.101048306 -0.014387286 -0.09695059 -0.03747569
5.715966e-07 3.4564387e-09 0.05578711 0.005556995 -0.024761362 6.186962e-29 0.11256923 1.833885e-30
0.0065140817 0.09460888 9.123361e-14 1.2949035e-07 -4.8370614e-05 -0.019628055 0.07049625 0.077032
0.008486979 0.077288404 -6.442319e-16 0.21863346 -0.015339638 -3.1693865e-19 -3.957777e-11 4.7081145e-11
0.08558212 9.409098e-31 1.8117207e-22 -1.6997602e-15 1.0030252e-13 -0.011801678 1.4065605e-34 1.7738446e-12
-1.7012257e-05 2.3719624e-09 -0.06370183 -1.912825e-27 9.399648e-06 -2.2152885e-32 -2.1520009e-13 -0.23538974
4.2382956e-13 -2.2931162e-11 0.0006175882 -8.232853e-23 -0.23623966 -1.7973694e-20 1.6281183e-11 1.5076371e-07
3.4329803e-11 -0.27170837 2.4319717e-09 -1.3871906e-20 5.375671e-10 -0.0070088264 -0.2016992 0.10025228
-2.894854e-19 -2.3192963e-09 -4.8861186e-11 -0.12639588 -5.3473506e-09 1.4731955e-07 -8.7635265e-15 -6.4510224e-23
0.012548534 -8.2086455e-16 -6.0497076e-27 -0.10326903 -5.897104e-11 0.19357803 -4.4580236e-08 -6.3691216e-22
6.990611e-24 -0.029611496 0.2822186 -1.8736996e-14 -2.4417703e-05 -0.009561041 -0.00268609 0.32016525
6.2033984e-10 0.00025554904 8.599799e-19 1.6513317e-11 0.14942637 5.950522e-11 1.9183877e-13 0.052851997
1.98549e-28 0.058697287 -0.00031569097 -0.009101228 -3.2483704e-06 -1.896489e-12 0.038666323 -0.044520035
-0.018211426 -2.3363752e-23 1.9010926e-22 0.04696282 3.5840158e-17 1.0023338e-05 1.8493056e-30 -6.5849826e-11
-0.0683477 0.0003493844 6.346248e-19 -6.2848116e-18 -3.338572e-13 -0.1683644 1.5901441e-10 -6.7559324e-07
1.4209571e-14 1.3865495e-08 -0.15864845 -3.9933176e-17 -1.8428211e-34 -2.468626e-13 -3.1275884e-24 -0.11535974
-0.0504452 0.03573228 -0.07751427 0.024274133 0.046926014 0.0834537 0.029134318 -0.021694005
0.075325474 -0.056594983 -0.076183915 0.06203265 -0.037103087 0.03761183 -0.019460872 -0.064593785
-0.024406025 -0.07709288 -0.06493504 0.014157946 -0.085182495 0.062812135 0.074365005 -0.06371915
-0.006478987 0.08183683 0.09336047 0.06154245 0.083893314 -0.07682208 0.09090682 -0.031669997
0.08322859 -0.08817474 0.048316676 0.025395945 0.03650574 -0.07490963 0.0808847 -0.0009670122
0.05226828 0.09206646 0.02683312 0.031311814 0.002106928 -0.02388914 0.058018498 -0.031162128
0.06926729 -0.055538733 0.0540256 -0.09216573 0.06778327 -0.040456 -0.01950297 0.0649798
0.08745683 -0.027133565 -0.059838943 -0.02622864 0.05458413 0.075276084 -0.06828885 0.04828329
-0.027644988 0.08281866 -0.02170312 -0.07611043 0.06760453 -0.028179334 -0.082211375 -0.05972682
0.02025181 -0.08256726 -0.039626095 0.020174539 0.06369887 -0.048453435 -0.01974237 0.029478641
0.090799056 0.07225571 0.053685606 0.02353515 0.047839135 -0.049438573 -0.05468843 -0.051393397
-0.09325797 -0.05535975 0.05840115 0.053487692 0.04563019 0.05953202 -0.07580819 0.07472672
00000000: d43a 883c 61f6 8937 1bb0 cc3b af76 03ac
00000010: 244b 133e 13b3 16ae 0aa7 24bb 1181 1991
00000020: e8b6 0437 2229 f23d d64e a03b 6c57 c919
00000030: d435 2336 a12d cbad 48bf a9bd 0616 11b7
00000040: 6119 4bb8 67dc 7a1c fc5e ca39 d52b 9dbc
00000050: 31d4 0fb5 a06d e83b 2f31 aab9 cedb 2034
00000060: 299c 39be 4b83 f535 0d93 d53d 76eb 6c3d
00000070: 6262 eab3 fc25 e3bd 794c 83b6 52e9 823d
00000080: 3795 9822 1186 1cb1 8c5d 873d 7ff7 7932
00000090: 6af2 ce3d a7b8 6bbc 088e c6bd 1c80 19bd
000000a0: d26f 1935 5086 6d31 0681 643d 7417 b63b
000000b0: 57d8 cabc aedb 9c10 b28a e63d 4dc8 140e
000000c0: 1474 d53b 4dc2 c13d 9870 cd29 090a 0b34
000000d0: 8de1 4ab8 04cb a0bc 5760 903d f4c2 9d3d
000000e0: f80c 0b3c 6249 9e3d edaf 39a6 73e1 5f3e
000000f0: 1b53 7bbc 6a16 bba0 9c10 2eae a810 4f2e
00000100: ae45 af3d ddab 980d 0a06 5b1b 15f6 f4a6
00000110: 77dc e129 d35b 41bc c6f6 3a07 7da5 f92b
00000120: 8bb5 8eb7 0100 2331 1b76 82bd b38c 1793
00000130: 2eb3 1d37 780c e68a 344b 72aa 020a 71be
00000140: 4798 ee2a 63b4 c9ad a4e5 213a e40e c79a
00000150: cfe8 71be bac1 a99e f735 8f2d 9de1 2134
00000160: ecfb 162e 5c1d 8bbe b31f 2731 3604 839e
00000170: ecc3 1330 4caa e5bb 3c8a 4ebe 1151 cd3d
00000180: cce1 aaa0 7e61 1fb1 cee4 56ae ec6d 01be
00000190: cbbb b7b1 e42e 1e34 a2de 1da8 e5f9 9b9a
000001a0: 5e98 4d3c 1d99 6ca6 53a7 ef93 b77e d3bd
000001b0: bfad 81ae 5239 463e 7d78 3fb3 b17e 409c
000001c0: d437 0719 cf93 f2bc f57e 903e 92c4 a8a8
000001d0: 9ed4 ccb7 eaa5 1cbc 1d09 30bb b3ec a33e
000001e0: 8984 2a30 36fb 8539 3ed2 7d21 af40 912d
000001f0: 3a03 193e 76da 822e c3fd 572a 567b 583d
00000200: d6b0 7b11 916c 703d 5383 a5b9 511d 15bc
00000210: 94fe 59b6 1c74 05ac 9460 1e3d a45a 36bd
00000220: 2130 95bc d9f5 e199 f7d3 651b 165c 403d
00000230: 9748 2524 e929 2837 9308 160e 28ce 90ae
00000240: e1f9 8bbd 952d b739 e54e 3b21 5ede e7a2
00000250: e5f1 bbaa b867 2cbe 94d6 2e2f 6a5a 35b5
00000260: 14fa 7f28 1835 6e32 bd74 22be c628 38a4
00000270: f4f3 7487 a6f8 8aaa 45fc 7198 ba41 ecbd
00000280: a09f 4ebd 035c 123d cdbf 9ebd 8cda c63c
00000290: 7e35 403d c6e9 aa3d 18ab ee3c a0b7 b1bc
000002a0: 3e44 9a3d 24d0 67bd 5006 9cbd f315 7e3d
000002b0: 68f9 17bd dd0e 1a3d 686c 9fbc bf49 84bd
000002c0: 25ef c7bc dfe2 9dbd aafc 84bd bbf6 673c
000002d0: 2974 aebd a6a3 803d ae4c 983d 307f 82bd
000002e0: af4d d4bb 119a a73d c633 bf3d f013 7c3d
000002f0: 42d0 ab3d e554 9dbd 5b2d ba3d 66b8 01bd
00000300: c073 aa3d f594 b4bd b5e7 453d 280b d03c
00000310: 0b87 153d 386a 99bd e1a6 a53d 177f 7dba
00000320: 4417 563d 578d bc3d 22d1 db3c d140 003d
00000330: 6314 0a3b 28b3 c3bc cea4 6d3d b847 ffbc
00000340: 02dc 8d3d 957c 63bd f349 5d3d 63c1 bcbd
00000350: f4d1 8a3d 31b5 25bd b1c4 9fbc 2114 853d
00000360: 911c b33d 3647 debc ae19 75bd 72dd d6bc
00000370: 9c93 5f3d 592a 9a3d 06db 8bbd b3c4 453d
00000380: be77 e2bc d49c a93d beca b1bc c9df 9bbd
00000390: 3e74 8a3d 59d8 e6bc 705e a8bd 1ca4 74bd
000003a0: 20e7 a53c 0619 a9bd f94e 22bd 1345 a53c
000003b0: 8e74 823d 1c77 46bd c0ba a1bc 317d f13c
000003c0: dbf4 b93d cdfa 933d 70e5 5b3d c9cc c03c
000003d0: f8f2 433d 1a80 4abd fa00 60bd e281 52bd
000003e0: 09fe bebd e8c0 62bd 0b36 6f3d e915 5b3d
000003f0: b9e6 3a3d d9d7 733d 5341 9bbd 530a 993d

tcn.network.0.conv2.bias f4 [32]
0.59913903 0.89554536 0.53399545 -0.21609479 0.47902453 0.3289137 0.1595153 -0.08103273
-0.29491267 -0.5344381 -0.0037741142 -0.06080876 -0.08922817 -0.27139637 -0.16856404 -0.18926367
-0.16761625 -0.0043434897 -0.031160435 0.1555952 0.1755762 0.949238 0.58542037 1.0816997
1.1355458 1.3094827 1.8821062 1.4801841 -0.03882222 0.4509915 1.5293036 1.6236235
00000000: 2d61 193f 7642 653f edb3 083f f447 5dbe
00000010: b442 f53e 6067 a83e fb57 233e 7df4 a5bd
00000020: cbfe 96be efd0 08bf 2157 77bb 9b12 79bd
00000030: 42bd b6bd 77f4 8abe 0d9c 2cbe 56ce 41be
00000040: 98a3 2bbe d553 8ebb 2b44 ffbc 5954 1f3e
00000050: 3fca 333e 4301 733f 1cde 153f 2375 8a3f
00000060: 9159 913f 219d a73f dbe8 f03f ac76 bd3f
00000070: 0c04 1fbd 5ce8 e63e 38c0 c33f e5d2 cf3f

tcn.network.0.conv2.parametrizations.weight.original0 f4 [32, 1, 1]
1.7795717 1.3389114 1.7387334 0.53733945 2.5648267 2.136427 1.7006515 0.45388877
0.43822783 0.37135383 0.41353998 0.56264096 0.4295419 0.5668581 0.4558746 0.51330435
0.49039483 0.4359631 0.52200675 0.54385203 0.3006356 0.49748605 0.3836098 0.3919571
0.31778902 0.465663 1.1640221 0.45970228 1.222856 1.7676334 0.5454316 0.61241436
00000000: 01c9 e33f 7361 ab3f d18e de3f 148f 093f
00000010: 1f26 2440 38bb 0840 f3ae d93f 1c64 e83e
00000020: 665f e03e 1722 be3e 83bb d33e 3d09 103f
00000030: eaec db3e 9d1d 113f 6568 e93e ea67 033f
00000040: 0815 fb3e 8e36 df3e 3ca2 053f e339 0b3f
00000050: e9ec 993e 7eb6 fe3e 8168 c43e 9aae c83e
00000060: 3eb5 a23e 616b ee3e adfe 943f 195e eb3e
00000070: 8c86 9c3f d041 e23f 68a1 0b3f 30c7 1c3f

tcn.network.0.conv2.parametrizations.weight.original1 f4 [32, 32, 5]
0.0030510414 3.7723714e-17 -2.0433657e-21 0.010518343 -0.017112993 2.3598801e-13 -4.566702e-15 -6.338191e-16
0.000256799 2.2400081e-26 -0.009141357 0.020982273 3.9532697e-05 -0.0005223898 1.819012e-23 -1.5252841e-05
-1.1031849e-14 -2.608977e-27 -1.9791719e-23 -1.4744674e-16 0.08380905 7.6423014e-30 5.8334915e-24 7.647847e-27
-8.050423e-15 -8.1490886e-21 -9.1327e-13 0.0010712253 -0.08239499 -3.2001442e-16 -4.3730874e-27 -0.06341128
-2.4286002e-18 -3.8627403e-14 6.6526466e-20 -3.4688467e-23 -1.0047021e-13 0.048881803 -1.0763894e-25 -3.81825e-11
-1.443397e-20 7.412152e-07 3.0816025e-06 4.296393e-24 -0.15675281 9.846799e-23 5.832619e-11 -0.07498724
-7.017435e-10 -3.3027402e-07 -0.059986375 5.080538e-15 -4.2291948e-10 -6.0050314e-20 -0.111766264 -6.9259215e-07
1.6211588e-15 -3.2672536e-16 -2.898205e-14 9.1576974e-14 -5.100152e-18 -8.050906e-26 2.6968626e-08 -2.3264332e-14
0.21405093 -1.3170884e-09 0.082176276 3.7699084e-13 8.794091e-27 0.18089661 1.3288773e-05 5.2650915e-30
-1.1125157e-07 -0.00022755 2.303238e-14 -6.0938816e-15 2.7590872e-12 -6.7824836e-11 -5.430606e-32 -3.0618425e-17
2.6903255e-14 -5.128761e-08 -3.1690213e-08 1.5041061e-20 -1.5291019e-12 0.019193374 -0.08500584 1.8938567e-25
4.363866e-14 0.21334343 -0.0008437194 5.5894528e-27 -6.5852457e-09 1.6652286e-19 -0.12740013 -1.1221488e-20
-3.0775763e-15 -6.2305295e-23 -1.0953453e-06 0.48986378 -1.2105461e-05 5.472242e-10 1.0853204e-19 -2.7500002e-25
-1.2035457e-19 -0.0056484276 -7.3932695e-15 9.046542e-36 -1.0198139e-24 -3.5475825e-22 6.430168e-15 4.405662e-28
3.050555e-31 -5.7966373e-18 -0.018380538 -1.0709936e-25 6.648998e-09 -1.6814237e-25 0.08731873 -0.041640595
1.5663839e-16 2.8100287e-06 -1.2615809e-05 0.0005914957 0.05316915 -2.3271446e-14 6.6975536e-18 -2.878049e-12
1.8260737e-26 0.08713313 -0.007402051 5.9413702e-05 1.00959266e-16 4.522243e-23 -9.706929e-16 -0.010901504
-1.4251326e-23 1.5136411e-09 9.57249e-19 0.2737011 -8.298421e-05 0.056731302 -1.2553616e-28 -3.493286e-13
1.2310437e-20 -0.075500466 0.0023491674 2.4730083e-22 -2.8025363e-23 -0.028844673 -2.3890205e-17 -7.836366e-30
-4.1613785e-28 3.4791225e-05 -2.0682892e-16 -3.705956e-14 -1.457362e-16 -1.6055514e-10 -3.3040402e-16 0.16726515
5.1322826e-28 -1.3935397e-11 0.07529883 1.6238659e-09 -0.12916243 -1.2374325e-25 -1.3007736e-12 2.740759e-27
-4.4428614e-32 -0.030232493 2.2254555e-24 2.1447911e-29 -1.6756884e-31 -3.9793315e-29 2.4107052e-21 8.063257e-27
8.256229e-25 0.00022088407 -2.5152328e-26 2.8564857e-37 -7.665578e-12 -1.3201436e-14 1.2046023e-30 -8.114376e-13
-2.625699e-36 -8.544881e-05 -7.2964645e-32 4.5916703e-23 9.505053e-32 -3.0091013e-15 -2.0260814e-27 -1.3920671e-30
-4.660643e-10 7.63272e-12 -8.428766e-24 1.0259176e-05 4.708176e-28 1.3099723e-29 -1.1048935e-10 -4.5486348e-32
3.7762194e-30 -0.042966556 1.8605585e-09 8.2832856e-23 -0.15307541 -1.13373054e-10 2.3137295e-20 2.3705124e-26
2.7604113e-31 -1.092382e-39 5.8354037e-09 -1.00331495e-28 -3.385122e-10 0.0001904661 0.11989979 -4.098e-19
-1.0334853e-25 -7.0105175e-27 2.1504238e-07 3.9424605e-05 -0.00013079873 6.0076238e-36 -0.00032555353 2.5020343e-05
0.08525263 7.6776695e-26 2.775034e-29 -1.2477126e-06 -5.9272474e-12 0.5414855 -2.0899419e-08 3.898575e-18
1.30916185e-08 7.176896e-32 6.2968554e-22 2.0985703e-28 4.270356e-35 1.0242404e-13 0.00019479959 -1.2991777e-05
2.2255488e-32 8.776245e-26 -1.661277e-13 -7.999778e-33 1.1073271e-35 -2.4005237e-30 2.740949e-14 -3.6351289e-09
8.965857e-24 0.46375874 -1.8372248e-32 -7.2378155e-33 -9.964487e-10 -0.0008228151 -0.019954473 9.702602e-31
00000000: fbf3 473b 4df8 2d24 7164 1a9d 2155 2c3c
00000010: 8c30 8cbc 75d9 842a 6488 a4a7 98af 36a6
00000020: faa2 8639 f4d6 dd14 a1c5 15bc 04e3 ab3c
00000030: e9cf 2538 fcf0 08ba 8eec af19 74e6 7fb7
00000040: 6cbb 46a8 57b4 4e93 ec69 bf99 99fe 29a5
00000050: 14a4 ab3d 1901 1b0f 1aac e118 317b 1714
00000060: 0606 11a8 93ee 199e 0588 80ab 5b68 8c3a
00000070: b4be a8bd cb79 b8a5 603c ad93 c6dd 81bd
00000080: f632 33a2 5df6 2da9 c814 9d1f 3ebe 279a
00000090: 223d e2a9 4938 483d 2440 0596 aced 27ae
000000a0: 3353 889e ecf7 4635 87cd 4e36 6a35 a618
000000b0: cf83 20be bc14 ee1a ba42 802e e992 99bd
000000c0: cfe4 40b0 8450 b1b4 46b4 75bd b10b b727
000000d0: a080 e8af 30ca 8d9f b6e5 e4bd 92ea 39b5
000000e0: 34a2 e926 2758 bca5 0786 02a9 8836 ce29
000000f0: 9329 bca2 ae54 c795 a3a8 e732 e68b d1a8
00000100: 2b30 5b3e ee04 b5b0 094c a83d 1b3a d42a
00000110: 572f 2e14 f63c 393e d8f2 5e37 d693 d50e
00000120: 33e9 eeb3 7d9a 6eb9 0d75 cf28 238e dba7
00000130: 4c27 422c fd25 95ae 91fc 8c8b db33 0da4
00000140: af52 f228 5347 5cb3 c21b 08b3 0e0f 8e1e
00000150: b433 d7ab 6c3b 9d3c 8b17 aebd b772 6a16
00000160: f387 4429 b376 5a3e 0d2d 5dba c96b dd13
00000170: 6f44 e2b1 7298 4420 2e75 02be c9f7 539e
00000180: 43c3 5da7 1ca5 969a c703 93b5 6dcf fa3e
00000190: 8f18 4bb7 7b6b 1630 cc21 0020 7e37 aa96
000001a0: f016 0ea0 7216 b9bb 702f 05a8 0f66 4005
000001b0: fece 9d97 2e70 d69b d5ab e727 fa9e 0b12
000001c0: 0afe c50c b1db d5a2 c892 96bc 2495 0496
000001d0: 3475 e431 7226 5096 2ad4 b23d 548f 2abd
000001e0: 7e97 3425 ed93 3c36 7da8 53b7 9b0e 1b3a
000001f0: e5c7 593d 4d9c d1a8 9b18 f722 5286 4aac
00000200: 78d8 b414 db72 b23d e78c f2bb fa32 7938
00000210: d5cb e824 a8ae 5a1a 3fe4 8ba6 399c 32bc
00000220: 93d4 8999 8308 d030 d843 8d21 8d22 8c3e
00000230: cf07 aeb8 155f 683d d022 1f91 8fa7 c4aa
00000240: 9f89 681e fd9f 9abd 7df4 193b f37b 951b
00000250: b885 079a aa4b ecbc 2759 dca3 bdf0 1e8f
00000260: 1de1 0392 cbec 1138 1f75 6ea5 c4e6 26a9
00000270: bc05 28a5 4188 30af 0777 bea5 8e47 2b3e
00000280: 06a6 2212 7327 75ad 4636 9a3d b42e df30
00000290: 2843 04be cd2f 1996 4f11 b7ab 3225 5913
000002a0: c2af 668b 22aa f7bc b02f 2c18 f681 d90f
000002b0: 4c84 598c adc6 4990 d225 361d 92b5 1f14
000002c0: 9684 7f17 1e9d 6739 ba18 f994 0067 c202
000002d0: b2da 06ad e1d0 6da8 3975 c30d 3e66 64ab
000002e0: a95e 5f84 fb32 b3b8 536d bd8b 200a 5e1a
000002f0: eac3 f60b 1fd4 58a7 d085 2093 34e0 e18d
00000300: 5c1c 00b0 b746 062d 3a09 2399 d31e 2c37
00000310: 4335 1512 d3d8 840f f9f7 f2ae ba2d 6c8b
00000320: 812e 990e b3fd 2fbd 95b6 ff30 0e47 c81a
00000330: cdbf 1cbe 5b4f f9ae 8c86 da1e a1c3 ea14
00000340: 3329 b30c 1ee5 0b80 c180 c831 dd5e fe90
00000350: 5b19 baaf dbb7 4739 058e f53d 3ae7 f1a0
00000360: eae0 ff95 8cdb 0a94 66e6 6634 d95b 2538
00000370: 0427 09b9 3b89 ff04 0eaf aab9 c7e2 d137
00000380: ee98 ae3d 0317 be15 00b6 0c10 1477 a7b5
00000390: e68b d0ac cb9e 0a3f 4f86 b3b2 00d5 8f22
000003a0: 8ce9 6032 a852 ba0b 8f4f 3e1c 4003 8511
000003b0: 130d 6306 70a3 e629 1e43 4c39 42f7 59b7
000003c0: 3c1d e70a 104a d915 0d0b 3baa 1e26 268a
000003d0: 9f80 6b05 edc0 428e fbe1 f628 ddcd 79b1
000003e0: c66c 2d19 c971 ed3e d0c9 be8a d452 168a
000003f0: 6cf3 88b0 30b2 57ba 9077 a3bc 086f 9d0d

tcn.network.0.net.0.bias f4 [32]
-0.04733896 -0.09854147 0.06564144 -0.09015799 -0.0853224 -0.03357247 0.004883356 -0.010545139
-0.5752507 0.00049586943 -1.298701 0.0038367747 1.2009574 1.3880267 -0.048431527 -0.0806815
-0.03391073 1.2906036 -0.7577066 1.4036225 -0.041035634 0.044315074 1.2917051 0.40248975
-0.10782652 -0.9318611 0.044834964 -0.49376944 0.044554673 -0.015805513 0.010383555 1.2140464
00000000: 7fe6 41bd 1cd0 c9bd 056f 863d c1a4 b8bd
00000010: 83bd aebd 4983 09bd 8f04 a03b 85c5 2cbc
00000020: a143 13bf 3cfd 013a d63b a6bf 6672 7b3b
00000030: f9b8 993f dcaa b13f 2360 46bd 583c a5bd
00000040: fae5 0abd 8032 a53f 0ff9 41bf e7a9 b33f
00000050: fb14 28bd b983 353d 9856 a53f 2313 ce3e
00000060: 27d4 dcbd 738e 6ebf dea4 373d 59cf fcbe
00000070: f67e 363d 907a 81bc c91f 2a3c df65 9b3f

tcn.network.0.net.0.parametrizations.weight.original0 f4 [32, 1, 1]
0.8192703 0.57803905 0.5829444 0.5838528 0.5578779 0.5961695 0.53368956 0.5427729
0.7400581 0.5839563 0.68527913 0.56307626 0.6783824 0.80317867 0.56067294 0.5935364
0.57072896 0.72310936 0.59138244 0.8284888 0.5925368 0.58829474 0.71253145 0.9922827
0.64482594 0.84078705 0.5736741 0.8580061 0.5529465 0.5054096 0.538236 0.66319436
00000000: b3bb 513f 5efa 133f d83b 153f 6177 153f
00000010: 16d1 0e3f 909e 183f e19f 083f 2af3 0a3f
00000020: 7374 3d3f 297e 153f 746e 2f3f c425 103f
00000030: 78aa 2d3f 1e9d 4d3f 4388 0f3f 00f2 173f
00000040: 4b1b 123f b21d 393f d764 173f d817 543f
00000050: 7eb0 173f 7c9a 163f 7668 363f 3d06 7e3f
00000060: 5013 253f d23d 573f 4edc 123f 4aa6 5b3f
00000070: e78d 0d3f 8662 013f d6c9 093f 1bc7 293f

tcn.network.0.net.0.parametrizations.weight.original1 f4 [32, 32, 5]
0.016629614 1.6446402e-05 0.0062465793 -1.8682102e-12 0.14384133 -3.42651e-11 -0.0025123977 -1.2109344e-28
7.910399e-06 0.11824252 0.0048922105 2.0818222e-23 2.4320225e-06 -2.3098691e-11 -0.08288437 -8.647801e-06
-4.8422608e-05 8.3002925e-22 0.0003859921 -0.01918594 -5.358043e-07 0.0070931464 -0.0003246157 1.4981126e-07
-0.18125977 1.8292134e-06 0.10428438 0.05784174 -1.091437e-07 -0.11091229 -3.913007e-06 0.063921586
4.135767e-18 -2.2777196e-09 0.066096395 1.4549982e-08 0.101048306 -0.014387286 -0.09695059 -0.03747569
5.715966e-07 3.4564387e-09 0.05578711 0.005556995 -0.024761362 6.186962e-29 0.11256923 1.833885e-30
0.0065140817 0.09460888 9.123361e-14 1.2949035e-07 -4.8370614e-05 -0.019628055 0.07049625 0.077032
0.008486979 0.077288404 -6.442319e-16 0.21863346 -0.015339638 -3.1693865e-19 -3.957777e-11 4.7081145e-11
0.08558212 9.409098e-31 1.8117207e-22 -1.6997602e-15 1.0030252e-13 -0.011801678 1.4065605e-34 1.7738446e-12
-1.7012257e-05 2.3719624e-09 -0.06370183 -1.912825e-27 9.399648e-06 -2.2152885e-32 -2.1520009e-13 -0.23538974
4.2382956e-13 -2.2931162e-11 0.0006175882 -8.232853e-23 -0.23623966 -1.7973694e-20 1.6281183e-11 1.5076371e-07
3.4329803e-11 -0.27170837 2.4319717e-09 -1.3871906e-20 5.375671e-10 -0.0070088264 -0.2016992 0.10025228
-2.894854e-19 -2.3192963e-09 -4.8861186e-11 -0.12639588 -5.3473506e-09 1.4731955e-07 -8.7635265e-15 -6.4510224e-23
0.012548534 -8.2086455e-16 -6.0497076e-27 -0.10326903 -5.897104e-11 0.19357803 -4.4580236e-08 -6.3691216e-22
6.990611e-24 -0.029611496 0.2822186 -1.8736996e-14 -2.4417703e-05 -0.009561041 -0.00268609 0.32016525
6.2033984e-10 0.00025554904 8.599799e-19 1.6513317e-11 0.14942637 5.950522e-11 1.9183877e-13 0.052851997
1.98549e-28 0.058697287 -0.00031569097 -0.009101228 -3.2483704e-06 -1.896489e-12 0.038666323 -0.044520035
-0.018211426 -2.3363752e-23 1.9010926e-22 0.04696282 3.5840158e-17 1.0023338e-05 1.8493056e-30 -6.5849826e-11
-0.0683477 0.0003493844 6.346248e-19 -6.2848116e-18 -3.338572e-13 -0.1683644 1.5901441e-10 -6.7559324e-07
1.4209571e-14 1.3865495e-08 -0.15864845 -3.9933176e-17 -1.8428211e-34 -2.468626e-13 -3.1275884e-24 -0.11535974
-0.0504452 0.03573228 -0.07751427 0.024274133 0.046926014 0.0834537 0.029134318 -0.021694005
0.075325474 -0.056594983 -0.076183915 0.06203265 -0.037103087 0.03761183 -0.019460872 -0.064593785
-0.024406025 -0.07709288 -0.06493504 0.014157946 -0.085182495 0.062812135 0.074365005 -0.06371915
-0.006478987 0.08183683 0.09336047 0.06154245 0.083893314 -0.07682208 0.09090682 -0.031669997
0.08322859 -0.08817474 0.048316676 0.025395945 0.03650574 -0.07490963 0.0808847 -0.0009670122
0.05226828 0.09206646 0.02683312 0.031311814 0.002106928 -0.02388914 0.058018498 -0.031162128
0.06926729 -0.055538733 0.0540256 -0.09216573 0.06778327 -0.040456 -0.01950297 0.0649798
0.08745683 -0.027133565 -0.059838943 -0.02622864 0.05458413 0.075276084 -0.06828885 0.04828329
-0.027644988 0.08281866 -0.02170312 -0.07611043 0.06760453 -0.028179334 -0.082211375 -0.05972682
0.02025181 -0.08256726 -0.039626095 0.020174539 0.06369887 -0.048453435 -0.01974237 0.029478641
0.090799056 0.07225571 0.053685606 0.02353515 0.047839135 -0.049438573 -0.05468843 -0.051393397
-0.09325797 -0.05535975 0.05840115 0.053487692 0.04563019 0.05953202 -0.07580819 0.07472672
00000000: d43a 883c 61f6 8937 1bb0 cc3b af76 03ac
00000010: 244b 133e 13b3 16ae 0aa7 24bb 1181 1991
00000020: e8b6 0437 2229 f23d d64e a03b 6c57 c919
00000030: d435 2336 a12d cbad 48bf a9bd 0616 11b7
00000040: 6119 4bb8 67dc 7a1c fc5e ca39 d52b 9dbc
00000050: 31d4 0fb5 a06d e83b 2f31 aab9 cedb 2034
00000060: 299c 39be 4b83 f535 0d93 d53d 76eb 6c3d
00000070: 6262 eab3 fc25 e3bd 794c 83b6 52e9 823d
00000080: 3795 9822 1186 1cb1 8c5d 873d 7ff7 7932
00000090: 6af2 ce3d a7b8 6bbc 088e c6bd 1c80 19bd
000000a0: d26f 1935 5086 6d31 0681 643d 7417 b63b
000000b0: 57d8 cabc aedb 9c10 b28a e63d 4dc8 140e
000000c0: 1474 d53b 4dc2 c13d 9870 cd29 090a 0b34
000000d0: 8de1 4ab8 04cb a0bc 5760 903d f4c2 9d3d
000000e0: f80c 0b3c 6249 9e3d edaf 39a6 73e1 5f3e
000000f0: 1b53 7bbc 6a16 bba0 9c10 2eae a810 4f2e
00000100: ae45 af3d ddab 980d 0a06 5b1b 15f6 f4a6
00000110: 77dc e129 d35b 41bc c6f6 3a07 7da5 f92b
00000120: 8bb5 8eb7 0100 2331 1b76 82bd b38c 1793
00000130: 2eb3 1d37 780c e68a 344b 72aa 020a 71be
00000140: 4798 ee2a 63b4 c9ad a4e5 213a e40e c79a
00000150: cfe8 71be bac1 a99e f735 8f2d 9de1 2134
00000160: ecfb 162e 5c1d 8bbe b31f 2731 3604 839e
00000170: ecc3 1330 4caa e5bb 3c8a 4ebe 1151 cd3d
00000180: cce1 aaa0 7e61 1fb1 cee4 56ae ec6d 01be
00000190: cbbb b7b1 e42e 1e34 a2de 1da8 e5f9 9b9a
000001a0: 5e98 4d3c 1d99 6ca6 53a7 ef93 b77e d3bd
000001b0: bfad 81ae 5239 463e 7d78 3fb3 b17e 409c
000001c0: d437 0719 cf93 f2bc f57e 903e 92c4 a8a8
000001d0: 9ed4 ccb7 eaa5 1cbc 1d09 30bb b3ec a33e
000001e0: 8984 2a30 36fb 8539 3ed2 7d21 af40 912d
000001f0: 3a03 193e 76da 822e c3fd 572a 567b 583d
00000200: d6b0 7b11 916c 703d 5383 a5b9 511d 15bc
00000210: 94fe 59b6 1c74 05ac 9460 1e3d a45a 36bd
00000220: 2130 95bc d9f5 e199 f7d3 651b 165c 403d
00000230: 9748 2524 e929 2837 9308 160e 28ce 90ae
00000240: e1f9 8bbd 952d b739 e54e 3b21 5ede e7a2
00000250: e5f1 bbaa b867 2cbe 94d6 2e2f 6a5a 35b5
00000260: 14fa 7f28 1835 6e32 bd74 22be c628 38a4
00000270: f4f3 7487 a6f8 8aaa 45fc 7198 ba41 ecbd
00000280: a09f 4ebd 035c 123d cdbf 9ebd 8cda c63c
00000290: 7e35 403d c6e9 aa3d 18ab ee3c a0b7 b1bc
000002a0: 3e44 9a3d 24d0 67bd 5006 9cbd f315 7e3d
000002b0: 68f9 17bd dd0e 1a3d 686c 9fbc bf49 84bd
000002c0: 25ef c7bc dfe2 9dbd aafc 84bd bbf6 673c
000002d0: 2974 aebd a6a3 803d ae4c 983d 307f 82bd
000002e0: af4d d4bb 119a a73d c633 bf3d f013 7c3d
000002f0: 42d0 ab3d e554 9dbd 5b2d ba3d 66b8 01bd
00000300: c073 aa3d f594 b4bd b5e7 453d 280b d03c
00000310: 0b87 153d 386a 99bd e1a6 a53d 177f 7dba
00000320: 4417 563d 578d bc3d 22d1 db3c d140 003d
00000330: 6314 0a3b 28b3 c3bc cea4 6d3d b847 ffbc
00000340: 02dc 8d3d 957c 63bd f349 5d3d 63c1 bcbd
00000350: f4d1 8a3d 31b5 25bd b1c4 9fbc 2114 853d
00000360: 911c b33d 3647 debc ae19 75bd 72dd d6bc
00000370: 9c93 5f3d 592a 9a3d 06db 8bbd b3c4 453d
00000380: be77 e2bc d49c a93d beca b1bc c9df 9bbd
00000390: 3e74 8a3d 59d8 e6bc 705e a8bd 1ca4 74bd
000003a0: 20e7 a53c 0619 a9bd f94e 22bd 1345 a53c
000003b0: 8e74 823d 1c77 46bd c0ba a1bc 317d f13c
000003c0: dbf4 b93d cdfa 933d 70e5 5b3d c9cc c03c
000003d0: f8f2 433d 1a80 4abd fa00 60bd e281 52bd
000003e0: 09fe bebd e8c0 62bd 0b36 6f3d e915 5b3d
000003f0: b9e6 3a3d d9d7 733d 5341 9bbd 530a 993d

tcn.network.0.net.4.bias f4 [32]
0.59913903 0.89554536 0.53399545 -0.21609479 0.47902453 0.3289137 0.1595153 -0.08103273
-0.29491267 -0.5344381 -0.0037741142 -0.06080876 -0.08922817 -0.27139637 -0.16856404 -0.18926367
-0.16761625 -0.0043434897 -0.031160435 0.1555952 0.1755762 0.949238 0.58542037 1.0816997
1.1355458 1.3094827 1.8821062 1.4801841 -0.03882222 0.4509915 1.5293036 1.6236235
00000000: 2d61 193f 7642 653f edb3 083f f447 5dbe
00000010: b442 f53e 6067 a83e fb57 233e 7df4 a5bd
00000020: cbfe 96be efd0 08bf 2157 77bb 9b12 79bd
00000030: 42bd b6bd 77f4 8abe 0d9c 2cbe 56ce 41be
00000040: 98a3 2bbe d553 8ebb 2b44 ffbc 5954 1f3e
00000050: 3fca 333e 4301 733f 1cde 153f 2375 8a3f
00000060: 9159 913f 219d a73f dbe8 f03f ac76 bd3f
00000070: 0c04 1fbd 5ce8 e63e 38c0 c33f e5d2 cf3f

tcn.network.0.net.4.parametrizations.weight.original0 f4 [32, 1, 1]
1.7795717 1.3389114 1.7387334 0.53733945 2.5648267 2.136427 1.7006515 0.45388877
0.43822783 0.37135383 0.41353998 0.56264096 0.4295419 0.5668581 0.4558746 0.51330435
0.49039483 0.4359631 0.52200675 0.54385203 0.3006356 0.49748605 0.3836098 0.3919571
0.31778902 0.465663 1.1640221 0.45970228 1.222856 1.7676334 0.5454316 0.61241436
00000000: 01c9 e33f 7361 ab3f d18e de3f 148f 093f
00000010: 1f26 2440 38bb 0840 f3ae d93f 1c64 e83e
00000020: 665f e03e 1722 be3e 83bb d33e 3d09 103f
00000030: eaec db3e 9d1d 113f 6568 e93e ea67 033f
00000040: 0815 fb3e 8e36 df3e 3ca2 053f e339 0b3f
00000050: e9ec 993e 7eb6 fe3e 8168 c43e 9aae c83e
00000060: 3eb5 a23e 616b ee3e adfe 943f 195e eb3e
00000070: 8c86 9c3f d041 e23f 68a1 0b3f 30c7 1c3f

tcn.network.0.net.4.parametrizations.weight.original1 f4 [32, 32, 5]
0.0030510414 3.7723714e-17 -2.0433657e-21 0.010518343 -0.017112993 2.3598801e-13 -4.566702e-15 -6.338191e-16
0.000256799 2.2400081e-26 -0.009141357 0.020982273 3.9532697e-05 -0.0005223898 1.819012e-23 -1.5252841e-05
-1.1031849e-14 -2.608977e-27 -1.9791719e-23 -1.4744674e-16 0.08380905 7.6423014e-30 5.8334915e-24 7.647847e-27
-8.050423e-15 -8.1490886e-21 -9.1327e-13 0.0010712253 -0.08239499 -3.2001442e-16 -4.3730874e-27 -0.06341128
-2.4286002e-18 -3.8627403e-14 6.6526466e-20 -3.4688467e-23 -1.0047021e-13 0.048881803 -1.0763894e-25 -3.81825e-11
-1.443397e-20 7.412152e-07 3.0816025e-06 4.296393e-24 -0.15675281 9.846799e-23 5.832619e-11 -0.07498724
-7.017435e-10 -3.3027402e-07 -0.059986375 5.080538e-15 -4.2291948e-10 -6.0050314e-20 -0.111766264 -6.9259215e-07
1.6211588e-15 -3.2672536e-16 -2.898205e-14 9.1576974e-14 -5.100152e-18 -8.050906e-26 2.6968626e-08 -2.3264332e-14
0.21405093 -1.3170884e-09 0.082176276 3.7699084e-13 8.794091e-27 0.18089661 1.3288773e-05 5.2650915e-30
-1.1125157e-07 -0.00022755 2.303238e-14 -6.0938816e-15 2.7590872e-12 -6.7824836e-11 -5.430606e-32 -3.0618425e-17
2.6903255e-14 -5.128761e-08 -3.1690213e-08 1.5041061e-20 -1.5291019e-12 0.019193374 -0.08500584 1.8938567e-25
4.363866e-14 0.21334343 -0.0008437194 5.5894528e-27 -6.5852457e-09 1.6652286e-19 -0.12740013 -1.1221488e-20
-3.0775763e-15 -6.2305295e-23 -1.0953453e-06 0.48986378 -1.2105461e-05 5.472242e-10 1.0853204e-19 -2.7500002e-25
-1.2035457e-19 -0.0056484276 -7.3932695e-15 9.046542e-36 -1.0198139e-24 -3.5475825e-22 6.430168e-15 4.405662e-28
3.050555e-31 -5.7966373e-18 -0.018380538 -1.0709936e-25 6.648998e-09 -1.6814237e-25 0.08731873 -0.041640595
1.5663839e-16 2.8100287e-06 -1.2615809e-05 0.0005914957 0.05316915 -2.3271446e-14 6.6975536e-18 -2.878049e-12
1.8260737e-26 0.08713313 -0.007402051 5.9413702e-05 1.00959266e-16 4.522243e-23 -9.706929e-16 -0.010901504
-1.4251326e-23 1.5136411e-09 9.57249e-19 0.2737011 -8.298421e-05 0.056731302 -1.2553616e-28 -3.493286e-13
1.2310437e-20 -0.075500466 0.0023491674 2.4730083e-22 -2.8025363e-23 -0.028844673 -2.3890205e-17 -7.836366e-30
-4.1613785e-28 3.4791225e-05 -2.0682892e-16 -3.705956e-14 -1.457362e-16 -1.6055514e-10 -3.3040402e-16 0.16726515
5.1322826e-28 -1.3935397e-11 0.07529883 1.6238659e-09 -0.12916243 -1.2374325e-25 -1.3007736e-12 2.740759e-27
-4.4428614e-32 -0.030232493 2.2254555e-24 2.1447911e-29 -1.6756884e-31 -3.9793315e-29 2.4107052e-21 8.063257e-27
8.256229e-25 0.00022088407 -2.5152328e-26 2.8564857e-37 -7.665578e-12 -1.3201436e-14 1.2046023e-30 -8.114376e-13
-2.625699e-36 -8.544881e-05 -7.2964645e-32 4.5916703e-23 9.505053e-32 -3.0091013e-15 -2.0260814e-27 -1.3920671e-30
-4.660643e-10 7.63272e-12 -8.428766e-24 1.0259176e-05 4.708176e-28 1.3099723e-29 -1.1048935e-10 -4.5486348e-32
3.7762194e-30 -0.042966556 1.8605585e-09 8.2832856e-23 -0.15307541 -1.13373054e-10 2.3137295e-20 2.3705124e-26
2.7604113e-31 -1.092382e-39 5.8354037e-09 -1.00331495e-28 -3.385122e-10 0.0001904661 0.11989979 -4.098e-19
-1.0334853e-25 -7.0105175e-27 2.1504238e-07 3.9424605e-05 -0.00013079873 6.0076238e-36 -0.00032555353 2.5020343e-05
0.08525263 7.6776695e-26 2.775034e-29 -1.2477126e-06 -5.9272474e-12 0.5414855 -2.0899419e-08 3.898575e-18
1.30916185e-08 7.176896e-32 6.2968554e-22 2.0985703e-28 4.270356e-35 1.0242404e-13 0.00019479959 -1.2991777e-05
2.2255488e-32 8.776245e-26 -1.661277e-13 -7.999778e-33 1.1073271e-35 -2.4005237e-30 2.740949e-14 -3.6351289e-09
8.965857e-24 0.46375874 -1.8372248e-32 -7.2378155e-33 -9.964487e-10 -0.0008228151 -0.019954473 9.702602e-31
00000000: fbf3 473b 4df8 2d24 7164 1a9d 2155 2c3c
00000010: 8c30 8cbc 75d9 842a 6488 a4a7 98af 36a6
00000020: faa2 8639 f4d6 dd14 a1c5 15bc 04e3 ab3c
00000030: e9cf 2538 fcf0 08ba 8eec af19 74e6 7fb7
00000040: 6cbb 46a8 57b4 4e93 ec69 bf99 99fe 29a5
00000050: 14a4 ab3d 1901 1b0f 1aac e118 317b 1714
00000060: 0606 11a8 93ee 199e 0588 80ab 5b68 8c3a
00000070: b4be a8bd cb79 b8a5 603c ad93 c6dd 81bd
00000080: f632 33a2 5df6 2da9 c814 9d1f 3ebe 279a
00000090: 223d e2a9 4938 483d 2440 0596 aced 27ae
000000a0: 3353 889e ecf7 4635 87cd 4e36 6a35 a618
000000b0: cf83 20be bc14 ee1a ba42 802e e992 99bd
000000c0: cfe4 40b0 8450 b1b4 46b4 75bd b10b b727
000000d0: a080 e8af 30ca 8d9f b6e5 e4bd 92ea 39b5
000000e0: 34a2 e926 2758 bca5 0786 02a9 8836 ce29
000000f0: 9329 bca2 ae54 c795 a3a8 e732 e68b d1a8
00000100: 2b30 5b3e ee04 b5b0 094c a83d 1b3a d42a
00000110: 572f 2e14 f63c 393e d8f2 5e37 d693 d50e
00000120: 33e9 eeb3 7d9a 6eb9 0d75 cf28 238e dba7
00000130: 4c27 422c fd25 95ae 91fc 8c8b db33 0da4
00000140: af52 f228 5347 5cb3 c21b 08b3 0e0f 8e1e
00000150: b433 d7ab 6c3b 9d3c 8b17 aebd b772 6a16
00000160: f387 4429 b376 5a3e 0d2d 5dba c96b dd13
00000170: 6f44 e2b1 7298 4420 2e75 02be c9f7 539e
00000180: 43c3 5da7 1ca5 969a c703 93b5 6dcf fa3e
00000190: 8f18 4bb7 7b6b 1630 cc21 0020 7e37 aa96
000001a0: f016 0ea0 7216 b9bb 702f 05a8 0f66 4005
000001b0: fece 9d97 2e70 d69b d5ab e727 fa9e 0b12
000001c0: 0afe c50c b1db d5a2 c892 96bc 2495 0496
000001d0: 3475 e431 7226 5096 2ad4 b23d 548f 2abd
000001e0: 7e97 3425 ed93 3c36 7da8 53b7 9b0e 1b3a
000001f0: e5c7 593d 4d9c d1a8 9b18 f722 5286 4aac
00000200: 78d8 b414 db72 b23d e78c f2bb fa32 7938
00000210: d5cb e824 a8ae 5a1a 3fe4 8ba6 399c 32bc
00000220: 93d4 8999 8308 d030 d843 8d21 8d22 8c3e
00000230: cf07 aeb8 155f 683d d022 1f91 8fa7 c4aa
00000240: 9f89 681e fd9f 9abd 7df4 193b f37b 951b
00000250: b885 079a aa4b ecbc 2759 dca3 bdf0 1e8f
00000260: 1de1 0392 cbec 1138 1f75 6ea5 c4e6 26a9
00000270: bc05 28a5 4188 30af 0777 bea5 8e47 2b3e
00000280: 06a6 2212 7327 75ad 4636 9a3d b42e df30
00000290: 2843 04be cd2f 1996 4f11 b7ab 3225 5913
000002a0: c2af 668b 22aa f7bc b02f 2c18 f681 d90f
000002b0: 4c84 598c adc6 4990 d225 361d 92b5 1f14
000002c0: 9684 7f17 1e9d 6739 ba18 f994 0067 c202
000002d0: b2da 06ad e1d0 6da8 3975 c30d 3e66 64ab
000002e0: a95e 5f84 fb32 b3b8 536d bd8b 200a 5e1a
000002f0: eac3 f60b 1fd4 58a7 d085 2093 34e0 e18d
00000300: 5c1c 00b0 b746 062d 3a09 2399 d31e 2c37
00000310: 4335 1512 d3d8 840f f9f7 f2ae ba2d 6c8b
00000320: 812e 990e b3fd 2fbd 95b6 ff30 0e47 c81a
00000330: cdbf 1cbe 5b4f f9ae 8c86 da1e a1c3 ea14
00000340: 3329 b30c 1ee5 0b80 c180 c831 dd5e fe90
00000350: 5b19 baaf dbb7 4739 058e f53d 3ae7 f1a0
00000360: eae0 ff95 8cdb 0a94 66e6 6634 d95b 2538
00000370: 0427 09b9 3b89 ff04 0eaf aab9 c7e2 d137
00000380: ee98 ae3d 0317 be15 00b6 0c10 1477 a7b5
00000390: e68b d0ac cb9e 0a3f 4f86 b3b2 00d5 8f22
000003a0: 8ce9 6032 a852 ba0b 8f4f 3e1c 4003 8511
000003b0: 130d 6306 70a3 e629 1e43 4c39 42f7 59b7
000003c0: 3c1d e70a 104a d915 0d0b 3baa 1e26 268a
000003d0: 9f80 6b05 edc0 428e fbe1 f628 ddcd 79b1
000003e0: c66c 2d19 c971 ed3e d0c9 be8a d452 168a
000003f0: 6cf3 88b0 30b2 57ba 9077 a3bc 086f 9d0d

tcn.network.1.conv1.bias f4 [16]
1.4003836 1.2561352 0.9052699 0.44019753 -0.12373191 0.5166735 -0.05752101 -0.29556313
0.17206359 0.018342879 -0.21977535 0.048068687 0.00720943 1.5355473 1.7548183 -0.0067677116
00000000: c53f b33f 0ac9 a03f c5bf 673f 9261 e13e
00000010: 2867 fdbd b744 043f 279b 6bbd 0d54 97be
00000020: 7031 303e ce43 963c ca0c 61be ace3 443d
00000030: 153d ec3b d08c c43f e39d e03f aec3 ddbb

tcn.network.1.conv1.parametrizations.weight.original0 f4 [16, 1, 1]
0.4780914 0.67221063 0.60427207 0.718021 0.52177536 0.7409704 0.54498935 1.122933
0.46355444 0.5868098 0.7025397 0.55972135 0.53577167 0.46773604 0.52731454 0.5529906
00000000: 65c8 f43e ff15 2c3f 93b1 1a3f 39d0 373f
00000010: 1293 053f 3cb0 3d3f 6c84 0b3f 45bc 8f3f
00000020: 0257 ed3e 2b39 163f a4d9 333f e649 0f3f
00000030: 5528 093f 197b ef3e 16fe 063f cb90 0d3f

tcn.network.1.conv1.parametrizations.weight.original1 f4 [16, 32, 5]
-4.6e-44 0.027681125 -0.15067367 -0.042336825 -0.02193429 1.8602766e-08 2.1990516e-37 -6.339924e-12
0.09115455 -0.05521907 0.059104774 -0.16704716 -1.9199515e-33 -4.096119e-05 0.00945639 1.3759018e-18
-1.4e-44 0.0016817302 -7.091746e-32 0.16427813 -1e-44 8.3389875e-12 0.17686088 -0.1407911
0.009554619 -0.1514586 0.068693675 -0.14808878 0.18155372 0.07593987 0.13124758 -0.06071316
1.8450222e-28 -0.15942219 -0.059904203 0.109067455 5.7942945e-10 -6.424377e-24 -9.397659e-25 -0.063569635
3.582e-42 -0.17014462 -1.7271826e-28 5.216001e-15 -0.07679177 2.4166382e-11 -6e-45 -2.2187691e-11
4.6021524e-12 -0.056778513 0.1511581 1.4088177e-27 -0.1308113 0.10964286 -0.017432036 -9.439087e-37
1e-45 -0.17134982 2.1e-44 9.376574e-05 -0.00013657795 -5.0632337e-08 -6.1563085e-20 -2.4e-44
0.2253827 -0.14450449 2.0890075e-25 0.17973953 -0.1526144 0.1678533 0.13278587 -0.15856226
0.122678675 0.13603842 0.13199651 -0.1613374 8.06293e-25 -5.728733e-10 -9.701e-42 0.06261143
4.0722487e-24 -0.067910604 -0.17709784 1.0157185e-36 -0.010740899 -3.0120465e-30 2.6722658e-38 -1.8e-44
6.3358642e-27 -0.08084674 0.14259793 0.1616903 0.11015687 0.060151916 -0.09502112 6.6091294e-10
-0.061797924 -1.8053388e-23 -0.1624094 -0.17648576 -0.050106753 0.15458137 5.0337985e-27 0.10706987
-0.10247976 4.1445527e-30 -0.0033577555 5.1766364e-37 1.3445467e-14 -0.11842694 -1.9845536e-24 -0.1333255
-4.5187917e-18 -8.255906e-12 -0.109649144 1.1e-44 4.788e-42 1.2095667e-07 -0.17704076 -0.09074211
0.16801998 2.5601005e-10 -5.2905187e-05 1.4574652e-16 0.052228753 -4.2e-44 4.12e-43 -1.4784161e-08
-1.3e-44 0.14225908 6.3745675e-17 -9.360171e-22 -0.16295806 -1.371518e-19 0.25538546 6.808661e-11
-0.14512105 -1.375537e-20 0.00975689 0.04288548 0.037315622 -0.07827565 0.12309036 0.057099517
0.0896711 -8e-44 -0.12853819 -0.18310913 -1.7427154e-14 0.014120935 0.17587733 -0.13183296
1.8535679e-37 -0.17272155 -0.19227079 2.037e-42 1.1187556e-31 0.06285074 -0.13542426 0.5675381
2.6304184e-05 0.10145825 9.149854e-06 0.13286437 -0.15389405 0.03886296 -0.09591672 -0.15111837
0.17355654 -0.09784349 -0.21187966 0.20132685 0.13829847 0.06701615 0.1417147 -0.0006344467
-0.12808508 0.12717904 -0.0005726464 0.02158955 0.15375558 -0.20998713 -0.18194811 -0.12286786
0.2171402 0.10539251 -0.18072008 0.12763558 -0.14929123 0.04600153 -0.20837584 -0.021948723
0.13945283 -0.18218336 -0.11025688 0.1191883 -0.14399669 -0.091336325 0.0006972356 -0.01703988
-0.19634114 0.13354184 0.13858356 -0.1696717 0.08248097 0.13338724 -0.00058956887 2.8416605e-05
0.0006153143 0.09774629 0.09841688 -0.20143867 0.12113001 -0.14134982 0.038685896 0.10304375
-0.0772552 0.10516057 0.09733443 -0.011561309 -0.1628167 -0.093861096 0.13033865 0.16578025
-0.11238555 -0.08099413 0.15185753 0.050496437 0.13953409 -0.2137349 -0.14177498 -0.00061925413
-0.024894701 0.15706739 -0.1676722 0.12261558 0.11505044 -0.11126237 0.11579548 -0.12266757
5.7794907e-05 0.0005154173 -0.00048873655 0.10455017 -0.041924153 0.10285913 0.048236158 -0.009244094
-0.11646146 0.037102845 0.14585978 -0.09711293 1.974001e-05 0.083959535 0.10463772 -0.16071232
00000000: 2100 0080 87c3 e23c 334a 1abe 6169 2dbd
00000010: 8aaf b3bc eacb 9f32 e2a8 9502 f510 dfac
00000020: 3daf ba3d 642d 62bd d917 723d 690e 2bbe
00000030: da80 1f89 becd 2bb8 f9ee 1a3c 1a0c cb21
00000040: 0a00 0080 806d dc3a bd1c b88b 8738 283e
00000050: 0700 0080 76b3 122d 051b 353e 8b2b 10be
00000060: fa8a 1c3c f717 1bbe 45af 8c3d 96a4 17be
00000070: 38e9 393e 5d86 9b3d c465 063e 5dae 78bd
00000080: 65e2 6911 923f 23be 1c5e 75bd c25e df3d
00000090: b945 1f30 f387 f898 f66b 9197 cc30 82bd
000000a0: fc09 0000 643a 2ebe 48f2 5a91 1eed bb27
000000b0: 0145 9dbd db91 d42d 0400 0080 3d2a c3ad
000000c0: 81ec a12c 9690 68bd 30c9 1a3e 6f3c df12
000000d0: 66f3 05be 708c e03d a1cd 8ebc 0699 a083
000000e0: 0100 0000 5476 2fbe 0f00 0000 19a4 c438
000000f0: 5d36 0fb9 d876 59b3 9a5c 919f 1100 0080
00000100: b9ca 663e fcf8 13be a54d 8116 a40d 383e
00000110: f346 1cbe bce1 2b3e 05f9 073e 255e 22be
00000120: f53e fb3d a84d 0b3e 182a 073e a235 25be
00000130: 1d89 7917 6078 1db0 0b1b 0080 6c3a 803d
00000140: 9989 9d18 b714 8bbd 2359 35be c8d0 ac03
00000150: 98fa 2fbc c25d 748e f37d 1101 0d00 0080
00000160: 4cfd fa13 fa92 a5bd 3105 123e 2492 253e
00000170: ed99 e13d db61 763d 6f9a c2bd 9dab 3530
00000180: d21f 7dbd 069a ae99 a64e 26be afb8 34be
00000190: bd3c 4dbd 944a 1e3e c868 c713 7347 db3d
000001a0: e9e0 d1bd 7f1f a80e ca0d 5cbb dd26 3003
000001b0: 4636 7228 d389 f2bd 228c 1998 7b86 08be
000001c0: c8b6 a6a2 4c3d 11ad bb8f e0bd 0800 0000
000001d0: 590d 0000 51e0 0134 2c4a 35be 00d7 b9bd
000001e0: 6e0d 2c3e 36be 8c2f 83e6 5db8 c808 2825
000001f0: d1ed 553d 1e00 0080 2601 0000 6dfd 7db2
00000200: 0900 0080 5dac 113e cefc 9224 6872 8d9c
00000210: 7ade 26be 97eb 21a0 e2c1 823e 5bb9 952e
00000220: 9d9a 14be 72ea 819e 5ddb 1f3c afa8 2f3d
00000230: 44d8 183d fc4e a0bd cc16 fc3d 2fe1 693d
00000240: 7ba5 b73d 3900 0080 849f 03be f680 3bbe
00000250: 48f8 9ca8 7f5b 673c 3019 343e 38ff 06be
00000260: 6a4b 7c02 ebdd 30be a2e2 44be ae05 0000
00000270: 0839 110c e4b7 803d a8ac 0abe 2d4a 113f
00000280: cea7 dc37 58c9 cf3d 5382 1937 990d 083e
00000290: 6796 1dbe c42e 1f3d fc6f c4bd c6be 1abe
000002a0: ceb8 313e 2b62 c8bd fbf6 58be a028 4e3e
000002b0: 1d9e 0d3e c33f 893d a91d 113e ff50 26ba
000002c0: bc28 03be 393b 023e a61d 16ba 91dc b03c
000002d0: 1a72 1d3e de06 57be 9b50 3abe 25a2 fbbd
000002e0: 005a 5e3e 07d8 d73d af0e 39be e7b2 023e
000002f0: cddf 18be 1a6c 3c3d 7a60 55be cfcd b3bc
00000300: b9cc 0e3e 468e 3abe 5cce e1bd ff18 f43d
00000310: de73 13be 8a0e bbbd b0c6 363a 3897 8bbc
00000320: a70d 49be 31bf 083e d9e8 0d3e 6bbe 2dbe
00000330: c8eb a83d aa96 083e 4c8d 1aba 3260 ee37
00000340: 0b4d 213a 352f c83d ca8e c93d f045 4ebe
00000350: 0313 f83d 02be 10be 1a75 1e3d 9a08 d33d
00000360: f937 9ebd 6d5e d73d 4657 c73d a56b 3dbc
00000370: 6cb9 26be 3f3a c0bd 7f77 053e 4cc2 293e
00000380: 652a e6bd 40e0 a5bd 8a80 1b3e 5ad5 4e3d
00000390: 06e2 0e3e 52dd 5abe 762d 11be 7155 22ba
000003a0: f9ef cbbc 46d6 203e 43b2 2bbe e11d fb3d
000003b0: 919f eb3d 87dd e3bd 2e26 ed3d 2339 fbbd
000003c0: cf68 7238 121d 073a 8e1e 00ba 661e d63d
000003d0: a9b8 2bbd cfa7 d23d 4793 453d 8a74 17bc
000003e0: 5983 eebd 27f9 173d 445c 153e 25e3 c6bd
000003f0: 5997 a537 faf2 ab3d 4d4c d63d c591 24be

tcn.network.1.conv2.bias f4 [16]
-0.104923114 0.004423063 -0.09449578 1.5604833 0.5652649 1.3487269 0.77004766 -0.0953499
0.00788235 -0.1374862 0.0691027 0.0027162412 0.002062877 -0.09069969 1.6891651 -0.04764426
00000000: eee1 d6bd 57ef 903b 0187 c1bd ebbd c73f
00000010: 33b5 103f 15a3 ac3f d821 453f cf46 c3bd
00000020: f924 013c 2fc9 0cbe b785 8d3d f702 323b
00000030: 5531 073b c2c0 b9bd 9036 d83f a126 43bd

tcn.network.1.conv2.parametrizations.weight.original0 f4 [16, 1, 1]
0.58571136 0.6024268 0.48098496 0.7728709 0.6524083 0.57645756 0.5404915 0.5428071
0.5984445 0.58036983 0.5490043 0.5545172 0.54742724 0.5662828 0.81917185 0.5881109
00000000: 2ef1 153f a538 1a3f a943 f63e deda 453f
00000010: 3b04 273f b992 133f a75d 0a3f 68f5 0a3f
00000020: a933 193f 1e93 143f 8c8b 0c3f d7f4 0d3f
00000030: 3124 0c3f e9f7 103f 3fb5 513f 708e 163f

tcn.network.1.conv2.parametrizations.weight.original1 f4 [16, 16, 5]
-0.11823697 0.119070046 0.0689506 -0.014042201 -0.04300135 -0.045668487 -0.08255604 -0.115533635
-0.07065127 0.07005827 0.018804353 0.086725876 0.09938409 -0.084301785 0.00971427 0.086253814
0.01699484 0.115370646 -0.07281302 0.04014431 0.088931665 -0.040308446 -0.11897875 0.0112920655
0.02294086 0.02983823 0.105821155 -0.09891505 -0.062943205 -0.06558197 0.041484788 -0.021245115
-0.051720604 -0.04903567 -0.0989924 -0.10610851 0.0785017 0.079184115 -0.071070515 -0.0049488624
0.07730155 -0.04985344 0.10816345 -0.11830853 0.115864396 -0.016637838 0.08625732 -0.038368907
-0.035491858 0.09372383 0.10719106 -0.059602916 0.09720744 -0.05831972 0.019322 0.093302056
0.11792256 -0.058304247 -0.12068382 -0.048342388 -0.11057953 -0.090702 -0.04414629 -0.06891774
-0.07411408 0.05584614 0.09839959 0.047713295 -0.037477374 0.017406724 0.043173905 -0.060060386
0.056857623 -0.012326671 -0.05744024 -0.039571784 -0.12257705 -0.061974663 -0.08767487 -0.11134219
0.057836216 0.046243265 0.1249382 -0.06471436 -0.072120555 -0.092013404 0.09314228 0.050622698
0.066332504 0.03249268 -0.119543836 0.039390195 0.022507576 -0.11333254 0.056714557 -0.12274862
-0.1098037 -0.06293932 -0.07032674 -0.11710603 0.068446085 -0.12398951 0.031298112 0.030938772
0.09181942 0.12052095 -0.04969061 0.023440227 -0.09548942 -0.11349195 0.036296155 -0.10993339
0.11220325 0.11296626 0.1035243 -0.090140626 0.12764204 -0.13065588 0.070224114 0.016112708
0.09513466 -0.115732744 0.067791335 -0.1278649 -0.1201294 -0.031918086 0.08351591 0.06389363
-0.079416305 0.10348259 -0.115268454 -0.100302026 -0.09711524 -0.095499456 -0.06085606 -0.035118986
-0.12527654 -0.117115766 -0.07604871 0.08488571 0.04149959 -0.028202789 0.04647468 0.11890728
0.027390826 -0.13122801 0.08343262 0.027701264 0.026652012 0.08940003 -0.12859035 -0.07162663
-0.05258959 -0.05618789 0.042080753 -0.10608461 -0.07784029 0.07358625 -0.07089268 0.066785075
3.01387e-10 -2.2964303e-33 -5.3774595e-05 -0.29454318 0.07677008 0.22838713 3.3027648e-33 0.0029867922
-0.029811693 0.0032109192 -0.07173174 0.0018736818 -3.175619e-17 -0.16642064 -0.10174213 -2.7649813e-24
1.9622687e-35 -2.16e-43 1.1589152e-25 0.062326994 -5.8011793e-28 -0.18316948 0.19467245 4.485638e-29
2.240879e-38 0.20424385 -0.22887315 -1.65174e-40 4.2853525e-28 -0.07046108 0.30139336 2.601888e-39
-2.5839482e-27 -4.2334084e-34 5.3114734e-33 0.26242924 -1.1440202e-17 -3.7609622e-26 0.29549032 -0.13430813
-0.3015381 -0.28013903 -0.0012036662 -6e-43 -0.018777594 2.9240348e-21 -1.3231384e-35 1.457575e-32
-0.24312185 0.18750085 1.2631436e-11 0.2726535 1.6252297e-38 -7.979493e-32 0.31518874 2.1256424e-25
-4.865379e-24 0.02643055 0.26818517 -9.525302e-34 -4.4804387e-30 -8.0240584e-32 -2.0301218e-32 -4.2064187e-35
1.4327172e-26 3.7475027e-23 2.1117644e-06 3.4668377e-05 -1.531145e-38 0.071935385 -0.1287566 -1.2352006e-34
0.26439983 0.2613462 -0.0018201026 3.0934758e-35 -2.0098198e-12 -9.2608883e-07 1.2485961e-32 -1.51323e-32
1.2082427e-11 0.0013732245 1.6146207e-20 -2.5955145e-26 -0.013502981 -0.08789954 7.537763e-21 0.056306675
1.0539201e-30 0.18294597 9.605116e-25 -1.1216978e-14 3.327933e-26 1.3216041e-11 0.18760486 1.5364651e-19
00000000: 3926 f2bd ffda f33d f935 8d3d 4311 66bc
00000010: 2f22 30bd e10e 3bbd 2413 a9bd e69c ecbd
00000020: 9db1 90bd b67a 8f3d 960b 9a3c 569d b13d
00000030: e389 cb3d 6aa6 acbd 9a28 1f3c d7a5 b03d
00000040: c338 8b3c 7247 ec3d fe1e 95bd 5c6e 243d
00000050: ce21 b63d 781a 25bd 22ab f3bd 5b02 393c
00000060: 78ee bb3c 4e6f f43c c3b8 d83d f993 cabd
00000070: 5ee8 80bd d74f 86bd f4eb 293d 3c0a aebc
00000080: fcd8 53bd a0d9 48bd 87bc cabd 6b4f d9bd
00000090: 80c5 a03d 482b a23d 6b8d 91bd 112a a2bb
000000a0: 4650 9e3d 1f33 4cbd cd84 dd3d be4b f2bd
000000b0: 504a ed3d 134c 88bc aea7 b03d b728 1dbd
000000c0: e95f 11bd 48f2 bf3d fd86 db3d 3022 74bd
000000d0: b214 c73d a9e0 6ebd 2c49 9e3c 2615 bf3d
000000e0: 6281 f13d 6fd0 6ebd 1429 f7bd ab02 46bd
000000f0: 8577 e2bd f8c1 b9bd bdd2 34bd be24 8dbd
00000100: 1fc9 97bd ecbe 643d b985 c93d 046f 433d
00000110: e081 19bd 8c98 8e3c 1fd7 303d e101 76bd
00000120: 8ae3 683d cef5 49bc 7546 6bbd 0616 22bd
00000130: ad09 fbbd 25d9 7dbd e28e b3bd 6007 e4bd
00000140: abe5 6c3d 9469 3d3d 99df ff3d f688 84bd
00000150: f1b3 93bd 8671 bcbd 61c1 be3d bf59 4f3d
00000160: 56d9 873d 0b17 053d 66d3 f4bd 9d57 213d
00000170: cf61 b83c e41a e8bd 864d 683d a163 fbbd
00000180: c3e0 e0bd 55e6 80bd 7707 90bd 49d5 efbd
00000190: 762d 8c3d 36ee fdbd 7332 003d 4f73 fd3c
000001a0: d20b bc3d b0d3 f63d 6288 4bbd b805 c03c
000001b0: f58f c3bd 786e e8bd 47ab 143d c224 e1bd
000001c0: d1ca e53d db5a e73d 8c04 d43d a69b b8bd
000001d0: 98b4 023e a8ca 05be a9d1 8f3d ccfe 833c
000001e0: f6d5 c23d 4a05 edbd 2fd6 8a3d 04ef 02be
000001f0: 6706 f6bd 8abc 02bd 640a ab3d aada 823d
00000200: 04a5 a2bd aeee d33d de11 ecbd 266b cdbd
00000210: 5be4 c6bd 3895 c3bd 3444 79bd edd8 0fbd
00000220: 7e48 00be 64da efbd 6dbf 9bbd 8fd8 ad3d
00000230: 79fb 293d 8909 e7bc 3c5c 3e3d a985 f33d
00000240: ba62 e03c a360 06be b9de aa3d c3ed e23c
00000250: 5255 da3c 5d17 b73d 30ad 03be fcb0 92bd
00000260: 2f68 57bd 4625 66bd de5c 2c3d e342 d9bd
00000270: bb6a 9fbd 63b4 963d 2e30 91bd 9dc6 883d
00000280: 73b0 a52f acc7 3e89 088c 61b8 5dce 96be
00000290: a239 9d3d 51de 693e 0531 8909 0fbe 433b
000002a0: a737 f4bc 496e 523b 17e8 92bd 5496 f53a
000002b0: 1873 12a4 2c6a 2abe 2e5e d0bd 19ee 5598
000002c0: 09aa d005 9a00 0080 7d77 0f16 974a 7f3d
000002d0: c2d8 3792 c890 3bbe 3758 473e e972 6310
000002e0: 9702 f400 4d25 513e b95d 6abe 70cc 0180
000002f0: e9ce 0712 e64d 90bd 3b50 9a3e 0155 1c00
00000300: b2b8 4c93 dbad 0c88 46a1 dc09 205d 863e
00000310: d408 53a3 dc3b 3a95 824a 973e 1288 09be
00000320: 3463 9abe 626e 8fbe 56c4 9dba ac01 0080
00000330: 78d3 99bc 0fef 5c1d 41b3 8c85 fd5c 970a
00000340: eff4 78be 3900 403e ee36 5e2d 3d99 8b3e
00000350: cbf8 b000 d428 cf8b 6b60 a13e 2692 8316
00000360: 6138 bc98 e184 d83c 914f 893e 2744 9e88
00000370: 89bf b58e 0451 d08b e5d1 d28a cea6 5f86
00000380: b2e3 8d14 d637 351a d6b7 0d36 e368 1138
00000390: 18ba a680 dc52 933d c5d8 03be b32f 2487
000003a0: 6a5f 873e 2bcf 853e 8290 eeba 367a 2406
000003b0: b26d 0dac 5798 78b5 61a9 810a 8e24 9d8a
000003c0: 6a8e 542d c5fd b33a 227f 981e 0e86 0095
000003d0: 9b3b 5dbc ad04 b4bd 6362 0e1e d4a1 663d
000003e0: 2102 ab0d 3056 3b3e c9a1 9417 2e11 4aa8
000003f0: 90ca 2415 c27f 682d 7d1b 403e cf64 3520

tcn.network.1.net.0.bias f4 [16]
1.4003836 1.2561352 0.9052699 0.44019753 -0.12373191 0.5166735 -0.05752101 -0.29556313
0.17206359 0.018342879 -0.21977535 0.048068687 0.00720943 1.5355473 1.7548183 -0.0067677116
00000000: c53f b33f 0ac9 a03f c5bf 673f 9261 e13e
00000010: 2867 fdbd b744 043f 279b 6bbd 0d54 97be
00000020: 7031 303e ce43 963c ca0c 61be ace3 443d
00000030: 153d ec3b d08c c43f e39d e03f aec3 ddbb

tcn.network.1.net.0.parametrizations.weight.original0 f4 [16, 1, 1]
0.4780914 0.67221063 0.60427207 0.718021 0.52177536 0.7409704 0.54498935 1.122933
0.46355444 0.5868098 0.7025397 0.55972135 0.53577167 0.46773604 0.52731454 0.5529906
00000000: 65c8 f43e ff15 2c3f 93b1 1a3f 39d0 373f
00000010: 1293 053f 3cb0 3d3f 6c84 0b3f 45bc 8f3f
00000020: 0257 ed3e 2b39 163f a4d9 333f e649 0f3f
00000030: 5528 093f 197b ef3e 16fe 063f cb90 0d3f
