TCN_base.pt (torch, 79850 bytes, 42 tensors)

tcn.network.0.conv1.bias f4 [32]
00000000: e76e 573f fb7c 5a3f fc8a 723d 4a63 86bf
00000010: e0b4 9b3f 9cf4 0c40 d52b 8ebc 97a9 4a3d
00000020: ec75 4140 cca4 bc3f ff48 b23c 8dbd 543f
00000030: 2afb d2bf bd44 5d3f 57f1 f13d 5672 2e3f
00000040: be67 b43f 0633 543f cf0f f9be 5249 b33f
00000050: bc27 10be 796a 0040 1beb e43f 5a2d 49bc
00000060: 37b7 283a ff0f 0a40 08dc 3c3e 5e76 c3bf
00000070: 9b6d 9f3f ad76 d33f 2412 4f3f fe7c 5f3f
0.841536 0.85346955 0.059214577 -1.0499051 1.2164574 2.2024298 -0.017354885 0.04947814
3.0228224 1.4737792 0.021763323 0.8310173 -1.6482899 0.8643301 0.1181361 0.6814321
1.409416 0.82890356 -0.48644873 1.400675 -0.14077657 2.0064986 1.7884248 -0.012278879
0.00064359925 2.1572263 0.1844331 -1.5270498 1.2455324 1.6520592 0.80887055 0.873001

tcn.network.0.conv1.parametrizations.weight.original0 f4 [32, 1, 1]
00000000: 4583 8c3f 0d75 903f cb0a 0f3f c6b9 7f3f
00000010: e3d4 7b3f e4ca 7a3f 1b8f 103f 3362 0c3f
00000020: 58f8 5d3f 294d 5a3f 73bd 133f 1611 c53f
00000030: bc3e 9e3f 298a 4c3f 9e75 8a3f 20c0 5a3f
00000040: 6f6f 823f ffc1 8f3f 4c33 8c3f 6657 ab3f
00000050: 6197 a63f 9b28 713f 0b1f 973f 8ab1 113f
00000060: dffc b83f d2bd 7a3f 59cb 2f3f 48b4 a03f
00000070: bbe4 763f e174 933f db55 883f 7d6c 923f
1.097756 1.1285721 0.55875844 0.9989284 0.98371714 0.97965837 0.5646836 0.5483734
0.8670707 0.8527399 0.5771095 1.5395839 1.2362895 0.79898316 1.0817144 0.8544941
1.0190257 1.1231078 1.0953155 1.3386047 1.3014947 0.94202584 1.1806349 0.5691153
1.445217 0.9794589 0.6866966 1.2555017 0.96442765 1.1520044 1.0651201 1.1439358

tcn.network.0.conv1.parametrizations.weight.original1 f4 [32, 32, 5]
00000000: 5aa5 a429 20bc 7722 47c9 7eb5 6985 a5b7
00000010: 006e a93d 3141 a0b1 dcf0 f223 e75f 6339
00000020: 5596 55ae 3394 843d 5b4b daa9 32fa 0cae
00000030: 59ed 4639 4394 57ae 0433 4f3d 6720 47b3
00000040: f2b6 5825 51ea f093 7092 c492 c149 44bd
00000050: 2cdc a2b6 7797 5b33 0c68 e8a3 48ad 0023
00000060: 838b d8bd 5db0 2894 fd1d 43b6 18e4 7a9e
00000070: 9cf0 24b3 fd26 7d3c 0ca2 891d f85e 3cb7
00000080: 5142 d239 800f aca0 26b3 d43b cc27 a212
00000090: 27f8 2bb0 8084 56ae 0222 95ab e7eb 20bd
000000a0: 428e 8f37 a3bc eb30 6272 d491 3505 74b8
000000b0: 4d1f d7bb 814d 1292 e1d2 42b3 adf8 8e39
000000c0: 2903 739a 1067 0f3d cfd0 1032 6018 0236
000000d0: 81bb a5ab 6456 43b0 7188 833d 3c27 0c1c
000000e0: cdf9 b2ae c656 4b93 4ba2 552d 53c2 0c3d
000000f0: 4a25 2432 7ea8 c21a 6e96 7aae 754c e1ad
00000100: c9b8 503c 5472 c8b7 6a33 21b3 af2f 4a98
00000110: 5945 74b9 5c13 f9bb bad7 0f2e 83cb 9cb1
00000120: 8840 7b32 808b cf16 ea09 c0bd 0aec d5b1
00000130: 06eb 132c e806 e9b0 f81f e3bb 971b abbd
00000140: a6bf 1816 1d65 d51e 37bf a52c b396 0e92
00000150: 1ceb 9abd a12c 0d1d 8174 3d37 94c5 3820
00000160: 4612 b42a 1a36 943c 32ea a4b2 798c c29b
00000170: fbb3 3916 bf7e 1837 fc47 84bd 3356 da91
00000180: 60cd b3b0 cc32 f837 efad 6430 0588 2e3d
00000190: 650c 89ba 686c 85a5 040a fda7 69b4 73ad
000001a0: 9da7 92bc ec27 209c 952e 6bba 78b1 fc2a
000001b0: 9f19 9725 d941 d73d 52f0 8438 973d 8ab1
000001c0: e750 d7a8 a7ea db1a fb4e 343e 0051 85a6
000001d0: fe62 b525 1fe2 0734 6dc0 db1a d3e1 f6bd
000001e0: 0281 f29d 0a7d a220 6eb3 a097 40c8 edb8
000001f0: 4ba0 50be e78a 959d 02b4 2a3b 8663 952c
00000200: 979d 1415 44c7 bebd 26b7 5337 ecb7 0e2e
00000210: fa09 643b d9f6 fa2b e01a 363d 6a23 9332
00000220: 9470 0aaa 1fc1 91a0 38ed 673b cbb6 4d3d
00000230: 0938 a095 5f21 eeb4 ac8a b22f 5b55 1db5
00000240: 2ecc 5f3c 70fc 01a3 4e08 2195 fbe7 803a
00000250: c124 202e bca4 12bd d82b 5fac e41c 0b36
00000260: d39f 9528 8414 9318 25f0 10be e9a2 3e28
00000270: c8de 9eb5 d693 83b5 4296 33a6 1f33 ae3e
00000280: e11e cdbb 8071 8fba ea5e dd23 0017 b0a6
00000290: efe9 d73d 992f 1638 a4db b1b9 1106 30b3
000002a0: 6b27 3c3a 4f1e ba3c 8b08 a42e 3988 1036
000002b0: 2c2a 17ad 1160 a334 f44b 703d 0772 21a5
000002c0: 2f78 b73a 556d 9fbb 0c9b 1425 707e 88bc
000002d0: 9c63 3a3a 1e11 022e 5b2a 0cb5 0c0a 7db4
000002e0: 7e1f 02be 8830 0bad c710 0ca1 bccd 173a
000002f0: 35c2 e8ab 4cde b1bd 8f35 3832 f85c 83b0
00000300: 4ef7 eb35 5afd 6627 ef5b 903a bf93 192d
00000310: 5270 b82e d0e4 a6bb c876 48b2 855e b5bc
00000320: 3a53 82b5 6ec4 1438 5315 bf38 bb39 4eac
00000330: 9a58 a73d b480 0a35 d005 b021 f1d0 efb8
00000340: 562a 813a cc79 8f3c ef3d 83a4 db20 8125
00000350: e29f 2eaf 375d 4eb6 7ad2 383d ffa7 222c
00000360: eaf1 72b6 5248 b23b eab3 842a 541c 353d
00000370: 8693 89b3 02ae e537 d5a0 3833 95d6 95b8
00000380: 9da6 68bc aa87 f3a9 d411 193b efa2 cfa7
00000390: 6a4d 493a b205 b4ba 529f 2cb8 e7ca 19b6
000003a0: 3685 ff28 c551 fb3a 4ef4 0abe 2b31 7daa
000003b0: 35f4 8732 242b 062c 8361 5d33 8c37 dbbd
000003c0: d187 a936 af97 6f3b d6fd 3e32 ae22 bab6
000003d0: 647d eabd ab23 25b2 6e48 0d34 688c 4e3b
000003e0: 6e2b 3a26 4546 253e 1f7d 5435 c1c9 0631
000003f0: 0d7f f3bb 0b34 122f 61fc d73d 2c3e 6436
7.311747e-14 3.3574335e-18 -9.491527e-07 -1.9731657e-05 0.08272934 -4.6640243e-09 2.63397e-17 0.00021684133
-4.8564115e-11 0.06473579 -9.694217e-14 -3.2054533e-11 0.0001897117 -4.9017023e-11 0.05058576 -4.6362768e-08
1.8796998e-16 -6.081557e-27 -1.2405439e-27 -0.0479219 -4.8536076e-06 5.1127667e-08 -2.5197556e-17 6.975588e-18
-0.10573485 -8.516614e-27 -2.907472e-06 -1.32820585e-20 -3.840306e-08 0.01545119 3.643115e-21 -1.1227785e-05
0.0004010373 -2.914819e-19 0.0064910827 1.0233448e-27 -6.2562083e-10 -4.877565e-11 -1.0596526e-12 -0.039287474
1.7113172e-05 1.7152114e-09 -3.3518196e-28 -5.8178983e-05 -0.0065650106 -4.616501e-28 -4.5360938e-08 0.00027269628
-5.0253775e-23 0.035010397 8.429381e-09 1.9385698e-06 -1.1775998e-12 -7.1063355e-10 0.064225085 4.6372824e-22
-8.1388764e-11 -2.5664985e-27 1.21436845e-11 0.03436501 9.554535e-09 8.0508733e-23 -5.6977027e-11 -2.5613492e-11
0.012739369 -2.3895096e-05 -3.7532494e-08 -2.6131962e-24 -0.00023295487 -0.007601185 3.270604e-11 -4.563334e-09
1.4624796e-08 3.353069e-25 -0.09376891 -6.2259504e-09 2.102042e-12 -1.6954944e-09 -0.006931301 -0.08354872
1.2338936e-25 2.2594072e-20 4.710811e-12 -4.499305e-28 -0.07564375 1.8684267e-21 1.12924035e-05 1.5650779e-19
3.1987103e-13 0.018092204 -1.9198612e-08 -3.2185386e-22 1.5000973e-25 9.089416e-06 -0.064590424 -3.444746e-28
-1.3082335e-09 2.9587558e-05 8.319309e-10 0.042610187 -0.0010455964 -2.314528e-16 -7.0232465e-15 -1.385301e-11
-0.01790219 -5.2991157e-22 -0.000897148 4.4887336e-13 2.6211686e-16 0.10510606 6.3390136e-05 -4.0233306e-09
-2.390488e-14 9.095538e-23 0.17608254 -9.250684e-16 3.1465575e-16 1.2655117e-07 9.088716e-23 -0.12054791
-6.4190258e-21 2.7526611e-19 -1.0385052e-24 -0.0001133834 -0.20373647 -3.9583593e-21 0.0026047234 4.245884e-12
3.0012678e-26 -0.09315351 1.2619223e-05 3.2450417e-11 0.0034795986 1.7832082e-12 0.044459224 1.7129157e-08
-1.229592e-13 -2.4691752e-19 0.0035389196 0.050223153 -6.4711893e-26 -4.4355235e-07 3.2476544e-10 -5.8611266e-07
0.01365952 -7.04656e-18 -3.2520242e-26 0.000983476 3.6412432e-11 -0.035801634 -3.1714544e-12 2.072943e-06
1.6611636e-14 3.8019325e-24 -0.14154108 1.0582444e-14 -1.1836755e-06 -9.803287e-07 -6.230674e-16 0.34023377
-0.0062597846 -0.001094386 2.4001066e-17 -1.2218687e-15 0.10542666 3.5807116e-05 -0.00033923716 -4.098371e-08
0.00071775046 0.02271953 7.459374e-11 2.1536964e-06 -8.59272e-12 3.0431013e-07 0.058666185 -1.4003158e-16
0.001399761 -0.0048653283 1.2889486e-16 -0.016661853 0.000711018 2.957378e-11 -5.22157e-07 -2.3566116e-07
-0.12707326 -7.912011e-12 -4.745605e-19 0.00057908497 -1.6538495e-12 -0.08684978 1.0722387e-08 -9.557928e-10
1.758084e-06 3.2056254e-15 0.0011013726 8.729849e-12 8.3873034e-11 -0.0050931945 -1.166854e-08 -0.022139797
-9.709977e-07 3.546889e-05 9.111562e-05 -2.9306408e-12 0.08171196 5.1596294e-07 1.1927762e-18 -0.000114353265
0.0009854536 0.017514132 -5.6917113e-17 2.2400197e-16 -1.588201e-10 -3.075065e-06 0.0451226 2.3114841e-12
-3.6201623e-06 0.00544075 2.357275e-13 0.04421647 -6.406394e-08 2.7379956e-05 4.2987114e-08 -7.144843e-05
-0.01419988 -1.0814902e-13 0.0023356574 -5.7630694e-15 0.0007679077 -0.0013734607 -4.1156374e-05 -2.2916881e-06
2.8368458e-14 0.001917415 -0.13569757 -2.2487973e-13 1.5827121e-08 1.9066493e-12 5.154426e-08 -0.10703954
5.0524036e-06 0.0036558916 1.1117171e-08 -5.547269e-06 -0.114496976 -9.612374e-09 1.3157998e-07 0.0031516794
6.459057e-16 0.16140087 7.915823e-07 1.961425e-09 -0.007430917 1.3297112e-10 0.10546184 3.4010836e-06

tcn.network.0.conv2.bias f4 [32]
00000000: ca33 dc3f 1782 b33f 19c4 963f 118b cf3f
00000010: 0ce2 aa3d 6ada c3bf c423 eebf 692f 7abe
00000020: 0a88 cdbe abe9 e43e 1151 cb3f 29aa 103f
00000030: 4e48 833f 15e4 923f 41be f43d 538b 553f
00000040: 877d b03f 10e2 653f 6298 4cbe e0ce 1abe
00000050: 9c89 7f3f edf0 5d3f d7d8 503f 2ec9 663f
00000060: deba cc3f b212 053f 15f2 0340 c856 2240
00000070: a78c a53f b480 2f3f 69e2 9c3f e9b9 903f
1.7203305 1.4024075 1.1778594 1.6214315 0.08343896 -1.530103 -1.8604665 -0.24432148
-0.40142852 0.44709525 1.5884115 0.56509644 1.0256441 1.1475855 0.119503506 0.83415717
1.3788308 0.8979807 -0.19980004 -0.15117979 0.9981935 0.8669575 0.8158087 0.90150726
1.5994527 0.5198165 2.0616505 2.5365467 1.2933549 0.6855576 1.2256595 1.1306735

tcn.network.0.conv2.parametrizations.weight.original0 f4 [32, 1, 1]
00000000: e87a 2840 8070 2840 6c62 fe3f 50ca 0240
00000010: 9cad 0240 0f15 f63f cf8b de3f 4cc9 f23f
00000020: 1fae db3e babd 023f 66fb 023f 9cff 103f
00000030: 9bb1 643f 5e01 073f 1429 1740 d5c4 033f
00000040: a1c8 223f 469c 063f 8ecf 053f 4e99 1f3f
00000050: 542f 083f 6581 123f 7bf1 153f d31f 0b3f
00000060: 65cf 1c3f 44d7 1240 deb0 043f 963e f13e
00000070: 2c5b 083f db71 f03e 526f 9b3f b298 2f3f
2.6325016 2.6318665 1.9873786 2.0435982 2.0418463 1.9225177 1.7386416 1.8967681
0.4290628 0.5107075 0.51164854 0.5664003 0.89333504 0.5273646 2.3618822 0.51472217
0.63587385 0.52582204 0.5226983 0.623433 0.53197217 0.5722869 0.58571595 0.54345435
0.6125396 2.2943888 0.5183238 0.47118062 0.5326412 0.46961865 1.2143347 0.6859237

tcn.network.0.conv2.parametrizations.weight.original1 f4 [32, 32, 5]
00000000: d75f 30a6 eba6 ad26 b285 6536 3f4b 0028
00000010: a11d 22be 169e cfa9 1690 02b6 dd3e d12e
00000020: 742d 268a 0d81 0ebe f734 5da3 85bd c8a2
00000030: 0757 2632 3ccd fab8 f935 ec27 0b1c 1f33
00000040: 8e36 12a8 d731 621a 21ee 6ba9 9194 193d
00000050: 69df 7527 cbce b699 8e69 9f34 1539 0236
00000060: f83c 52be 0685 4e99 5e76 3ab3 4e8e 6d2e
00000070: 978d 071d 7327 2dbd d7e5 5fb5 63d4 0d22
00000080: b39f 0338 8cf9 5d1a 41c8 6325 91fd 64b7
00000090: d940 2ab1 42be d834 33d5 ab36 6f57 b395
000000a0: cbac 59a0 dd96 8b22 75a7 c626 eeae 4b15
000000b0: c72f 2dbe 327d a8b0 6a6c a529 5446 cf20
000000c0: b40f ddb0 78cf 27be b8a2 1316 3f14 0932
000000d0: 15c7 cd21 7016 d92c d8b3 79b0 de1e 981a
000000e0: b4fd ca32 a62c 72b1 d9cd 801a 2632 2cbd
000000f0: 72e0 3589 fd49 10aa 9ea9 83ab 8190 428b
00000100: 894d 6f3c 5976 1fae 081f bbae 4319 4a36
00000110: 29df c69b cca5 333c 06b4 1ca4 2d66 a32f
00000120: ebe9 18ad 7582 d6ba b27f cb3d f331 33ab
00000130: bf21 1133 6621 eb96 8767 b23a d264 c2bd
00000140: b3bc f82f 4dd7 8e22 3ed7 692d 7546 0109
00000150: 68ee dfbd c204 4e0b 863c 06a6 ff07 199f
00000160: e964 99a7 88c7 f0bc 433e 8c9c 1c7b 2092
00000170: beb4 9720 c52b c91c 49a6 6bbc b5c6 9397
00000180: 4a00 3aa0 730c 2437 a126 3f34 444c bb3d
00000190: 4468 4d39 5ef9 e517 ff9b 2e1e f9eb aa36
000001a0: 251d 4c3e 1f3e 8f91 2e68 ebb0 492c 7d22
000001b0: a1b8 acb2 5ea2 bdbd de87 98a2 b111 6c2d
000001c0: cdaf ae9a 5747 e5a9 7010 c53d 2a00 e8b2
000001d0: 2d2d 3027 62e7 308e 1c7c 2db6 7f62 9e99
000001e0: 3d48 d099 58bb a3a2 73f7 9b31 91c0 a5af
000001f0: 1f8c a0bd 09a6 aba0 f404 1c27 5d4b 0f30
00000200: 89b5 9287 2c82 61bd 76d2 189c 7399 24b0
00000210: d929 c3a9 6181 b3b9 1d3b 8b3d 04da caab
00000220: 0b9c f9a0 e527 e988 4390 6437 71a0 253d
00000230: 4b47 12a4 cc53 431f 7ff6 fe21 7e03 84a9
00000240: ef91 8a3d 8022 4d0b a8f5 a032 15e7 4137
00000250: fa5a 46b6 45b8 b23d 2707 28b7 d485 01a3
00000260: fbf1 b8b5 ef8c 35b6 3b92 b73d b73f 65ab
00000270: cdc7 b629 2212 eb23 b759 0ba1 85a1 973d
00000280: ceb6 f0a7 a1cb 4dba bb60 2825 58d9 c631
00000290: e20e ddbd 000a f820 8a0d abab b099 c0b5
000002a0: a9ca d728 c6a2 33be 1673 432d d13b 2db2
000002b0: 670c 8d9d 491b 9927 800f e62e 7d08 ecb8
000002c0: 0a1b 27b5 0dd1 a3b5 ca3a be92 5999 ae3d
000002d0: 28aa 5638 16dd 3bb3 58e5 3590 517f 73b6
000002e0: 42dc 1ebd e6b8 62b0 5e7f deb5 2c4c 7313
000002f0: a31e a4a3 6dc0 183e 6a03 c99d 1994 b735
00000300: fd52 51aa fc6c f29c 635d bc0f 7edc 6617
00000310: 31df 17a3 dedc 0916 c134 ad9d 7456 8927
00000320: 8844 1434 e344 6636 f359 c929 7249 b125
00000330: 94a0 81bd 33e8 779f 046e 5f8d 4db3 a234
00000340: dce4 c839 0b81 e0bc 6deb c637 9ae9 7710
00000350: 75d6 ae37 69af 3cb2 e2dd 3430 649a d2b5
00000360: c15f d917 9eda 4aac b7d3 8635 bdd9 743a
00000370: 0ece 6713 6f50 5336 c29a 18b3 be67 0d29
00000380: aba7 0a3e 09f8 36b8 e83c 61b8 c342 1a26
00000390: e18c 863a ce7b 35bd bd82 a72a 4de3 ca3a
000003a0: 421a 22b2 127d 8f27 4728 3cbd 070e 8c2f
000003b0: 4114 49b9 8062 a91a a077 cc96 cf54 843d
000003c0: 7dd5 6810 cba2 05a2 ad34 5ba2 161e 1916
000003d0: b539 48be 7008 25b5 1ba8 21ad 3d73 c3b8
000003e0: 1520 bf2d 02ca f1bc c964 1e2f 0d59 2ba8
000003f0: 246b d8b9 66fc df33 fdb3 9f3d 5f71 59b6
-6.1192154e-16 1.204953e-15 3.420148e-06 7.121744e-15 -0.15831615 -9.22007e-14 -1.9455379e-06 9.5153864e-11
-8.001158e-33 -0.13916416 -1.199165e-17 -5.441077e-18 9.682259e-09 -0.00011959157 6.5561676e-15 3.7045577e-08
-8.116458e-15 4.6775965e-23 -5.2387026e-14 0.0374952 3.412169e-15 -1.8901882e-23 2.969286e-07 1.9404736e-06
-0.2053107 -1.0676814e-23 -4.3414154e-08 5.4013953e-11 1.7940301e-21 -0.04227395 -8.3408435e-07 1.92215e-18
3.1381565e-05 4.590331e-23 1.975696e-16 -1.3648897e-05 -2.4775118e-09 4.0371566e-07 5.121017e-06 -7.243547e-26
-1.8437787e-19 3.783576e-18 1.3784399e-15 4.113352e-26 -0.16912757 -1.2259191e-09 7.346279e-14 3.5113703e-19
-1.6084329e-09 -0.16387737 1.192591e-25 7.979053e-09 1.3944037e-18 6.170002e-12 -9.0841246e-10 6.2915595e-23
2.3631266e-08 -3.5241015e-09 5.3272124e-23 -0.042040013 -2.1892616e-33 -1.2815439e-13 -9.355188e-13 -3.7471754e-32
0.014605888 -3.6257528e-11 -8.509288e-11 3.011505e-06 -3.2900566e-22 0.010964822 -3.3979594e-17 2.9722128e-10
-8.69214e-12 -0.0016365784 0.09936465 -6.3662893e-13 3.3791135e-08 -3.7987375e-25 0.0013611176 -0.09491886
4.5245016e-10 3.8717136e-18 1.329231e-11 1.5560939e-33 -0.10934144 3.9677736e-32 -4.6572614e-16 -3.2405624e-20
-4.2575438e-15 -0.029392019 -9.280517e-22 -5.063884e-28 2.57e-19 1.3312378e-21 -0.014382907 -9.549813e-25
-1.5754908e-19 9.77806e-06 1.7802314e-07 0.09145406 0.00019589165 1.4861727e-24 9.2437425e-21 5.0938656e-06
0.19932993 -2.2599707e-28 -1.712811e-09 3.4311338e-18 -2.0107395e-08 -0.09259485 -4.1343538e-18 1.3418975e-11
-7.2248735e-23 -1.01820184e-13 0.09622276 -2.700843e-08 2.4449396e-15 -2.1805082e-30 -2.585125e-06 -1.63766e-23
-2.1535873e-23 -4.4379596e-18 4.5392254e-09 -3.0150152e-10 -0.07839226 -2.90784e-19 2.1652034e-15 5.2130195e-10
-2.2074335e-34 -0.055055782 -5.0564596e-22 -5.9880917e-10 -8.666999e-14 -0.00034237935 0.06798384 -1.4413475e-12
-4.2285501e-19 -1.4032557e-33 1.3623448e-05 0.040436212 -3.171909e-17 4.136217e-20 1.7276956e-18 -5.8625834e-14
0.06766116 3.950752e-32 1.8738163e-08 1.1557499e-05 -2.9557254e-06 0.08726553 -1.0015246e-05 -7.021443e-18
-1.3779494e-06 -2.7053136e-06 0.08963438 -8.1445565e-13 8.1170835e-14 2.548643e-17 -4.721377e-19 0.07403854
-6.681158e-15 -0.00078504725 1.4604451e-16 5.7872676e-09 -0.10793854 4.2019452e-19 -1.2154039e-12 -1.4349844e-06
2.3957685e-14 -0.17542562 1.1110021e-11 -1.0083526e-08 -3.7335213e-21 4.2495613e-15 1.04619424e-10 -0.00011254938
-6.2251695e-07 -1.2205288e-06 -1.2005178e-27 0.085253425 5.1180046e-05 -4.3740407e-08 -3.5872636e-29 -3.628393e-06
-0.038784273 -8.248108e-10 -1.6577358e-06 3.0708468e-27 -1.779389e-17 0.14917155 -5.3207787e-21 1.3677665e-06
-1.8591721e-13 -1.6042388e-21 1.8574203e-29 7.459531e-25 -8.232989e-18 1.1136465e-25 -4.5847265e-21 3.811887e-15
1.3808506e-07 3.4312768e-06 8.941797e-14 3.0754374e-16 -0.06329456 -5.2496355e-20 -6.8849607e-31 3.030531e-07
0.00038317486 -0.027405282 2.3713068e-05 4.889212e-29 2.084228e-05 -1.0982924e-08 6.5798933e-10 -1.5691153e-06
1.4047468e-24 -2.8827283e-12 1.0045395e-06 0.0009340307 2.9257892e-27 3.1488269e-06 -3.553101e-08 3.139827e-14
0.13540523 -4.3623182e-05 -5.3700904e-05 5.351996e-16 0.0010265374 -0.044307522 2.9755877e-13 0.0015479118
-9.435611e-09 3.9826075e-15 -0.04593685 2.547582e-10 -0.00019176399 7.00559e-23 -3.3033472e-25 0.064614885
4.5918398e-29 -1.8111043e-18 -2.970792e-18 1.2368735e-25 -0.19553263 -6.147957e-07 -9.189117e-12 -9.3197894e-05
2.1728433e-11 -0.02951527 1.4405822e-10 -9.511717e-15 -0.00041278556 1.0430158e-07 0.07798002 -3.240151e-06

tcn.network.0.net.0.bias f4 [32]
00000000: e76e 573f fb7c 5a3f fc8a 723d 4a63 86bf
00000010: e0b4 9b3f 9cf4 0c40 d52b 8ebc 97a9 4a3d
00000020: ec75 4140 cca4 bc3f ff48 b23c 8dbd 543f
00000030: 2afb d2bf bd44 5d3f 57f1 f13d 5672 2e3f
00000040: be67 b43f 0633 543f cf0f f9be 5249 b33f
00000050: bc27 10be 796a 0040 1beb e43f 5a2d 49bc
00000060: 37b7 283a ff0f 0a40 08dc 3c3e 5e76 c3bf
00000070: 9b6d 9f3f ad76 d33f 2412 4f3f fe7c 5f3f
0.841536 0.85346955 0.059214577 -1.0499051 1.2164574 2.2024298 -0.017354885 0.04947814
3.0228224 1.4737792 0.021763323 0.8310173 -1.6482899 0.8643301 0.1181361 0.6814321
1.409416 0.82890356 -0.48644873 1.400675 -0.14077657 2.0064986 1.7884248 -0.012278879
0.00064359925 2.1572263 0.1844331 -1.5270498 1.2455324 1.6520592 0.80887055 0.873001

tcn.network.0.net.0.parametrizations.weight.original0 f4 [32, 1, 1]
00000000: 4583 8c3f 0d75 903f cb0a 0f3f c6b9 7f3f
00000010: e3d4 7b3f e4ca 7a3f 1b8f 103f 3362 0c3f
00000020: 58f8 5d3f 294d 5a3f 73bd 133f 1611 c53f
00000030: bc3e 9e3f 298a 4c3f 9e75 8a3f 20c0 5a3f
00000040: 6f6f 823f ffc1 8f3f 4c33 8c3f 6657 ab3f
00000050: 6197 a63f 9b28 713f 0b1f 973f 8ab1 113f
00000060: dffc b83f d2bd 7a3f 59cb 2f3f 48b4 a03f
00000070: bbe4 763f e174 933f db55 883f 7d6c 923f
1.097756 1.1285721 0.55875844 0.9989284 0.98371714 0.97965837 0.5646836 0.5483734
0.8670707 0.8527399 0.5771095 1.5395839 1.2362895 0.79898316 1.0817144 0.8544941
1.0190257 1.1231078 1.0953155 1.3386047 1.3014947 0.94202584 1.1806349 0.5691153
1.445217 0.9794589 0.6866966 1.2555017 0.96442765 1.1520044 1.0651201 1.1439358

tcn.network.0.net.0.parametrizations.weight.original1 f4 [32, 32, 5]
00000000: 5aa5 a429 20bc 7722 47c9 7eb5 6985 a5b7
00000010: 006e a93d 3141 a0b1 dcf0 f223 e75f 6339
00000020: 5596 55ae 3394 843d 5b4b daa9 32fa 0cae
00000030: 59ed 4639 4394 57ae 0433 4f3d 6720 47b3
00000040: f2b6 5825 51ea f093 7092 c492 c149 44bd
00000050: 2cdc a2b6 7797 5b33 0c68 e8a3 48ad 0023
00000060: 838b d8bd 5db0 2894 fd1d 43b6 18e4 7a9e
00000070: 9cf0 24b3 fd26 7d3c 0ca2 891d f85e 3cb7
00000080: 5142 d239 800f aca0 26b3 d43b cc27 a212
00000090: 27f8 2bb0 8084 56ae 0222 95ab e7eb 20bd
000000a0: 428e 8f37 a3bc eb30 6272 d491 3505 74b8
000000b0: 4d1f d7bb 814d 1292 e1d2 42b3 adf8 8e39
000000c0: 2903 739a 1067 0f3d cfd0 1032 6018 0236
000000d0: 81bb a5ab 6456 43b0 7188 833d 3c27 0c1c
000000e0: cdf9 b2ae c656 4b93 4ba2 552d 53c2 0c3d
000000f0: 4a25 2432 7ea8 c21a 6e96 7aae 754c e1ad
00000100: c9b8 503c 5472 c8b7 6a33 21b3 af2f 4a98
00000110: 5945 74b9 5c13 f9bb bad7 0f2e 83cb 9cb1
00000120: 8840 7b32 808b cf16 ea09 c0bd 0aec d5b1
00000130: 06eb 132c e806 e9b0 f81f e3bb 971b abbd
00000140: a6bf 1816 1d65 d51e 37bf a52c b396 0e92
00000150: 1ceb 9abd a12c 0d1d 8174 3d37 94c5 3820
00000160: 4612 b42a 1a36 943c 32ea a4b2 798c c29b
00000170: fbb3 3916 bf7e 1837 fc47 84bd 3356 da91
00000180: 60cd b3b0 cc32 f837 efad 6430 0588 2e3d
00000190: 650c 89ba 686c 85a5 040a fda7 69b4 73ad
000001a0: 9da7 92bc ec27 209c 952e 6bba 78b1 fc2a
000001b0: 9f19 9725 d941 d73d 52f0 8438 973d 8ab1
000001c0: e750 d7a8 a7ea db1a fb4e 343e 0051 85a6
000001d0: fe62 b525 1fe2 0734 6dc0 db1a d3e1 f6bd
000001e0: 0281 f29d 0a7d a220 6eb3 a097 40c8 edb8
000001f0: 4ba0 50be e78a 959d 02b4 2a3b 8663 952c
00000200: 979d 1415 44c7 bebd 26b7 5337 ecb7 0e2e
00000210: fa09 643b d9f6 fa2b e01a 363d 6a23 9332
00000220: 9470 0aaa 1fc1 91a0 38ed 673b cbb6 4d3d
00000230: 0938 a095 5f21 eeb4 ac8a b22f 5b55 1db5
00000240: 2ecc 5f3c 70fc 01a3 4e08 2195 fbe7 803a
00000250: c124 202e bca4 12bd d82b 5fac e41c 0b36
00000260: d39f 9528 8414 9318 25f0 10be e9a2 3e28
00000270: c8de 9eb5 d693 83b5 4296 33a6 1f33 ae3e
00000280: e11e cdbb 8071 8fba ea5e dd23 0017 b0a6
00000290: efe9 d73d 992f 1638 a4db b1b9 1106 30b3
000002a0: 6b27 3c3a 4f1e ba3c 8b08 a42e 3988 1036
000002b0: 2c2a 17ad 1160 a334 f44b 703d 0772 21a5
000002c0: 2f78 b73a 556d 9fbb 0c9b 1425 707e 88bc
000002d0: 9c63 3a3a 1e11 022e 5b2a 0cb5 0c0a 7db4
000002e0: 7e1f 02be 8830 0bad c710 0ca1 bccd 173a
000002f0: 35c2 e8ab 4cde b1bd 8f35 3832 f85c 83b0
00000300: 4ef7 eb35 5afd 6627 ef5b 903a bf93 192d
00000310: 5270 b82e d0e4 a6bb c876 48b2 855e b5bc
00000320: 3a53 82b5 6ec4 1438 5315 bf38 bb39 4eac
00000330: 9a58 a73d b480 0a35 d005 b021 f1d0 efb8
00000340: 562a 813a cc79 8f3c ef3d 83a4 db20 8125
00000350: e29f 2eaf 375d 4eb6 7ad2 383d ffa7 222c
00000360: eaf1 72b6 5248 b23b eab3 842a 541c 353d
00000370: 8693 89b3 02ae e537 d5a0 3833 95d6 95b8
00000380: 9da6 68bc aa87 f3a9 d411 193b efa2 cfa7
00000390: 6a4d 493a b205 b4ba 529f 2cb8 e7ca 19b6
000003a0: 3685 ff28 c551 fb3a 4ef4 0abe 2b31 7daa
000003b0: 35f4 8732 242b 062c 8361 5d33 8c37 dbbd
000003c0: d187 a936 af97 6f3b d6fd 3e32 ae22 bab6
000003d0: 647d eabd ab23 25b2 6e48 0d34 688c 4e3b
000003e0: 6e2b 3a26 4546 253e 1f7d 5435 c1c9 0631
000003f0: 0d7f f3bb 0b34 122f 61fc d73d 2c3e 6436
7.311747e-14 3.3574335e-18 -9.491527e-07 -1.9731657e-05 0.08272934 -4.6640243e-09 2.63397e-17 0.00021684133
-4.8564115e-11 0.06473579 -9.694217e-14 -3.2054533e-11 0.0001897117 -4.9017023e-11 0.05058576 -4.6362768e-08
1.8796998e-16 -6.081557e-27 -1.2405439e-27 -0.0479219 -4.8536076e-06 5.1127667e-08 -2.5197556e-17 6.975588e-18
-0.10573485 -8.516614e-27 -2.907472e-06 -1.32820585e-20 -3.840306e-08 0.01545119 3.643115e-21 -1.1227785e-05
0.0004010373 -2.914819e-19 0.0064910827 1.0233448e-27 -6.2562083e-10 -4.877565e-11 -1.0596526e-12 -0.039287474
1.7113172e-05 1.7152114e-09 -3.3518196e-28 -5.8178983e-05 -0.0065650106 -4.616501e-28 -4.5360938e-08 0.00027269628
-5.0253775e-23 0.035010397 8.429381e-09 1.9385698e-06 -1.1775998e-12 -7.1063355e-10 0.064225085 4.6372824e-22
-8.1388764e-11 -2.5664985e-27 1.21436845e-11 0.03436501 9.554535e-09 8.0508733e-23 -5.6977027e-11 -2.5613492e-11
0.012739369 -2.3895096e-05 -3.7532494e-08 -2.6131962e-24 -0.00023295487 -0.007601185 3.270604e-11 -4.563334e-09
1.4624796e-08 3.353069e-25 -0.09376891 -6.2259504e-09 2.102042e-12 -1.6954944e-09 -0.006931301 -0.08354872
1.2338936e-25 2.2594072e-20 4.710811e-12 -4.499305e-28 -0.07564375 1.8684267e-21 1.12924035e-05 1.5650779e-19
3.1987103e-13 0.018092204 -1.9198612e-08 -3.2185386e-22 1.5000973e-25 9.089416e-06 -0.064590424 -3.444746e-28
-1.3082335e-09 2.9587558e-05 8.319309e-10 0.042610187 -0.0010455964 -2.314528e-16 -7.0232465e-15 -1.385301e-11
-0.01790219 -5.2991157e-22 -0.000897148 4.4887336e-13 2.6211686e-16 0.10510606 6.3390136e-05 -4.0233306e-09
-2.390488e-14 9.095538e-23 0.17608254 -9.250684e-16 3.1465575e-16 1.2655117e-07 9.088716e-23 -0.12054791
-6.4190258e-21 2.7526611e-19 -1.0385052e-24 -0.0001133834 -0.20373647 -3.9583593e-21 0.0026047234 4.245884e-12
3.0012678e-26 -0.09315351 1.2619223e-05 3.2450417e-11 0.0034795986 1.7832082e-12 0.044459224 1.7129157e-08
-1.229592e-13 -2.4691752e-19 0.0035389196 0.050223153 -6.4711893e-26 -4.4355235e-07 3.2476544e-10 -5.8611266e-07
0.01365952 -7.04656e-18 -3.2520242e-26 0.000983476 3.6412432e-11 -0.035801634 -3.1714544e-12 2.072943e-06
1.6611636e-14 3.8019325e-24 -0.14154108 1.0582444e-14 -1.1836755e-06 -9.803287e-07 -6.230674e-16 0.34023377
-0.0062597846 -0.001094386 2.4001066e-17 -1.2218687e-15 0.10542666 3.5807116e-05 -0.00033923716 -4.098371e-08
0.00071775046 0.02271953 7.459374e-11 2.1536964e-06 -8.59272e-12 3.0431013e-07 0.058666185 -1.4003158e-16
0.001399761 -0.0048653283 1.2889486e-16 -0.016661853 0.000711018 2.957378e-11 -5.22157e-07 -2.3566116e-07
-0.12707326 -7.912011e-12 -4.745605e-19 0.00057908497 -1.6538495e-12 -0.08684978 1.0722387e-08 -9.557928e-10
1.758084e-06 3.2056254e-15 0.0011013726 8.729849e-12 8.3873034e-11 -0.0050931945 -1.166854e-08 -0.022139797
-9.709977e-07 3.546889e-05 9.111562e-05 -2.9306408e-12 0.08171196 5.1596294e-07 1.1927762e-18 -0.000114353265
0.0009854536 0.017514132 -5.6917113e-17 2.2400197e-16 -1.588201e-10 -3.075065e-06 0.0451226 2.3114841e-12
-3.6201623e-06 0.00544075 2.357275e-13 0.04421647 -6.406394e-08 2.7379956e-05 4.2987114e-08 -7.144843e-05
-0.01419988 -1.0814902e-13 0.0023356574 -5.7630694e-15 0.0007679077 -0.0013734607 -4.1156374e-05 -2.2916881e-06
2.8368458e-14 0.001917415 -0.13569757 -2.2487973e-13 1.5827121e-08 1.9066493e-12 5.154426e-08 -0.10703954
5.0524036e-06 0.0036558916 1.1117171e-08 -5.547269e-06 -0.114496976 -9.612374e-09 1.3157998e-07 0.0031516794
6.459057e-16 0.16140087 7.915823e-07 1.961425e-09 -0.007430917 1.3297112e-10 0.10546184 3.4010836e-06

tcn.network.0.net.4.bias f4 [32]
00000000: ca33 dc3f 1782 b33f 19c4 963f 118b cf3f
00000010: 0ce2 aa3d 6ada c3bf c423 eebf 692f 7abe
00000020: 0a88 cdbe abe9 e43e 1151 cb3f 29aa 103f
00000030: 4e48 833f 15e4 923f 41be f43d 538b 553f
00000040: 877d b03f 10e2 653f 6298 4cbe e0ce 1abe
00000050: 9c89 7f3f edf0 5d3f d7d8 503f 2ec9 663f
00000060: deba cc3f b212 053f 15f2 0340 c856 2240
00000070: a78c a53f b480 2f3f 69e2 9c3f e9b9 903f
1.7203305 1.4024075 1.1778594 1.6214315 0.08343896 -1.530103 -1.8604665 -0.24432148
-0.40142852 0.44709525 1.5884115 0.56509644 1.0256441 1.1475855 0.119503506 0.83415717
1.3788308 0.8979807 -0.19980004 -0.15117979 0.9981935 0.8669575 0.8158087 0.90150726
1.5994527 0.5198165 2.0616505 2.5365467 1.2933549 0.6855576 1.2256595 1.1306735

tcn.network.0.net.4.parametrizations.weight.original0 f4 [32, 1, 1]
00000000: e87a 2840 8070 2840 6c62 fe3f 50ca 0240
00000010: 9cad 0240 0f15 f63f cf8b de3f 4cc9 f23f
00000020: 1fae db3e babd 023f 66fb 023f 9cff 103f
00000030: 9bb1 643f 5e01 073f 1429 1740 d5c4 033f
00000040: a1c8 223f 469c 063f 8ecf 053f 4e99 1f3f
00000050: 542f 083f 6581 123f 7bf1 153f d31f 0b3f
00000060: 65cf 1c3f 44d7 1240 deb0 043f 963e f13e
00000070: 2c5b 083f db71 f03e 526f 9b3f b298 2f3f
2.6325016 2.6318665 1.9873786 2.0435982 2.0418463 1.9225177 1.7386416 1.8967681
0.4290628 0.5107075 0.51164854 0.5664003 0.89333504 0.5273646 2.3618822 0.51472217
0.63587385 0.52582204 0.5226983 0.623433 0.53197217 0.5722869 0.58571595 0.54345435
0.6125396 2.2943888 0.5183238 0.47118062 0.5326412 0.46961865 1.2143347 0.6859237

tcn.network.0.net.4.parametrizations.weight.original1 f4 [32, 32, 5]
00000000: d75f 30a6 eba6 ad26 b285 6536 3f4b 0028
00000010: a11d 22be 169e cfa9 1690 02b6 dd3e d12e
00000020: 742d 268a 0d81 0ebe f734 5da3 85bd c8a2
00000030: 0757 2632 3ccd fab8 f935 ec27 0b1c 1f33
00000040: 8e36 12a8 d731 621a 21ee 6ba9 9194 193d
00000050: 69df 7527 cbce b699 8e69 9f34 1539 0236
00000060: f83c 52be 0685 4e99 5e76 3ab3 4e8e 6d2e
00000070: 978d 071d 7327 2dbd d7e5 5fb5 63d4 0d22
00000080: b39f 0338 8cf9 5d1a 41c8 6325 91fd 64b7
00000090: d940 2ab1 42be d834 33d5 ab36 6f57 b395
000000a0: cbac 59a0 dd96 8b22 75a7 c626 eeae 4b15
000000b0: c72f 2dbe 327d a8b0 6a6c a529 5446 cf20
000000c0: b40f ddb0 78cf 27be b8a2 1316 3f14 0932
000000d0: 15c7 cd21 7016 d92c d8b3 79b0 de1e 981a
000000e0: b4fd ca32 a62c 72b1 d9cd 801a 2632 2cbd
000000f0: 72e0 3589 fd49 10aa 9ea9 83ab 8190 428b
00000100: 894d 6f3c 5976 1fae 081f bbae 4319 4a36
00000110: 29df c69b cca5 333c 06b4 1ca4 2d66 a32f
00000120: ebe9 18ad 7582 d6ba b27f cb3d f331 33ab
00000130: bf21 1133 6621 eb96 8767 b23a d264 c2bd
00000140: b3bc f82f 4dd7 8e22 3ed7 692d 7546 0109
00000150: 68ee dfbd c204 4e0b 863c 06a6 ff07 199f
00000160: e964 99a7 88c7 f0bc 433e 8c9c 1c7b 2092
00000170: beb4 9720 c52b c91c 49a6 6bbc b5c6 9397
00000180: 4a00 3aa0 730c 2437 a126 3f34 444c bb3d
00000190: 4468 4d39 5ef9 e517 ff9b 2e1e f9eb aa36
000001a0: 251d 4c3e 1f3e 8f91 2e68 ebb0 492c 7d22
000001b0: a1b8 acb2 5ea2 bdbd de87 98a2 b111 6c2d
000001c0: cdaf ae9a 5747 e5a9 7010 c53d 2a00 e8b2
000001d0: 2d2d 3027 62e7 308e 1c7c 2db6 7f62 9e99
000001e0: 3d48 d099 58bb a3a2 73f7 9b31 91c0 a5af
000001f0: 1f8c a0bd 09a6 aba0 f404 1c27 5d4b 0f30
00000200: 89b5 9287 2c82 61bd 76d2 189c 7399 24b0
00000210: d929 c3a9 6181 b3b9 1d3b 8b3d 04da caab
00000220: 0b9c f9a0 e527 e988 4390 6437 71a0 253d
00000230: 4b47 12a4 cc53 431f 7ff6 fe21 7e03 84a9
00000240: ef91 8a3d 8022 4d0b a8f5 a032 15e7 4137
00000250: fa5a 46b6 45b8 b23d 2707 28b7 d485 01a3
00000260: fbf1 b8b5 ef8c 35b6 3b92 b73d b73f 65ab
00000270: cdc7 b629 2212 eb23 b759 0ba1 85a1 973d
00000280: ceb6 f0a7 a1cb 4dba bb60 2825 58d9 c631
00000290: e20e ddbd 000a f820 8a0d abab b099 c0b5
000002a0: a9ca d728 c6a2 33be 1673 432d d13b 2db2
000002b0: 670c 8d9d 491b 9927 800f e62e 7d08 ecb8
000002c0: 0a1b 27b5 0dd1 a3b5 ca3a be92 5999 ae3d
000002d0: 28aa 5638 16dd 3bb3 58e5 3590 517f 73b6
000002e0: 42dc 1ebd e6b8 62b0 5e7f deb5 2c4c 7313
000002f0: a31e a4a3 6dc0 183e 6a03 c99d 1994 b735
00000300: fd52 51aa fc6c f29c 635d bc0f 7edc 6617
00000310: 31df 17a3 dedc 0916 c134 ad9d 7456 8927
00000320: 8844 1434 e344 6636 f359 c929 7249 b125
00000330: 94a0 81bd 33e8 779f 046e 5f8d 4db3 a234
00000340: dce4 c839 0b81 e0bc 6deb c637 9ae9 7710
00000350: 75d6 ae37 69af 3cb2 e2dd 3430 649a d2b5
00000360: c15f d917 9eda 4aac b7d3 8635 bdd9 743a
00000370: 0ece 6713 6f50 5336 c29a 18b3 be67 0d29
00000380: aba7 0a3e 09f8 36b8 e83c 61b8 c342 1a26
00000390: e18c 863a ce7b 35bd bd82 a72a 4de3 ca3a
000003a0: 421a 22b2 127d 8f27 4728 3cbd 070e 8c2f
000003b0: 4114 49b9 8062 a91a a077 cc96 cf54 843d
000003c0: 7dd5 6810 cba2 05a2 ad34 5ba2 161e 1916
000003d0: b539 48be 7008 25b5 1ba8 21ad 3d73 c3b8
000003e0: 1520 bf2d 02ca f1bc c964 1e2f 0d59 2ba8
000003f0: 246b d8b9 66fc df33 fdb3 9f3d 5f71 59b6
-6.1192154e-16 1.204953e-15 3.420148e-06 7.121744e-15 -0.15831615 -9.22007e-14 -1.9455379e-06 9.5153864e-11
-8.001158e-33 -0.13916416 -1.199165e-17 -5.441077e-18 9.682259e-09 -0.00011959157 6.5561676e-15 3.7045577e-08
-8.116458e-15 4.6775965e-23 -5.2387026e-14 0.0374952 3.412169e-15 -1.8901882e-23 2.969286e-07 1.9404736e-06
-0.2053107 -1.0676814e-23 -4.3414154e-08 5.4013953e-11 1.7940301e-21 -0.04227395 -8.3408435e-07 1.92215e-18
3.1381565e-05 4.590331e-23 1.975696e-16 -1.3648897e-05 -2.4775118e-09 4.0371566e-07 5.121017e-06 -7.243547e-26
-1.8437787e-19 3.783576e-18 1.3784399e-15 4.113352e-26 -0.16912757 -1.2259191e-09 7.346279e-14 3.5113703e-19
-1.6084329e-09 -0.16387737 1.192591e-25 7.979053e-09 1.3944037e-18 6.170002e-12 -9.0841246e-10 6.2915595e-23
2.3631266e-08 -3.5241015e-09 5.3272124e-23 -0.042040013 -2.1892616e-33 -1.2815439e-13 -9.355188e-13 -3.7471754e-32
0.014605888 -3.6257528e-11 -8.509288e-11 3.011505e-06 -3.2900566e-22 0.010964822 -3.3979594e-17 2.9722128e-10
-8.69214e-12 -0.0016365784 0.09936465 -6.3662893e-13 3.3791135e-08 -3.7987375e-25 0.0013611176 -0.09491886
4.5245016e-10 3.8717136e-18 1.329231e-11 1.5560939e-33 -0.10934144 3.9677736e-32 -4.6572614e-16 -3.2405624e-20
-4.2575438e-15 -0.029392019 -9.280517e-22 -5.063884e-28 2.57e-19 1.3312378e-21 -0.014382907 -9.549813e-25
-1.5754908e-19 9.77806e-06 1.7802314e-07 0.09145406 0.00019589165 1.4861727e-24 9.2437425e-21 5.0938656e-06
0.19932993 -2.2599707e-28 -1.712811e-09 3.4311338e-18 -2.0107395e-08 -0.09259485 -4.1343538e-18 1.3418975e-11
-7.2248735e-23 -1.01820184e-13 0.09622276 -2.700843e-08 2.4449396e-15 -2.1805082e-30 -2.585125e-06 -1.63766e-23
-2.1535873e-23 -4.4379596e-18 4.5392254e-09 -3.0150152e-10 -0.07839226 -2.90784e-19 2.1652034e-15 5.2130195e-10
-2.2074335e-34 -0.055055782 -5.0564596e-22 -5.9880917e-10 -8.666999e-14 -0.00034237935 0.06798384 -1.4413475e-12
-4.2285501e-19 -1.4032557e-33 1.3623448e-05 0.040436212 -3.171909e-17 4.136217e-20 1.7276956e-18 -5.8625834e-14
0.06766116 3.950752e-32 1.8738163e-08 1.1557499e-05 -2.9557254e-06 0.08726553 -1.0015246e-05 -7.021443e-18
-1.3779494e-06 -2.7053136e-06 0.08963438 -8.1445565e-13 8.1170835e-14 2.548643e-17 -4.721377e-19 0.07403854
-6.681158e-15 -0.00078504725 1.4604451e-16 5.7872676e-09 -0.10793854 4.2019452e-19 -1.2154039e-12 -1.4349844e-06
2.3957685e-14 -0.17542562 1.1110021e-11 -1.0083526e-08 -3.7335213e-21 4.2495613e-15 1.04619424e-10 -0.00011254938
-6.2251695e-07 -1.2205288e-06 -1.2005178e-27 0.085253425 5.1180046e-05 -4.3740407e-08 -3.5872636e-29 -3.628393e-06
-0.038784273 -8.248108e-10 -1.6577358e-06 3.0708468e-27 -1.779389e-17 0.14917155 -5.3207787e-21 1.3677665e-06
-1.8591721e-13 -1.6042388e-21 1.8574203e-29 7.459531e-25 -8.232989e-18 1.1136465e-25 -4.5847265e-21 3.811887e-15
1.3808506e-07 3.4312768e-06 8.941797e-14 3.0754374e-16 -0.06329456 -5.2496355e-20 -6.8849607e-31 3.030531e-07
0.00038317486 -0.027405282 2.3713068e-05 4.889212e-29 2.084228e-05 -1.0982924e-08 6.5798933e-10 -1.5691153e-06
1.4047468e-24 -2.8827283e-12 1.0045395e-06 0.0009340307 2.9257892e-27 3.1488269e-06 -3.553101e-08 3.139827e-14
0.13540523 -4.3623182e-05 -5.3700904e-05 5.351996e-16 0.0010265374 -0.044307522 2.9755877e-13 0.0015479118
-9.435611e-09 3.9826075e-15 -0.04593685 2.547582e-10 -0.00019176399 7.00559e-23 -3.3033472e-25 0.064614885
4.5918398e-29 -1.8111043e-18 -2.970792e-18 1.2368735e-25 -0.19553263 -6.147957e-07 -9.189117e-12 -9.3197894e-05
2.1728433e-11 -0.02951527 1.4405822e-10 -9.511717e-15 -0.00041278556 1.0430158e-07 0.07798002 -3.240151e-06

tcn.network.1.conv1.bias f4 [16]
00000000: ad14 a5bc bdce b1bd 0735 963f 2e37 e83a
00000010: 998f ef3e a5a0 25be 5520 b63f f275 a23e
00000020: 84fd 7ebc f698 923f 1612 803f 919b 2ac0
00000030: 4d86 74bd 701d 253e de6b a6bc 5165 ce3f
-0.02015146 -0.0868201 1.1734933 0.001771664 0.46789244 -0.16174562 1.4228617 0.3173061
-0.0155633725 1.145293 1.0005519 -2.665745 -0.05969839 0.16124511 -0.020315107 1.6124669

tcn.network.1.conv1.parametrizations.weight.original0 f4 [16, 1, 1]
00000000: 9bb8 163f 3040 4a3f 03db 423f acea 073f
00000010: 9f70 3d3f d9cd b53f b4fa 563f 4fca c43f
00000020: a709 0e3f 9ea9 9a3f a308 473f fb30 723f
00000030: 9dff 143f 1ad2 693f 76e1 093f 7737 143f
0.58875436 0.7900419 0.76115435 0.53092456 0.7399997 1.4203445 0.8397629 1.537424
0.5548348 1.2083013 0.77747554 0.9460599 0.58202535 0.91336215 0.5385965 0.5789713

tcn.network.1.conv1.parametrizations.weight.original1 f4 [16, 32, 5]
00000000: d72b 95bd 354c 633d 7d30 0dbd 857e 423d
00000010: 19d9 b5bc 129f 693d 3373 753d 4244 7fbd
00000020: e414 8a3d 43d0 623d e394 93bd cbf7 7f3d
00000030: b4d1 49bd a1de 1fbd 4e70 aabd 6170 853d
00000040: f9d8 9abd 3797 38bd cfb7 5ebd 317e 18bd
00000050: 2870 86bd 14ef 863d 919d 56bd f111 403d
00000060: 09ac f6bc 3ee5 1a3d 356f 53bd 6e15 933d
00000070: 3b14 9d3d 29b1 763c 811e 4bbd b220 9dbd
00000080: c039 633c 3687 b4bd 0096 e33c 1dde efbc
00000090: 635a 8bbd 6bee a83d 5553 84bc 86d9 3cbc
000000a0: 6570 583d 5e31 b63c 702b 33bd f8e2 d83c
000000b0: 5229 f4bc e711 acbd 1fd1 7f3d fbd1 4b3d
000000c0: 7e9f 83bd c50c d03c 83eb 5d3c 5614 573d
000000d0: f66b eb3c 59a3 913c cc09 b5bc 46ad b53d
000000e0: 85e2 8b3c 8435 a4bc 7792 693d 02c4 c8bc
000000f0: 0f61 d93c c1f6 843d 2f3b afbd 49ef 3b3d
00000100: 6686 8c3c 9146 113d f17a 243d 3d72 553d
00000110: 00fd 8d3c fb3c 5fbd 5343 943c c9d6 13bd
00000120: 2eab ed3c b73f 603d fd21 713d 7c2e 43bd
00000130: b260 5dbd 7916 c53c 62e0 89bd 6708 4cbc
00000140: a54c 3fbd c48d 94bd a468 af3d 9a4f 99bd
00000150: ee65 44bd aea0 953d c36d 8c3d e36c 91bd
00000160: 1070 b33c 18c6 96bd d3c9 37bc 159e 763d
00000170: efaa 93bd 5e27 aa3d e4d8 55bc b0de 663d
00000180: 2d00 893d 7b3a 6e3d 6338 f93c de7d 483d
00000190: 30df a6bd eef0 81bd 5d1a 793d db3f c0bc
000001a0: 21fc 6cbd 6a1a d5bc 8d45 75bc aaf8 403d
000001b0: 7f72 84bd 7641 ec3b c994 6abd 520a b53d
000001c0: a523 1d3d 853e 94bc 38f6 31bd 7b61 81bd
000001d0: 8b43 833d 75f0 83bd 7a66 b33d ca96 263d
000001e0: d4d3 5f3d 8410 9d3d 5cfc 7c3c 4d8a 50bd
000001f0: fa77 cfba 90dd 5abd f0d9 843c 5594 ad3d
00000200: b1db 98bd 16b3 3fbb 4ec4 883d 9d9d 75bc
00000210: 9dfd d43c 5611 a2bd 31ac 353d 3873 ffbc
00000220: c941 933d 31d6 e9bc 805a a53d 55e7 b3bb
00000230: afd6 943d b141 9f3d 351b b3bd 0829 a6bd
00000240: 6a0b 6cbd f759 923d 1773 9ebd c72b 44bd
00000250: 6bf1 a43d ea18 013d 7736 923d 1b5d 5b3c
00000260: 6c59 80bd 6b2c 413d 4cc3 18bc 82b1 b3bd
00000270: 0a12 8dbd 9f6a 553d 88bd a8bd 04d9 a2bd
00000280: e4ee 23bc cbd6 daa8 c3a8 ac3a 9911 4924
00000290: 8cd6 0bbe bf84 56bc f0b9 72bc e62b bd3c
000002a0: bc9c 71ba 525b 3abe 0675 b9bc 5f2d a3bc
000002b0: 7b09 57b8 d50b 8fa4 7b11 9f3d ebde b337
000002c0: 59e7 fdbb c962 eb23 11c6 cda6 9763 0c3e
000002d0: 8d19 adb9 5dc2 c1bb 67df 9c3c adf8 d5bb
000002e0: 2c7c f5bb 0371 d5bc 0346 1d1c ff22 26bc
000002f0: 8530 f0bb 7098 b0bd 8091 38b5 bdac d336
00000300: bed9 79ac 0d39 0a24 ad93 1bbe d187 0dbc
00000310: b33e 0323 bc84 25b5 9237 08bc c589 cdbc
00000320: f53c 2b9e 4204 833c 0b18 eb3c bc76 993b
00000330: 7ca4 393e 50fd afa6 b539 2030 29e1 6fbc
00000340: e394 1038 0e7e 543c 44ea 82bc 0822 9ab5
00000350: d2ec 883c 1ef9 2ab5 6fbd 013d 023a 6b3c
00000360: 80ec 8639 3d87 8e3c de2c 3b27 02ea 803d
00000370: 2025 833c ebf2 801c 6ad6 833c 186c 70af
00000380: 1edf 043d 1f10 5f26 26cc 1334 fadb ad21
00000390: 67cf 33bc 7d2f 0fbe 7a27 7fbc 114e f89d
000003a0: 8e6b 163c 6e09 be3b 4d9d d8bd a656 29bc
000003b0: 623e 7fbc 84c1 2b31 8433 b1bc 3043 d23d
000003c0: 08e7 83b7 e39c 49b2 c5dc c739 9b85 3a2e
000003d0: bd22 e23d 09b6 fe9d df12 7abc 3785 6e32
000003e0: 35b0 87ad 9e1e 293c dd93 c33b 601e 83bc
000003f0: 98cf 213c 0423 bab5 96c2 c73c 2c3e 593c
-0.072837524 0.0554926 -0.03447007 0.04748394 -0.022198247 0.057036467 0.059924316 -0.062320955
0.06742266 0.055374395 -0.07206132 0.062492173 -0.049272254 -0.039030675 -0.08322202 0.06515575
-0.075609155 -0.045066085 -0.054374512 -0.03722972 -0.06564361 0.06588569 -0.05239636 0.04689211
-0.03011133 0.03781628 -0.051619727 0.07181822 0.07669874 0.015056887 -0.049589638 -0.07672252
0.013868749 -0.08814852 0.027781487 -0.029280717 -0.06804349 0.082485996 -0.016153017 -0.011526471
0.052841563 0.022240337 -0.043742597 0.026475415 -0.02980486 -0.08401852 0.062455293 0.0497608
-0.06426905 0.025396714 0.01354492 0.05250963 0.028738003 0.017778086 -0.022099398 0.0887094
0.017075786 -0.02004505 0.057024445 -0.024507526 0.026535539 0.06492377 -0.0855621 0.045882497
0.01715393 0.035467688 0.04015631 0.0521109 0.017332554 -0.054501515 0.018098509 -0.036093507
0.029012289 0.054748263 0.058870304 -0.047651753 -0.054047294 0.024058567 -0.06732251 -0.012453175
-0.046703953 -0.07253602 0.085648805 -0.07485886 -0.04794877 0.07306038 0.06856873 -0.071008466
0.021904022 -0.07362002 -0.011217552 0.060209353 -0.07210337 0.0830829 -0.013052199 0.056364715
0.06689487 0.05816124 0.030422395 0.04894816 -0.081480384 -0.06344782 0.060816158 -0.023467949
-0.057857636 -0.026013572 -0.0149701955 0.047112145 -0.06467151 0.007209952 -0.0572708 0.08839859
0.03836407 -0.018096218 -0.043447703 -0.06317421 0.06409367 -0.06442348 0.0875978 0.040671147
0.054645374 0.07669166 0.015441027 -0.050913144 -0.0015828602 -0.053433955 0.016217202 0.08475558
-0.07463778 -0.002925103 0.06678067 -0.014991191 0.025999838 -0.07913463 0.044353668 -0.03118287
0.07190282 -0.028544517 0.08073902 -0.0054902234 0.0726751 0.077762015 -0.08745424 -0.08113295
-0.057628073 0.07146066 -0.077367954 -0.04789331 0.08053859 0.0315179 0.071392946 0.013388897
-0.06267056 0.0471615 -0.009323906 -0.08774091 -0.06888206 0.052103635 -0.08239275 -0.07951549
-0.010005686 -2.4296014e-14 0.0013172854 4.3599833e-17 -0.13656062 -0.013093173 -0.014814839 0.023092221
-0.00092167757 -0.18198898 -0.022638809 -0.019919096 -5.1268824e-05 -6.203641e-17 0.07767006 2.1442267e-05
-0.007748526 2.5520588e-17 -1.4278419e-15 0.13709866 -0.00033016168 -0.0059130625 0.019149495 -0.0065298886
-0.007491609 -0.026054865 5.203743e-22 -0.01014018 -0.0073300027 -0.08622825 -6.875707e-07 6.3083994e-06
-3.55059e-12 2.9972304e-17 -0.15193053 -0.008638338 7.114801e-18 -6.1660444e-07 -0.00831403 -0.025090108
-9.06527e-21 0.015993241 0.028697988 0.0046833437 0.18129152 -1.2211725e-15 5.828967e-10 -0.014641085
3.4470937e-05 0.012969507 -0.015980847 -1.1483799e-06 0.016714487 -6.369245e-07 0.0316748 0.014357092
0.00025734678 0.017398471 2.5975786e-15 0.062946334 0.016008914 8.533122e-22 0.016093452 -2.1866275e-10
0.032439344 7.7390515e-16 1.376471e-07 1.1781163e-18 -0.010974742 -0.13982959 -0.015573377 -6.5725772e-21
0.0091809165 0.005799464 -0.10576878 -0.0103356 -0.015578838 2.4993776e-09 -0.02163101 0.10266721
-1.5724e-05 -1.1735412e-08 0.00038120724 4.241017e-11 0.11041782 -6.742146e-21 -0.015263288 1.3883713e-08
-1.5425975e-11 0.010322241 0.0059685544 -0.016005695 0.009876154 -1.3868271e-06 0.024384778 0.013259452

tcn.network.1.conv2.bias f4 [16]
00000000: 5cdd a1be 345f 3c3d 29c3 f33f b548 f03f
00000010: 4d0a d4bc 9b46 0040 e0a2 ad3f d8c9 17bf
00000020: 209e fe3f 0a86 b13f b056 3e3d 170c fdbc
00000030: aaea 893f c786 fe3f a042 9a3e abff e43f
-0.31614196 0.04598923 1.9043933 1.8772188 -0.025883818 2.0043094 1.356533 -0.59292364
1.9892006 1.386903 0.04646939 -0.030889554 1.0774739 1.9884881 0.30128956 1.7890524

tcn.network.1.conv2.parametrizations.weight.original0 f4 [16, 1, 1]
00000000: f67e 193f 08c3 173f 2ab3 ab3f a1ef 833f
00000010: a9c3 383f aa78 b13f d588 2e3f 3777 1e3f
00000020: 366a 0340 9fa2 863f beda 123f a843 4a3f
00000030: 683b 6a3f 252c c43f 0de8 6b3f 0715 8c3f
0.5995935 0.5928197 1.3414052 1.0307504 0.72173554 1.3864949 0.6817754 0.6190066
2.0533576 1.0518378 0.57365024 0.79009485 0.91496897 1.5325972 0.92150956 1.0943917

tcn.network.1.conv2.parametrizations.weight.original1 f4 [16, 16, 5]
00000000: 4ccc 22be 5dbf 133e 83dc c6af 9ac7 0c3e
00000010: 90ba 14be fc8c 18be 9551 2f3e 21e8 21be
00000020: 0005 1abe 3914 c93d d06a f0bd 7653 1cbe
00000030: 935a 8c3d a944 10be 6af6 363e 94c3 333e
00000040: 2c09 adbd ad95 43be 1b7d 4737 de31 c93d
00000050: 66b3 233e e1ff f0bd d0b7 13be 459e 22be
00000060: 4b82 2f3e a4c6 dd3d 289d efbb edeb fa3d
00000070: 3ea4 323e 3d5f d5bd 83f2 cebd e1ed 063e
00000080: 7c75 9f3d fd7f 1bbe 1f16 cabc a103 b5bd
00000090: 958f 3b3e 9c45 1e3e 3718 0ebe a868 c437
000000a0: b86b b2b9 7ea3 093e 19ea b1bd eb76 42be
000000b0: 4d17 49be be7e 22be a37b e41e 4b5b 473e
000000c0: 02ba 1a3e c29b 0b3e aab6 433e c590 0ebe
000000d0: 63ab 48be c713 1a3e 1947 ce3b 2cef 46be
000000e0: 4352 74bd df44 0bbe f825 d1bd 34e7 50bd
000000f0: a8f6 acbd b143 473d 3037 4328 ebb9 23be
00000100: 477f e1bd 7c74 2bbe ed51 0b3e 9bdb 453e
00000110: f8a1 de2f 5da2 0ebc a419 303e 1fb7 aabd
00000120: 1e37 b53d ca28 3dbe a036 171d 1cb9 223e
00000130: ca61 b8bd 7308 49be 7bce 34be e06f a23b
00000140: 936c 98bc 3376 04bd cc50 c63d 0711 c03d
00000150: 6c4d f53d 8506 c7bd 362f aabd f83b 643d
00000160: f297 fa3d e484 f3bd 1a97 bcbc 8321 873d
00000170: fe10 6b3d 82aa 0fbd 1ceb c33d 791d 5d3d
00000180: af80 c53d a3cd 0a3d 7ffc 983d 6d45 873b
00000190: 2e4d 8d3d dac8 9abd 88cd de3d e277 febd
000001a0: 68d1 4d3d c336 cc3c 91aa b9bd 2326 eabd
000001b0: ec04 1e3d a3ef 5abd e722 b53c a61d a7bd
000001c0: 788b 63bd d2c9 f9bc d2ba ddbd dbfb 78bd
000001d0: 66aa c1bd 6513 7abd 70f8 a9bd 09f3 2c3c
000001e0: 1ad3 873d d8d9 e03c eb77 f63d ff5d d53d
000001f0: 822e 9b3d 74c6 d2bd e184 ed3d ac9b f03d
00000200: b0cc 91bd 787f d13c 7dc8 b73d 9f03 ec3d
00000210: c842 393d 073a bdbd 0ab3 323d d2d9 3abd
00000220: 6bf9 99bd 96e0 c03d ae65 e53d e639 c43d
00000230: 10f1 4d3d 9c4b 69bd 09da d53d eee5 803d
00000240: e044 cfbd 2973 c83d 72a7 1fbd 9562 2bbd
00000250: 2325 ec3d 9188 d0bc c09e 73bd 6b47 c2bc
00000260: 3d17 e7bd a6ba 5dbd 6f56 f03d 329a b93d
00000270: ab8e 87bd b2a9 993d 1261 f8bd 7e4c 3cbd
00000280: 6953 1237 bb01 7605 5bf9 9227 56b0 b5ba
00000290: ec6e 2bb9 e177 7211 4239 19ad f5bc 9bb5
000002a0: 9f50 5938 63f9 b7bc 1870 68b5 8604 210d
000002b0: c803 8732 c3b4 e499 70c0 8c3d a521 7d14
000002c0: b43d 82ac 291d 84b5 8752 9f34 5311 de8f
000002d0: aa58 3438 e874 8137 f254 713b 0657 e8ba
000002e0: 7147 c93c 51b9 2299 113b 2839 0c03 f528
000002f0: aba9 6a32 f57d 133e 3417 6b9b dd4f 3f1a
00000300: 0182 aa39 fc16 8689 1a28 e13d 8190 3926
00000310: 8d9f 8ba8 2723 4036 a3c2 ef8d b4c4 11be
00000320: 6cd0 4bb9 46dc 44b8 b30c 2421 0f5b 552f
00000330: 8946 572b b308 2d3b 37c5 fb2d 1866 a330
00000340: df19 c9b9 4843 86be 4286 631c a696 16ac
00000350: aafd bdaa f6de cc0f 0aaa ae3d 8ebb 4c19
00000360: 95ab da90 5c2e 892a 4ef0 ac31 23d4 3ebe
00000370: 55c5 45b5 d554 5487 1bc1 09a9 4521 7baf
00000380: 369a c1b2 c0c5 183b 6b61 a71a dd10 623a
00000390: 5e18 c2ba 5b2f 3f3e 94a0 c20f e02a c230
000003a0: bfb2 06a7 6d16 f72f f9d2 97b7 299a 12a6
000003b0: a77b a69f 21c8 8039 18b8 de1f 91ef 3b3c
000003c0: a276 05b9 db91 8eb5 4b13 5519 cac5 04b0
000003d0: 2fef d022 78b9 1215 9abf eba7 1ad0 7521
000003e0: d8a9 b28e 0612 10bd 2ae5 b30f fd69 a623
000003f0: 8e26 4433 e801 b9b9 bfb5 b53d 1ae0 4510
-0.15898246 0.14428468 -3.6172673e-10 0.13748017 -0.14524293 -0.14897531 0.17120965 -0.15811206
-0.1504097 0.0981831 -0.11739123 -0.15266213 0.06853213 -0.14088692 0.17867437 0.17555076
-0.08449015 -0.19100066 1.1890453e-05 0.098239645 0.15986404 -0.11767555 -0.14425588 -0.15880688
0.17139547 0.10828903 -0.0073124357 0.122520305 0.17445466 -0.10418556 -0.10104849 0.13176681
0.0778608 -0.15185542 -0.024668751 -0.08838583 0.18316491 0.15456241 -0.13876425 2.3413755e-05
-0.00034031062 0.13441274 -0.08687229 -0.18990676 -0.19637795 -0.15868661 2.4191574e-20 0.19468419
0.15110019 0.13633636 0.1911265 -0.13922413 -0.19596629 0.15046607 0.0062950966 -0.19427174
-0.059648763 -0.13600491 -0.1021232 -0.051001742 -0.084454834 0.04864854 1.0836641e-14 -0.15988891
-0.11010604 -0.16743654 0.13605471 0.19322054 4.049665e-10 -0.008705703 0.17197281 -0.08335709
0.088484034 -0.18472591 2.0012924e-21 0.15890926 -0.09003027 -0.1963213 -0.17656891 0.004957184
-0.01860646 -0.032339286 0.096833795 0.09378248 0.11977658 -0.097180404 -0.08309786 0.055721253
0.122360125 -0.11890581 -0.02302127 0.06598189 0.057389252 -0.03507472 0.09566328 0.053983185
0.09643685 0.033887517 0.07470035 0.0041281492 0.068994865 -0.07557841 0.10879046 -0.124252096
0.050248533 0.024928456 -0.09065736 -0.11433055 0.038578913 -0.05345119 0.02211137 -0.08159952
-0.05555293 -0.030491743 -0.10826649 -0.060787063 -0.09456329 -0.061053652 -0.08299339 0.010555991
0.06632061 0.027447626 0.12034591 0.10418319 0.0757723 -0.10291758 0.1159761 0.11748442
-0.07119119 0.025573477 0.08973787 0.11524128 0.045229703 -0.092395835 0.043627776 -0.045617886
-0.07518276 0.09417836 0.112010345 0.09581356 0.050278723 -0.056956872 0.104419775 0.062938556
-0.10120559 0.0978759 -0.038978048 -0.041842062 0.11530521 -0.025455745 -0.059477568 -0.023715695
-0.11283729 -0.05413308 0.11735236 0.090626135 -0.06619009 0.0750307 -0.1212789 -0.045971386
8.721699e-06 1.1567182e-35 4.0793492e-15 -0.0013861756 -0.00016349152 1.9127374e-28 -8.709757e-12 -1.1603394e-06
5.1811916e-05 -0.022457784 -8.658985e-07 4.96174e-31 1.5717788e-08 -2.3647657e-23 0.06872642 1.2779871e-26
-3.7016726e-12 -9.843253e-07 2.9676104e-07 -2.1897563e-29 4.299792e-05 1.5432437e-05 0.0036824313 -0.001772613
0.024570199 -8.412628e-24 0.00016043732 2.7201785e-14 1.3659171e-08 0.14403518 -1.9446242e-22 3.9562387e-23
0.00032521787 -3.228094e-33 0.10993977 6.438061e-16 -1.5501294e-14 2.863069e-06 -1.4776369e-30 -0.14235193
-0.00019437232 -4.6935187e-05 5.558217e-19 1.9404588e-10 7.648123e-13 0.002640289 2.8622977e-11 1.1888828e-09
-0.00038356983 -0.26223207 7.5281524e-22 -2.1399909e-12 -3.374916e-13 2.0201835e-29 0.08528526 1.0584429e-23
-8.62502e-29 2.4368257e-13 5.0331783e-09 -0.18635611 -7.3675375e-07 -1.5974037e-34 -3.0587603e-14 -2.2840137e-10
-2.2538284e-08 0.0023311228 6.922697e-23 0.00086237286 -0.0014808287 0.18670408 1.919173e-29 1.4127544e-09
-1.8693134e-15 4.4944973e-10 -1.8098845e-05 -5.086285e-16 -7.05083e-20 0.0002456317 9.4325215e-20 0.011470691
-0.00012728063 -1.0622274e-06 1.1015738e-23 -4.8302395e-10 5.663176e-18 2.9630774e-26 -6.5433338e-15 8.328465e-19
-4.404394e-30 -0.03517344 1.7739034e-29 1.8042644e-17 4.566987e-08 -0.0003528737 0.08872556 3.902404e-29

tcn.network.1.net.0.bias f4 [16]
00000000: ad14 a5bc bdce b1bd 0735 963f 2e37 e83a
00000010: 998f ef3e a5a0 25be 5520 b63f f275 a23e
00000020: 84fd 7ebc f698 923f 1612 803f 919b 2ac0
00000030: 4d86 74bd 701d 253e de6b a6bc 5165 ce3f
-0.02015146 -0.0868201 1.1734933 0.001771664 0.46789244 -0.16174562 1.4228617 0.3173061
-0.0155633725 1.145293 1.0005519 -2.665745 -0.05969839 0.16124511 -0.020315107 1.6124669

tcn.network.1.net.0.parametrizations.weight.original0 f4 [16, 1, 1]
00000000: 9bb8 163f 3040 4a3f 03db 423f acea 073f
00000010: 9f70 3d3f d9cd b53f b4fa 563f 4fca c43f
00000020: a709 0e3f 9ea9 9a3f a308 473f fb30 723f
00000030: 9dff 143f 1ad2 693f 76e1 093f 7737 143f
0.58875436 0.7900419 0.76115435 0.53092456 0.7399997 1.4203445 0.8397629 1.537424
0.5548348 1.2083013 0.77747554 0.9460599 0.58202535 0.91336215 0.5385965 0.5789713
