darts_logs/TCN_air/checkpoints/best-epoch=62-val_loss=0.04.ckpt (torch, 31827 bytes, 49 tensors)

res_blocks.0.conv1.bias f8 [3]
000000 96 d9 64 97 96 e3 d3 3f 7e 3e 5c d9 39 7d b8 bf
       0.31076588425221396 -0.0956607967057099
000010 0a 53 22 e8 12 88 c4 3f
       0.16040264448806624

res_blocks.0.conv1.weight_g f8 [3, 1, 1]
000000 45 ab ae 23 62 47 f4 3f 5f 20 8e de f5 e6 e1 3f
       1.267427577384937 0.5594434115200889
000010 48 49 5f 46 2c cd e4 3f
       0.6500455259759201

res_blocks.0.conv1.weight_v f8 [3, 13, 5]
000000 57 6e a1 99 fa d6 ac bf f1 25 c1 56 83 e6 c2 bf
       -0.05632765889523899 -0.1476596997838864
000010 bf a8 ea 8b 9d cf 93 3f 80 f1 8b 63 4d 23 c3 bf
       0.019346677460511993 -0.14951484070469334
000020 9c 36 ef 24 88 75 df bf b5 cf 44 61 9f 2f 60 bd
       -0.4915485726058735 -4.600345191401196e-13
000030 a1 4c 1e 8f c3 87 ea 3d 3e 92 52 15 58 68 c3 bc
       1.9303354015854714e-10 -5.386689440156678e-16
000040 b5 fe 1d 65 f0 c9 4b 3e ed 34 3a c9 46 7b 0a 3d
       1.2940179736552697e-08 1.1760170108541374e-14
000050 bf 3d 8b c7 0c 30 29 3d 18 4f bd 26 98 a6 9d be
       4.4742334280578926e-14 -4.4183074153946233e-07
000060 18 f9 5d 88 bd 13 ac 3b e0 6e b7 31 a0 a5 d6 bb
       2.9727797377748894e-21 -1.9182734505454588e-20
000070 df 44 d3 f3 b4 99 90 3b 6f 06 a6 81 f9 67 95 bf
       8.788187779033957e-22 -0.020904444254034645
000080 2c a0 8a ad 4e fc 51 ba 19 70 e6 58 3d 53 59 3d
       -9.080395131561245e-28 3.5989209600010317e-13
000090 7f f5 81 e8 67 03 40 bd 4f 1f f8 2a d3 5c 21 bf
       -1.1378137020166048e-13 -0.00013246610386396593
0000a0 a9 9a 6d 57 8b 53 db 3e a4 7c 99 b0 0f 7f 15 bd
       6.51510833091807e-06 -1.9092579213610842e-14
0000b0 f5 67 90 fd 3b 28 94 3f a4 c9 65 e1 fa e3 bd 3c
       0.01968473181850779 4.148146670880646e-16
0000c0 e8 ae 30 c4 81 2a 37 bb 8b 6d 75 10 c0 c8 24 bd
       -1.916250128979713e-23 -3.692012148184732e-14
0000d0 1e 77 ff 61 db 5a 80 3d 37 16 86 70 e1 b7 11 3e
       1.8593380009332783e-12 1.0313398486747632e-09
0000e0 a1 b8 da c1 ca 59 8b 3b 16 47 4c 8f a2 8c e1 ba
       7.239683265590128e-22 -4.536402063591446e-25
0000f0 b9 e5 10 5f 8c 1c 7e bd 4b bf 4f 9b f0 15 84 bd
       -1.7116415675016143e-12 -2.2834800139051528e-12
000100 e0 65 06 96 c1 18 c0 bd 87 a2 dd f0 86 06 99 bf
       -2.927973380515217e-11 -0.02443896145942628
000110 12 0f 4f 7f 50 fa ae 3e d0 89 14 d0 ad 06 c4 3e
       9.232101080215637e-07 2.3872959224052284e-06
000120 3c 70 a5 19 7c 4a d7 bd 7b 79 f8 9c 39 7e 0b 3b
       -8.473200475592967e-11 2.8427164596333165e-24
000130 2c 6a c7 fc 0f fb 00 3f d1 9b 14 01 36 2a 3e 3c
       3.238813914992577e-05 1.6352417759187968e-18
000140 7e 25 70 b3 8b e0 45 3e 17 84 8b 79 0a 71 18 be
       1.0187333294666481e-08 -1.4226863907263752e-09
000150 6e e0 ed a0 f9 d9 95 3f 07 33 f4 84 91 eb 44 3e
       0.021339321563090534 9.741722233167039e-09
000160 1c 5f 26 b5 49 ad 7c 3f 11 5a 85 30 48 2d c6 bd
       0.007001197739007894 -4.0339514771192334e-11
000170 0c 48 96 c5 8b e9 55 be ab 67 fd 18 5d ed 8a 3e
       -2.0407409406066715e-08 2.0062328731190209e-07
000180 de dd 70 ac c4 50 eb be 5c a9 6e d6 e6 a7 e3 3c
       -1.3025045872179971e-05 2.182239506059309e-15
000190 59 3d 85 5d a3 59 94 3f 3a 14 a0 b7 b9 d0 c8 3f
       0.019873192389522874 0.1938697954757645
0001a0 4f fb 24 10 26 35 d1 3f 02 0c 74 76 e7 30 cd bf
       0.2688689382229556 -0.22805493625500622
0001b0 b8 a6 b2 d0 be 1b c5 3f a4 09 ec 2d c5 8b bd 3f
       0.16490922155690213 0.11541397448676222
0001c0 2c 38 00 c6 4c 51 b2 3f 7d 9f 85 e4 c4 b7 a0 3f
       0.07155303796773244 0.03265204705786482
0001d0 2f 63 a7 f5 be 00 9e 3f 39 84 bc e6 2f 66 b4 bf
       0.02929972051956325 -0.07968425162518224
0001e0 7a 6f a5 78 96 58 c2 3f 99 32 91 10 4a 1f 93 bf
       0.14332848444871243 -0.018674046765499417
0001f0 93 69 82 e9 5a e2 90 3f 3b d2 9a 35 72 9c d5 bf
       0.016488476278576036 -0.3376737140163503
000200 ba 00 3a 9a aa 46 cc 3f ee 63 0e 4d bf d8 b5 bf
       0.22090656786531843 -0.08533855086569961
000210 dc eb 72 53 25 c2 b4 3f 3e 13 8b 50 51 67 9f 3f
       0.08108742987944545 0.03066756300065098
000220 dc 71 3a 88 d5 12 c2 bf 9f cc ca 6f 29 36 a1 3f
       -0.1411997714211698 0.03361634721422856
000230 cd ce b3 32 0a 0b b1 3f 1a e6 72 ba 27 82 c0 3f
       0.06657470453120169 0.12897202114054168
000240 a7 3e 71 19 f2 68 b8 bf 69 d0 22 53 60 d3 a8 bf
       -0.09535134431029722 -0.0484876729473463
000250 3c 38 1e 6c 0c 9a b4 bf 0d 0b ce 5a 8b 32 c2 3f
       -0.08047559394455644 0.14216749128180375
000260 3e c6 de 69 19 09 c3 bf 51 e3 52 f0 36 6f ab 3f
       -0.14871518773502318 0.053582875095748
000270 20 0d 1b f7 00 7c ab 3f 69 74 fb 01 e9 23 c1 bf
       0.053680448688760984 -0.1339083919218951
000280 54 d4 dd ef 66 eb b3 bf 99 d6 a5 c1 7f 9c b7 3f
       -0.0778107009517311 0.09223173597077973
000290 89 18 bb c4 0b f3 c3 3f 93 99 a3 41 e8 af c0 3f
       0.15585467439649772 0.13036826329262094
0002a0 89 2d 54 db cd 7c b6 bf ec cc d7 70 77 d0 c1 3f
       -0.08784185986239924 0.1391743947020595
0002b0 84 fb 36 ab e4 52 c0 bf 76 ae 0d 22 0d bf b4 3f
       -0.12752970085236026 0.0810402115000047
0002c0 88 92 71 48 9d e0 ad bf e1 9e ff f4 db 55 ba 3f
       -0.05835429677316478 0.10287260753068096
0002d0 35 cc c4 54 70 b7 b6 3f ef 0a 45 86 0d 37 c3 bf
       0.08873655385541286 -0.15011757904183962
0002e0 4a 72 ca aa 36 5e b4 bf c4 df be ae f0 aa ae bf
       -0.07956258458802626 -0.05989791997075103
0002f0 99 83 24 72 a2 0d ad bf c9 0b 38 80 d3 d4 aa 3f
       -0.056744648393084414 0.052404984857296784
000300 61 03 dc 0c 10 8b b2 3f 9d 5a 17 1c df 91 b7 3f
       0.07243442834807247 0.09206957279034574
000310 e7 80 f2 9a 78 99 b2 3f 79 f7 8a 29 f4 c3 b1 bf
       0.07265428336041034 -0.06939626707295855
000320 1b 28 88 d3 82 40 bb bf 29 47 9b 5a 6d 9e b6 bf
       -0.10645311035492037 -0.08835490667413794
000330 07 36 ca 4e e7 49 c3 3f fe 30 8b df 3e 32 aa 3f
       0.1506928572384114 0.051164593494464214
000340 58 9b bd 6a 8d 64 c3 bf c7 e0 17 77 aa cf c3 3f
       -0.1515061160273159 0.15477495970822572
000350 90 61 42 47 04 eb b5 bf 48 e4 a7 51 92 ff c1 bf
       -0.08561732043961556 -0.14061192500210695
000360 6b 34 f8 b2 3b 42 c2 3f 5a 3e fb 0d 4a 3d b7 bf
       0.14264627684352446 -0.09077895013182893
000370 c9 a9 44 84 38 ae aa 3f 93 ee 99 27 b8 8c b1 3f
       0.05211044897653811 0.06855345694378405
000380 d6 3f 44 0b 79 b4 c3 3f e1 6b 8c c5 75 cb bd bf
       0.15394509363295467 -0.11638580391847554
000390 bb 6d ac 9f d0 ad bb bf 0b 8f f6 4e bc 54 be bf
       -0.10812095545082105 -0.11848046233950187
0003a0 2a 00 f3 15 d5 fc c2 bf 75 bd 50 f6 7d da b6 3f
       -0.14834083148707694 0.08927142394599293
0003b0 f5 08 a4 ff c1 ac a8 bf 20 9f bf f8 2d 02 91 3f
       -0.04819303746809737 0.016609876925854583
0003c0 7c 22 ff 54 77 e5 a8 bf 38 c9 1b cb 98 49 bf bf
       -0.04862568771892925 -0.12221674879746025
0003d0 fc 55 68 55 dd 35 bd bf b4 ec ef e9 95 d4 98 bf
       -0.1141031583323055 -0.02424844971026792
0003e0 b5 8a e8 69 10 84 b6 3f 04 3a 96 39 81 5f aa 3f
       0.08795263848927955 0.051509893684045266
0003f0 88 0b db 7a 6b 98 ad bf f0 9c 9c fa ec c7 b5 bf
       -0.0578034961195249 -0.08508187406970413
000400 cc 0a dc 25 ad 64 ad bf 8a 43 7d d5 7a b2 b1 bf
       -0.057408724662328575 -0.06912963592664148
000410 5f 61 ef 6f a3 d5 dd 3f cd d4 b2 11 be 5e d4 3f
       0.46616445475731 0.3182826207005974
000420 c3 4a 96 75 35 2e ca 3f 65 35 bf c4 97 4b c1 bf
       0.20453518144184643 -0.13511941057951585
000430 ea 14 04 54 8b 09 a2 bf eb eb 56 3c ba c3 bf 3f
       -0.03522906685433631 0.12408031438000904
000440 aa 56 75 88 44 07 67 3b ac d3 59 69 a9 6c a6 bc
       1.523890985374023e-22 -1.5560094889478588e-16
000450 3a d3 f0 fc f3 af bd bb f3 2f b1 eb 75 55 c2 3f
       -6.286533842698293e-21 0.14323305138020678
000460 12 93 b9 1f ac da c4 bf 22 b3 9d ce b3 d8 5d bd
       -0.16292335080211068 -4.241441848551566e-13
000470 35 91 1f 07 d1 78 b6 bf 2e 1a 2b 98 bc 1b b2 3d
       -0.08778101371678278 1.646944517441196e-11
000480 70 5f b5 a8 a7 48 98 3f e9 30 d0 ad 68 ab 9a bf
       0.023714656517170807 -0.02604449807044854
000490 29 f5 ce 36 49 23 65 bf 9e 0d ca 67 e6 83 b2 3f
       -0.002580302234916805 0.07232513460080844
0004a0 64 df 36 d1 1e 43 c3 bf 43 19 b6 ac 38 8f a9 3f
       -0.15048585143608328 0.04992081745426671
0004b0 69 67 63 b2 02 e0 4e be 7f 2f f9 5e 6c 4b bf bf
       -1.4377311407751022e-08 -0.12224461859403667
0004c0 e0 d5 46 21 42 c0 46 3f d9 55 e6 da d5 d3 b2 bf
       0.0006943056965186788 -0.07354485124809375
0004d0 4a 94 00 a9 8d a3 f9 ba db 10 08 eb 2e 6c 17 bc
       -1.3254990451332338e-24 -3.1743529941753295e-19
0004e0 db 80 82 a1 ba 0c c5 3f a2 ed 3f 4d 77 1f b5 bf
       0.1644509590742079 -0.08251138339976774
0004f0 a9 68 1a 9d a9 ce b5 3f 33 d3 58 73 87 5b b4 3f
       0.08518467031027178 0.07952162328804206
000500 a0 26 aa ae 13 7d ba 3f c2 c3 f1 a5 86 75 c2 3f
       0.10347102178834655 0.1442116079593046
000510 9e c3 63 3c 88 93 42 bd a1 cd 57 f5 a7 6d b9 bf
       -1.319925327778956e-13 -0.09932946910685427
000520 a9 5a e4 e3 e2 b9 c3 bf d4 77 9a 28 db 9e bd 3f
       -0.15411029937304946 0.11570520154279446
000530 05 e4 8c c7 4c 22 b7 3f c5 bf 3e 5d a2 91 c0 3f
       0.09036712524256536 0.1294444041536719
000540 e6 78 bc 11 48 6b c5 bf d1 50 a4 7f bb 6f c5 bf
       -0.16733647218729358 -0.16747230274689298
000550 13 b8 bf e0 3f 1a cc bb 45 53 b4 33 83 53 2c bd
       -1.1901887454830629e-20 -5.0317475933762026e-14
000560 92 95 35 ee e7 f5 b4 bf d6 36 a4 2e b7 8a c2 3f
       -0.0818772274556834 0.1448582628003609
000570 53 a3 18 ab 2a bd b1 3b 32 0d 88 1c 38 72 c1 3f
       3.756365030460729e-21 0.1362981929124572
000580 5a b5 7d 3e ff 17 c3 3f 05 2e f5 81 e7 6e 62 3f
       0.14916983176537252 0.0022501489289987763
000590 59 4c a4 3e 62 6f c4 bf 02 b6 d6 20 a2 15 84 3c
       -0.15964916285210753 3.484106255441386e-17
0005a0 97 d3 a7 e3 b0 6e c5 bf af 70 37 12 ab 20 d1 bf
       -0.16744052043909782 -0.2676189115425229
0005b0 d2 7d d0 e5 5c a7 c7 bf 4b 0a 70 fa e9 ef b6 bf
       -0.18479500981719227 -0.08959829677773105
0005c0 af b7 cd 63 15 5b cb 3f 4b bb 30 a9 c9 f9 cd bf
       0.213717149479121 -0.23418541680572455
0005d0 77 f7 76 da 6f b8 ca bf 14 5e 43 47 17 77 b8 bf
       -0.20875356833669986 -0.09556718339751341
0005e0 37 1e a3 24 27 cd a1 bf 75 de 50 40 a6 9b 9d bf
       -0.034768317434608446 -0.028914067912607828
0005f0 3e 00 f6 1b 58 f6 cc bf 13 87 d8 21 fe bf d1 bf
       -0.22626782765655834 -0.2773433046842097
000600 6e 94 df 71 01 c3 ba bf 7c a0 65 12 d3 37 9b bf
       -0.10453804998503965 -0.026580141065466453
000610 a3 29 00 ea 94 a6 b2 3f
       0.0728543349543203

res_blocks.0.conv2.bias f8 [3]
000000 6f 9f 7f 9c 61 b9 d0 bf dd b5 a3 a2 3e f6 d9 3f
       -0.2613147762590335 0.40565458185923636
000010 13 19 83 3c 42 5d b3 bf
       -0.07564176537843918

res_blocks.0.conv2.weight_g f8 [3, 1, 1]
000000 1d d2 06 56 f7 f5 de 3f d8 e7 7e 2f b6 cf e1 3f
       0.48376258278884327 0.556605427517975
000010 1a f1 c7 de fe c5 eb 3f
       0.8679193831626748

res_blocks.0.conv2.weight_v f8 [3, 3, 5]
000000 50 8f 37 40 08 06 b5 bf 2b 28 af 32 92 94 b4 bf
       -0.08212329452322575 -0.08039201486022367
000010 f5 7c c1 41 98 c8 c0 bf a3 19 14 51 25 cd b1 bf
       -0.13112166605694822 -0.0695365260072323
000020 c7 cd b7 9c 55 90 d0 bf 28 84 82 d6 d3 15 b9 bf
       -0.25880947403421967 -0.09798931109482167
000030 d1 80 09 b7 2f 58 a5 bf a9 a2 c6 79 1c fd cb 3f
       -0.041688433736227666 0.21866184183206386
000040 d5 a0 89 a9 6b 4b bc bf ac 93 d8 e2 51 11 b1 3f
       -0.11052582635022941 0.06667053020699026
000050 af a3 8b ab 64 05 c7 3f 07 0d 1a 0d 37 06 95 3f
       0.17985208870166278 0.02053152101008229
000060 62 8d 4b 52 26 f9 c9 bf 27 0b 6a 1c f6 bd 8a 3f
       -0.20291594522778228 0.013057635061391416
000070 1e 97 b0 e9 f4 97 ca 3f f2 26 4b b7 e5 7d 9f 3f
       0.20776235018382122 0.03075369769320608
000080 8d 8b 5a ed 7b 9a b3 bf 81 e9 0c f3 ca 93 94 bf
       -0.07657599015014523 -0.02009503468000551
000090 d5 21 da cb 90 fa c4 bf f4 6d 66 62 fa 5b d9 3f
       -0.16389665559496672 0.39623889550577407
0000a0 39 57 26 16 24 ae d3 3b 74 93 04 de 58 20 a8 3d
       1.6669810111540702e-20 1.097139648060605e-11
0000b0 2a 00 b5 e5 49 73 c5 3c 03 2e a6 b3 bf 1d c8 3f
       5.95366709632775e-16 0.1884078623955788
0000c0 e2 f8 28 3b c7 0a 77 3d 6e 15 c8 6d 51 85 bb 3f
       1.3097918852757324e-12 0.10750302248205454
0000d0 52 98 16 4c 71 a9 b2 3f dd e4 d3 ff 8a fc c2 3f
       0.07289798839210107 0.1483319996985192
0000e0 7c 24 e8 50 cf ea ca 3f 40 d8 96 cf b6 5f da 3f
       0.21029082727935478 0.41209192535768935
0000f0 72 73 6e bc 80 99 d4 bf 9e 77 1f 03 a4 8a c4 3f
       -0.3218690719748373 0.1604809775589588
000100 58 7f 94 43 b6 8c 9d bf 04 b0 06 d7 f0 ba d7 bf
       -0.02885708606220247 -0.3707849597801671
000110 ea a4 2d 01 a3 9b dc 3f c8 81 d6 61 5c 4b 43 bd
       0.44699931254451875 -1.37094804061548e-13
000120 05 5c 27 f2 c2 8c fa bb 7f e6 b5 43 c1 22 85 3a
       -8.995438955405316e-20 8.536666078897159e-27
000130 4f bc e2 19 36 32 ce 3c 5f d2 4f 8e c6 8c 15 be
       8.381111920451458e-16 -1.2543695468152224e-09
000140 fa 36 2b fa 9e a2 d7 bf 29 47 05 cb c2 35 ae bf
       -0.36930059843585605 -0.059003913195409936
000150 4a 88 34 65 63 b9 95 3f 7f b5 06 b4 6c 9b bc bf
       0.02121501260001705 -0.11174659152194087
000160 5c 95 f7 77 fc cf be 3f
       0.12036111763844332

res_blocks.0.conv3.weight f8 [3, 13, 1]
000000 ae 6f 81 a1 90 2f d4 bf 00 00 00 a0 02 2d c3 3f
       -0.31540313503296147 0.14981110394001007
000010 00 00 00 e0 3f 6a cc 3f 00 00 00 80 84 78 d0 bf
       0.22199247777462006 -0.25735580921173096
000020 00 00 00 80 63 7b d0 bf 00 00 00 40 3c de c1 3f
       -0.2575310468673706 0.13959458470344543
000030 00 00 00 40 cf a6 bc bf 00 00 00 00 5d b0 c1 bf
       -0.1119203120470047 -0.13819468021392822
000040 00 00 00 60 a7 65 d1 3f 00 00 00 c0 f0 4b c0 bf
       0.2718294560909271 -0.12731751799583435
000050 0a ad 4f 6f 5d 1f 90 bf 34 54 a7 5d d8 9d d5 bf
       -0.015744647902391974 -0.33775910516607444
000060 98 17 49 5b d4 04 d8 bf 9d d7 33 c1 b3 d0 d2 3f
       -0.37529477038003156 0.29398816935951705
000070 00 00 00 80 0a c5 c1 bf 00 00 00 c0 da 20 cf bf
       -0.13882571458816528 -0.24319013953208923
000080 00 00 00 a0 93 3b b2 3f 00 00 00 e0 46 3e d1 bf
       0.07122156769037247 -0.2694260776042938
000090 00 00 00 a0 99 67 c3 bf 00 00 00 00 b9 82 b4 3f
       -0.15159912407398224 0.08011966943740845
0000a0 00 00 00 80 47 fc b3 3f 00 00 00 60 18 aa 70 bf
       0.07806822657585144 -0.0040684654377400875
0000b0 00 00 00 e0 e4 39 ca 3f bd 6d 82 33 27 91 d0 3f
       0.20489178597927094 0.258859443952783
0000c0 b9 c7 10 11 4c 54 cc 3f 13 5f 66 5f 0a eb cc 3f
       0.2213225444152707 0.22592286737630526
0000d0 7e 6f ea 10 02 c5 de bf 00 00 00 80 7d d2 c1 bf
       -0.48077441837244084 -0.13923615217208862
0000e0 00 00 00 60 ed ad c7 bf 00 00 00 40 fa ac cb bf
       -0.18499533832073212 -0.21621635556221008
0000f0 00 00 00 e0 e9 d9 ce 3f 00 00 00 40 02 0b bd bf
       0.2410251945257187 -0.11344923079013824
000100 00 00 00 40 9e 09 d1 bf 00 00 00 c0 4c b0 c3 3f
       -0.2662120461463928 0.15381774306297302
000110 00 00 00 20 3b 49 d1 bf 00 00 00 40 a6 52 bd bf
       -0.2700946629047394 -0.11454237997531891
000120 0e 43 8d 2a 9b 06 cd bf 74 e1 95 01 3f 89 9b bf
       -0.2267641027233584 -0.02689073989083242
000130 05 85 05 ad 18 91 73 3f
       0.004777046575641157

res_blocks.0.conv3.bias f8 [3]
000000 ad 0b 2a f0 e4 09 73 bf 75 6c 47 35 e4 ac c3 3f
       -0.0046481078048853765 0.1537137279654847
000010 7c 57 61 bf d2 77 b0 3f
       0.06432835743302506

res_blocks.1.conv1.bias f8 [3]
000000 ee 5c 95 0e 85 e8 c9 3f d1 53 bf 1a cd 26 d1 3f
       0.202408439751458 0.2679932366566478
000010 db cb f9 a3 f1 f1 c8 3f
       0.1948835421240734

res_blocks.1.conv1.weight_g f8 [3, 1, 1]
000000 fa d5 b9 99 0e 3d b7 3f fd 74 66 d4 09 b8 e7 3f
       0.09077540638994455 0.7412156246606681
000010 64 06 1f e3 6f 83 ed 3f
       0.9222945629082457

res_blocks.1.conv1.weight_v f8 [3, 3, 5]
000000 3a 8b 43 9c 6f 51 c7 3f 2e 2a c2 f2 27 71 cf 3f
       0.1821727288252875 0.24564074853363266
000010 79 02 78 80 6f 4f e4 bf 02 c1 ed 5c 4e 27 d2 bf
       -0.6346967229038248 -0.28364905428954057
000020 eb 08 b0 1f 6d af d0 bf fc f6 fd d9 63 89 c7 3f
       -0.2607071694802829 0.18388031143324912
000030 5e 4f fb 71 6e f0 9c 3f ae 8e 5d b2 cc 18 9d bf
       0.02826092310608829 -0.028414915453494664
000040 33 4f a3 82 88 3d bd 3f d1 2b 4d 16 0a 88 d3 bf
       0.11422017278101464 -0.3051781862056347
000050 91 a5 35 a2 c3 22 dc 3f 03 6c d9 2f cd ce c6 3f
       0.4396218380048476 0.17818608127967658
000060 74 aa 21 51 3a c6 d2 3f cf 1d ef a0 5f ea d0 bf
       0.293348864774692 -0.2643050262090271
000070 62 3b 9b 0e 2c ca a8 bf 2d ea 3f 22 da 85 d0 bf
       -0.04841745069790339 -0.2581696829289822
000080 5a 1e 6b 09 a4 fe d0 bf 73 22 40 8d 77 c6 d2 3f
       -0.2655420391060709 0.2933634642982163
000090 5c 42 11 d4 65 9e ce 3f 9d 83 78 c7 d0 32 b7 3f
       0.23920891623358187 0.09061913366214332
0000a0 34 7d 07 34 8f 7b d6 bf 33 da 00 0b 3f a5 bb bf
       -0.3512914665315805 -0.10799020784984563
0000b0 f5 34 52 88 cd 50 be 3f 20 22 86 f2 10 55 c1 3f
       0.1184204538169132 0.1354085144232764
0000c0 42 ab 51 42 2c 01 bc bf ae 28 60 8e 8b 4a e8 bf
       -0.1093928968345326 -0.7590997486852495
0000d0 62 25 02 df f9 f4 d0 bf 67 5a c8 fc 19 7b c0 3f
       -0.2649521520439376 0.1287567600526984
0000e0 ac a2 b8 b3 fa 70 d3 3f e4 b8 ac ba 64 22 d0 3f
       0.30377070952321605 0.25209921102476884
0000f0 1c a3 5a 8d ba cc c1 3f 18 2b 2a 03 15 de cc 3f
       0.13906032468846596 0.22552740721251818
000100 89 26 d1 cd c3 71 cd 3f 42 5e a1 94 71 57 c6 3f
       0.2300343279805939 0.1745435691579918
000110 b3 07 f8 6c 4a 38 c3 3f e7 f7 93 f0 a5 91 d5 bf
       0.15015535660500987 -0.33701466077752545
000120 99 36 5a d4 1e 16 a9 3f 7f 7f 94 8a 65 32 b5 3f
       0.048996890470431605 0.08280024178793431
000130 e5 69 90 29 46 b9 d2 3f f1 be a4 32 80 64 a8 3f
       0.29255823191638647 0.04764176004607446
000140 57 23 55 b1 33 3c 4b bf a1 44 75 59 5c 96 93 3f
       -0.0008311512380397662 0.01912826820381908
000150 da 8c 3a 6d e7 95 de 3f 75 29 50 64 f8 f7 da 3f
       0.4778994147001875 0.4213849048252521
000160 46 ce 0b 4d e0 27 da 3f
       0.4086838486102561

res_blocks.1.conv2.bias f8 [1]
000000 ca 4c 22 87 60 12 b0 3f
       0.06278041171235596

res_blocks.1.conv2.weight_g f8 [1, 1, 1]
000000 f0 f9 fc 34 98 f1 db 3f
       0.4366207616293698

res_blocks.1.conv2.weight_v f8 [1, 3, 5]
000000 17 4a 49 06 c1 04 b7 bf 75 48 69 8a c8 b2 97 bf
       -0.08991629031633185 -0.023142941902115816
000010 aa aa ef 0d e7 5d be bf 3a 12 c8 f6 58 c1 aa bf
       -0.11862033930052954 -0.052256374478052384
000020 11 57 ac 88 c8 0a d8 3f 04 ab 58 96 89 19 d7 bf
       0.3756581625651601 -0.3609336822725455
000030 57 40 8d d0 46 f5 d0 bf b2 21 79 13 46 bb b7 3f
       -0.26497049681075197 0.09270132041377258
000040 91 3a 2b 05 6a c3 d5 3f 13 05 25 ee de 3a af 3f
       0.340052132652013 0.06099602372206383
000050 11 c7 68 dd 16 96 bb bf 16 77 ad c1 f5 3f c8 3f
       -0.10775893121242698 0.18945190388597472
000060 07 ce d2 74 f9 65 92 bf 1f 44 7e 5d 69 01 d3 bf
       -0.01796712661298552 -0.2969611561794085
000070 61 40 68 99 38 06 d4 bf
       -0.3128797052495483

res_blocks.1.conv3.weight f8 [1, 3, 1]
000000 a2 e9 55 5a b6 1c e0 bf 90 97 51 5d b7 d7 dc 3f
       -0.503504921375953 0.45066627610355514
000010 aa 95 67 d8 f4 3e e0 bf
       -0.5076851107266311

res_blocks.1.conv3.bias f8 [1]
000000 9b 6c 37 1e c9 5e d4 bf
       -0.31828525496320886

best_model_score f8 []
000000 bf e8 11 e1 3b 41 a4 3f
       0.03956019518314368

exp_avg f8 [3]
000000 b5 21 7a 2e 11 80 0f bf 05 00 00 00 00 00 00 00
       -6.0081981982543406e-05 2.5e-323
000010 3a cf 03 df 5f 49 56 bf
       -0.0013602672807424125

exp_avg_sq f8 [3]
000000 36 70 58 c4 8e cd bc 3e 73 c5 3a 53 6b 22 f2 3a
       1.7167901814668419e-06 9.375290990289887e-25
000010 73 e9 ba 99 b4 6d 23 3f
       0.00014822797390030457

exp_avg f8 [3, 1, 1]
000000 8d 68 e7 87 f6 b5 08 bf 05 00 00 00 00 00 00 00
       -4.7132097268324636e-05 2.5e-323
000010 19 f7 d7 a5 54 0a 41 3f
       0.0005200303382364185

exp_avg_sq f8 [3, 1, 1]
000000 6c bb 04 45 cf c0 6f 3e 0e 07 8c e5 8b 5a a5 3a
       5.914487444452608e-08 3.4498758382631834e-26
000010 84 63 81 2f 07 b8 b3 3e
       1.1753356244008186e-06

exp_avg f8 [3, 13, 5]
000000 ea 91 43 e1 a4 6a 06 bf c0 fb d6 c4 1a 37 19 bf
       -4.2756230102889415e-05 -9.618855366165437e-05
000010 ba d4 75 37 29 45 f3 3e e2 6a 51 e3 5d 0a 14 3f
       1.8377456823388752e-05 7.644842192304103e-05
000020 6f 8a a0 47 90 cb 0c 3f eb b0 6c 5b 8c 77 91 bc
       5.49224286745712e-05 -6.0600779359231e-17
000030 d8 ae c4 7a 32 7e 72 bd 5b ed 2a 2a 05 f6 0a 3c
       -1.0512029437571535e-12 1.8269495283018679e-19
000040 b6 ef ff 5c 32 b7 a8 bd e1 c3 37 13 2e c0 3a 3c
       -1.1239359188343894e-11 1.4501585181037059e-18
000050 d8 be b1 1d 7f d5 8d 3c 37 48 46 23 88 e0 ca bd
       5.17536896777787e-17 -4.8889118803051845e-11
000060 b2 92 f7 d9 6f 9a da 3a 6c 19 1c 12 40 58 05 bb
       3.4383919573737782e-25 -2.2069931107032348e-24
000070 31 f7 62 07 a1 d4 bf 3a 05 01 56 b5 fd 52 bf be
       1.0285015782731605e-25 -1.8670668472109961e-06
000080 4e 46 f1 6c c5 53 8a b9 91 1e 9e 08 a3 0f 98 3c
       -1.622540895004352e-31 8.347864568446699e-17
000090 4c d5 c1 de b9 6f 85 3c 30 65 60 29 30 bf 4b be
       3.718627819445168e-17 -1.2920623942329179e-08
0000a0 8d 06 d5 4d 42 9f 23 3e 31 27 6b ec 6f 9f 42 bc
       2.2843137231230104e-09 -2.0190881916957903e-18
0000b0 87 7e 8b 08 0c af bd 3e d7 5a 68 dc 1b fa 13 3c
       1.7692910054197576e-06 2.7073866727916103e-19
0000c0 12 f2 cd 04 38 ee 82 ba 61 ea ae a5 d6 54 66 bc
       -7.645985135711608e-27 -9.684701069031842e-18
0000d0 8b 1e 4e 64 91 8a af 3c ff eb 61 05 ae c0 52 3d
       2.1886160247360723e-16 2.6649126070480106e-13
0000e0 d1 e1 ec 15 78 33 bc 3a 1f 5e fd 58 92 a9 27 ba
       9.112251067610007e-26 -1.493306709791699e-28
0000f0 19 e4 11 1b 2f 86 a8 bc cf 40 0a ca ab 2a d1 3c
       -1.701705184860078e-16 9.529423803086957e-16
000100 17 cb 84 05 3e c3 f0 bc 9b a4 43 89 bf 56 c2 be
       -3.7220593549188614e-15 -2.1861624849196235e-06
000110 4e b6 cc 9d 2c 12 e1 3d 4a ff 82 65 b8 2b f8 3d
       1.2420782362686613e-10 3.517311767464968e-10
000120 65 3d 79 7d 9e 94 22 bd 52 a8 d4 70 51 e2 50 3a
       -3.300567529059751e-14 8.524269477590186e-28
000130 c8 f8 b4 37 82 86 2c 3e bf 84 6f 67 32 3f 70 3b
       3.3207964691064983e-09 2.1502543949140573e-22
000140 f8 22 82 99 17 99 81 3d 1f 57 80 6e 1c cd 46 bd
       2.000662829227494e-12 -1.6201237743364227e-13
000150 dc fb 2b 9e de f8 bf 3e 1f db f6 3f 6f c7 7f 3d
       1.905688457426222e-06 1.8064293549374603e-12
000160 3b c9 4d b9 28 0e b0 3e d8 c0 eb a2 5a 54 fe bc
       9.56970983537004e-07 -6.734503621843284e-15
000170 12 61 05 d1 d5 59 9b 3d 35 be 6c a5 62 b1 dd 3d
       6.21887894128429e-12 1.0802218265385169e-10
000180 f1 49 60 4d 67 2d 5c be 7c 4e 11 b8 48 ac 14 3c
       -2.624220914882615e-08 2.8017118524401205e-19
000190 11 18 a4 f3 1f 76 f8 3e d3 c4 a0 99 54 b2 0e bf
       2.3328232807727558e-05 -5.854912451786769e-05
0001a0 90 d0 7c 4f e5 6a 11 3f ea 97 b9 6d ef 1b 05 3f
       6.644272422990012e-05 4.026245525494395e-05
0001b0 8c ff 2c 7a a6 48 2b bf ce 62 a9 0f 55 1c 1c bf
       -0.00020815880005819706 -0.00010723370716315546
0001c0 87 4f ad 5c 1c be 25 bf 6a 27 05 73 e9 fb 2d bf
       -0.0001658830281835411 -0.00022876000140064783
0001d0 71 f3 17 52 68 fc 31 bf ef 06 62 4e 72 64 34 bf
       -0.00027444407359649483 -0.0003111628597097645
0001e0 2e 68 95 9c 33 fc 32 3f d6 f8 d6 b3 51 60 32 3f
       0.0002896905903831984 0.0002803992718688591
0001f0 ac 35 28 84 1c 2b 32 3f 98 ef ce 30 99 a0 2f 3f
       0.00027722784230451813 0.00024129743579048564
000200 25 d5 f4 6b 01 c4 3d 3f 05 00 00 00 00 00 00 00
       0.0004541877242048734 2.5e-323
000210 05 00 00 00 00 00 00 80 05 00 00 00 00 00 00 00
       -2.5e-323 2.5e-323
000220 05 00 00 00 00 00 00 00 05 00 00 00 00 00 00 00
       2.5e-323 2.5e-323
000230 05 00 00 00 00 00 00 80 05 00 00 00 00 00 00 80
       -2.5e-323 -2.5e-323
000240 05 00 00 00 00 00 00 00 05 00 00 00 00 00 00 00
       2.5e-323 2.5e-323
000250 05 00 00 00 00 00 00 00 05 00 00 00 00 00 00 80
       2.5e-323 -2.5e-323
000260 05 00 00 00 00 00 00 00 05 00 00 00 00 00 00 80
       2.5e-323 -2.5e-323
000270 05 00 00 00 00 00 00 80 05 00 00 00 00 00 00 00
       -2.5e-323 2.5e-323
000280 05 00 00 00 00 00 00 00 05 00 00 00 00 00 00 80
       2.5e-323 -2.5e-323
000290 05 00 00 00 00 00 00 80 05 00 00 00 00 00 00 80
       -2.5e-323 -2.5e-323
0002a0 05 00 00 00 00 00 00 00 05 00 00 00 00 00 00 80
       2.5e-323 -2.5e-323
0002b0 05 00 00 00 00 00 00 00 05 00 00 00 00 00 00 80
       2.5e-323 -2.5e-323
0002c0 05 00 00 00 00 00 00 00 05 00 00 00 00 00 00 80
       2.5e-323 -2.5e-323
0002d0 05 00 00 00 00 00 00 80 05 00 00 00 00 00 00 00
       -2.5e-323 2.5e-323
0002e0 05 00 00 00 00 00 00 00 05 00 00 00 00 00 00 00
       2.5e-323 2.5e-323
0002f0 05 00 00 00 00 00 00 00 05 00 00 00 00 00 00 80
       2.5e-323 -2.5e-323
000300 05 00 00 00 00 00 00 80 05 00 00 00 00 00 00 80
       -2.5e-323 -2.5e-323
000310 05 00 00 00 00 00 00 80 05 00 00 00 00 00 00 00
       -2.5e-323 2.5e-323
000320 05 00 00 00 00 00 00 00 05 00 00 00 00 00 00 00
       2.5e-323 2.5e-323
000330 05 00 00 00 00 00 00 80 05 00 00 00 00 00 00 80
       -2.5e-323 -2.5e-323
000340 05 00 00 00 00 00 00 00 05 00 00 00 00 00 00 80
       2.5e-323 -2.5e-323
000350 05 00 00 00 00 00 00 00 05 00 00 00 00 00 00 00
       2.5e-323 2.5e-323
000360 05 00 00 00 00 00 00 80 05 00 00 00 00 00 00 00
       -2.5e-323 2.5e-323
000370 05 00 00 00 00 00 00 80 05 00 00 00 00 00 00 80
       -2.5e-323 -2.5e-323
000380 05 00 00 00 00 00 00 80 05 00 00 00 00 00 00 00
       -2.5e-323 2.5e-323
000390 05 00 00 00 00 00 00 00 05 00 00 00 00 00 00 00
       2.5e-323 2.5e-323
0003a0 05 00 00 00 00 00 00 00 05 00 00 00 00 00 00 00
       2.5e-323 2.5e-323
0003b0 05 00 00 00 00 00 00 00 05 00 00 00 00 00 00 00
       2.5e-323 2.5e-323
0003c0 05 00 00 00 00 00 00 00 05 00 00 00 00 00 00 00
       2.5e-323 2.5e-323
0003d0 05 00 00 00 00 00 00 00 05 00 00 00 00 00 00 00
       2.5e-323 2.5e-323
0003e0 05 00 00 00 00 00 00 00 05 00 00 00 00 00 00 80
       2.5e-323 -2.5e-323
0003f0 05 00 00 00 00 00 00 00 05 00 00 00 00 00 00 00
       2.5e-323 2.5e-323
000400 05 00 00 00 00 00 00 00 05 00 00 00 00 00 00 00
       2.5e-323 2.5e-323
000410 a6 f3 24 58 59 6e fc be 6f b3 54 be c1 2a 13 bf
       -2.7113962923086932e-05 -7.311637417180076e-05
000420 b9 3b 52 5c 38 8f 22 bf d9 4b f1 6f fc e6 13 bf
       -0.0001415973949047947 -7.592120890480228e-05
000430 89 5d 3d 74 92 5b 20 bf 0d 1e 56 0f 1d a2 01 bf
       -0.0001247993733339665 -3.363276656914377e-05
000440 f6 63 62 ba a4 8c a3 ba a7 98 2a 7f 28 7e e0 3b
       -3.158374061810567e-26 2.7939899185880906e-20
000450 49 d5 6b f5 ea a8 f7 3a 23 5d dc f4 bd 60 04 bf
       1.2231848100710767e-24 -3.886775685496061e-05
000460 7d ee b9 e1 2c 33 07 3f 29 65 d8 7f 19 6a 9a 3c
       4.4250304395779414e-05 9.164353855610441e-17
000470 b9 6d 11 55 d1 dd f8 3e 46 b0 1d 01 95 21 ed bc
       2.3714518935553342e-05 -3.234210663292921e-15
000480 32 83 4e 99 39 09 da be 66 39 be 6b 5f f1 dc 3e
       -6.207474503223258e-06 6.900516094433774e-06
000490 59 07 9a 50 92 cc a5 3e 02 dc 11 1d f5 70 f4 be
       6.496640320848617e-07 -1.9494285713208416e-05
0004a0 e8 b8 e9 86 d6 6a 05 3f f2 fa e8 1a af 11 ec be
       4.085032638988397e-05 -1.3384379454637358e-05
0004b0 46 be 3e f4 a0 63 89 3d 75 53 b0 a4 c6 5e 01 3f
       2.8864149856408264e-12 3.3131062615299635e-05
0004c0 57 d7 5e cc 9a 1c 87 be 59 79 50 5d 54 ca f4 3e
       -1.7219585951376774e-07 1.9827222633600264e-05
0004d0 b9 9e 67 24 1f ed 33 3a 31 6a 60 10 77 a2 52 3b
       2.515047151165031e-28 6.16568162237159e-23
0004e0 4e b9 3c bb 39 6b 07 bf c0 d5 1c 64 7e 5b f7 3e
       -4.466791088329984e-05 2.2275349926567092e-05
0004f0 84 42 8b ad 77 1f f8 be c7 d0 cc dc 57 80 f6 be
       -2.300540913574785e-05 -2.1458950686795827e-05
000500 2d 52 33 41 68 5c fd be ab 7d 44 b5 a4 84 04 bf
       -2.8000798988641273e-05 -3.913524293097254e-05
000510 93 17 fc b9 6b 26 7d 3c 0d d9 cd 18 a8 2c fc 3e
       2.528366515804047e-17 2.6869239764215148e-05
000520 08 4a d7 6a d1 ef 05 3f 06 68 58 e2 e7 6e 00 bf
       4.1841104898705155e-05 -3.1343890707982754e-05
000530 da e9 28 d4 6e 9b f9 be a9 e0 0f 2d e3 66 02 bf
       -2.4420890676982384e-05 -3.509884630398367e-05
000540 14 6d 79 9d 19 d5 07 3f bf dd 88 7d 15 da 07 3f
       4.545673772035123e-05 4.5493870576892e-05
000550 44 ba 5e b2 b8 c0 01 3b 32 8f 6c f5 83 50 67 3c
       1.835598384205332e-24 1.0111058487772543e-17
000560 0b c1 29 f9 01 2d f7 3e 76 08 76 37 5e 9c 04 bf
       2.2102176055972328e-05 -3.931200529462633e-05
000570 67 d2 2a e1 6d b9 e8 ba be b5 da 4e 52 62 03 bf
       -6.391090254948537e-25 -3.697217640073355e-05
000580 58 9f 44 dd 8d 3a 05 bf f4 d3 dc ee eb ed 98 be
       -4.04905837590441e-05 -3.714767292551794e-07
000590 03 67 2b a8 0a bb 06 3f bf 00 20 31 c8 2d c1 bb
       4.335523865046759e-05 -7.27552001658807e-21
0005a0 48 57 98 39 e4 92 48 3f c3 5b 93 dc 0f fa 4a 3f
       0.0007499327068127637 0.0008232667397817184
0005b0 bc f7 ea 57 c9 c1 4c 3f f9 36 9b 27 8a c3 4e 3f
       0.0008775933382236738 0.0009388374885135046
0005c0 ef 06 b5 f8 65 b7 4d 3f 61 cb 95 a8 f6 cd 47 bf
       0.0009068725497984579 -0.0007264570605641612
0005d0 35 d4 ee b6 ed fd 4b bf 43 3a b9 02 d7 d0 51 bf
       -0.0008542452541094927 -0.0010873889649648672
0005e0 6f 5d 01 ef 69 c5 54 bf 0e f6 c5 f6 7b c1 56 bf
       -0.0012677702434496748 -0.001388903673699263
0005f0 e2 e6 69 b1 d4 63 fe 3e 72 2d cc df 1a 10 f1 3e
       2.8982128322563724e-05 1.62724590948965e-05
000600 23 a1 44 40 28 83 1c bf 05 0d 63 c2 8b 1d 30 bf
       -0.000108765918473201 -0.0002459016999518257
000610 b7 f4 b0 39 84 79 39 bf
       -0.0003887126746951563

exp_avg_sq f8 [3, 13, 5]
000000 76 89 18 0d 84 69 b1 3e a5 de 21 55 d5 2f a9 3e
       1.0378462785917275e-06 7.506265922293372e-07
000010 cb 65 ed ae 82 34 ab 3e 1a ce a1 f2 d7 06 a8 3e
       8.107757290917563e-07 7.160524309171931e-07
000020 09 51 1a 1b 9a 1d a9 3e 9c c7 b2 c1 72 ce 72 3d
       7.485041832616428e-07 1.0690222636227966e-12
000030 5b c9 e2 e6 68 16 40 3d 11 1c 12 c8 7a 51 35 3d
       1.1430883387172952e-13 7.573774406712295e-14
000040 d3 24 d0 91 46 59 3b 3d 80 21 6b c2 4e 09 79 3d
       9.71622180272296e-14 1.423152185895521e-12
000050 38 7b d5 a3 b8 36 43 3d bf db b3 33 ef 7f aa 3d
       1.3652193958399715e-13 1.205068823869595e-11
000060 fc 56 6c c1 b2 73 81 3d c6 8d 39 a1 dd fc 81 3d
       1.9840565918655543e-12 2.0449711885397517e-12
000070 8b 74 55 c5 ee 57 80 3d c6 84 e4 32 a7 12 f1 3d
       1.858039366176001e-12 2.484428660130917e-10
000080 6c 85 4a d3 dc 0a 60 3d aa 37 48 c9 2f 76 58 3d
       4.559533416433115e-13 3.4762119100312773e-13
000090 9e b2 f1 e0 7a 04 35 3d f2 de b8 d9 b2 80 b9 3d
       7.466915967306666e-14 2.3194596944180964e-11
0000a0 22 2c 6d e4 8a 08 4d 3d 80 88 52 4f d3 80 8e 3d
       2.0629449670770095e-13 3.4678151146721784e-12
0000b0 03 fd d4 fb aa 61 e8 3d e8 fd 9c c1 43 d6 45 3d
       1.7739887156128442e-10 1.5516101384432187e-13
0000c0 de 54 7c fd 15 d3 4a 3d e7 63 c3 c2 eb 6d 52 3d
       1.9059992193244303e-13 2.6189722283083384e-13
0000d0 d6 09 83 b0 49 ad 7f 3d 0e fb 12 ba b5 b6 52 3d
       1.800623616789426e-12 2.6593782012729897e-13
0000e0 b6 0d 8b d5 f8 c7 76 3d 88 63 4d a0 49 56 4e 3d
       1.2949579205413083e-12 2.1555778279749809e-13
0000f0 fc 6e 07 83 94 da 96 3d c8 3c 0f de fe eb 36 3d
       5.196359009169207e-12 8.143479745897066e-14
000100 34 2b 39 23 24 ce 75 3d 01 76 40 7d 7f 4b ef 3d
       1.2394843290553272e-12 2.2770046839868897e-10
000110 33 b2 7a 3b 49 57 71 3d 85 cb 24 56 bd 98 69 3d
       9.85719520192732e-13 7.275002373517983e-13
000120 eb ae a1 dc d5 31 4b 3d 39 8e f8 ad e3 4e 50 3d
       1.9322974880777354e-13 2.3175291537700224e-13
000130 10 a9 ae 2a cd cf b0 3d 19 d0 15 62 d5 f0 72 3d
       1.5290174220189498e-11 1.0766573250523497e-12
000140 8e 57 64 9d ec 30 5b 3d b7 0a 99 90 20 18 83 3d
       3.8640892022827237e-13 2.1707645487312767e-12
000150 31 f7 e5 a5 b3 30 f1 3d 0a 3d 84 28 80 ee 5d 3d
       2.5015093286567734e-10 4.2535423062837126e-13
000160 97 08 92 48 77 41 71 3d 43 f9 1a e9 b3 80 62 3d
       9.808744818789107e-13 5.258796482338744e-13
000170 b7 1f ea 56 5d 70 34 3d 6c d5 4f 4e bf 53 47 3d
       7.26136457554584e-14 1.657492834287734e-13
000180 6b 3d b9 08 7d fb 41 3d 69 d8 07 ea b2 e6 74 3d
       1.2777247078048148e-13 1.1880938196649504e-12
000190 4b 72 b4 03 d0 4d c8 3e a6 d2 c0 81 a2 24 bb 3e
       2.897257244462061e-06 1.6178551112247925e-06
0001a0 9a 67 c4 4e d6 43 bf 3e ba a2 bb ed 75 2d c0 3e
       1.8635385528654277e-06 1.9285179016957824e-06
0001b0 e3 17 ef b7 dc 57 c1 3e 71 dd 94 a4 19 57 b0 3e
       2.0674719389572135e-06 9.739539044826413e-07
0001c0 3e 8f ea 1d 48 c1 b0 3e de ac 10 b8 fd 06 b1 3e
       9.986762205338387e-07 1.014906701133845e-06
0001d0 96 5a 69 44 e3 2a b1 3e b6 90 33 2d 97 b3 b0 3e
       1.0232645465590142e-06 9.95488495907988e-07
0001e0 21 2a a7 a7 ab c9 a0 3e 3e d7 42 cd 2e b2 9e 3e
       5.003146974988699e-07 4.574064409555739e-07
0001f0 c7 85 12 23 a7 a3 a0 3e 9c bb bd fb f6 07 9e 3e
       4.958888607695289e-07 4.474984469570344e-07
000200 22 7b dd e7 51 a8 b1 3e f2 af 0e c7 7e e1 33 3a
       1.0524690021368603e-06 2.5093148813827992e-28
000210 75 84 2f ee dc 59 73 3a c7 b9 73 ba 13 e5 b6 3a
       3.907908857955146e-27 7.397719292968985e-26
000220 af 35 3c 30 9c 77 b7 3a ab 1b 7e 0e ae 75 d8 3a
       7.582670000618827e-26 3.161340467797578e-25
000230 6b 8e 95 ea be 39 20 3a 27 11 c7 7b 7b 0a 50 3a
       1.0239773893095637e-28 8.09860847442315e-28
000240 d3 ca 92 0b a1 f0 3b 3a 0a ca 7d f8 8d 5e d8 39
       3.526518408127609e-28 4.806007624677851e-30
000250 6d b1 97 eb 8c 6a 30 3a 3f 18 cb 06 e1 8f 54 3a
       2.0720173549302588e-28 1.0381170901825012e-27
000260 04 79 46 19 05 02 57 3a 8e 6f 14 e1 3a 40 02 3a
       1.16160161085787e-27 2.879484050618184e-29
000270 aa b6 73 33 53 94 02 3a 96 05 94 6b 1d ab 51 3a
       2.931311600045891e-29 8.920271330974147e-28
000280 c3 85 a7 8b 83 48 2d 3a 76 62 ad 05 8d 4b 39 3a
       1.8480333442129868e-28 3.192693074649576e-28
000290 3d f6 0a 85 f0 d3 59 3a 1f 45 c0 39 58 7e 50 3a
       1.3039751507398611e-27 8.327106519830791e-28
0002a0 08 50 da 33 5a c7 35 3a e6 b9 97 54 1b 7d 53 3a
       2.7488609404214453e-28 9.83927818642144e-28
0002b0 a5 38 bf fc df 28 4f 3a 9c 70 1d 0e af cd 30 3a
       7.865805992722238e-28 2.1208938647769543e-28
0002c0 52 87 f9 a9 c4 0e 11 3a 56 da da 43 73 68 41 3a
       5.38245739034653e-29 4.394399226935216e-28
0002d0 7b 92 22 7a d6 79 36 3a b1 49 b9 22 99 8c 57 3a
       2.836861060185374e-28 1.1889313555737379e-27
0002e0 94 44 b1 28 c3 98 2f 3a 5d 5e 15 ca 12 bc 13 3a
       1.9940338691836794e-28 6.227161238203518e-29
0002f0 f6 9a 5f ee a1 b2 0c 3a 95 38 65 8c 16 7f ee 39
       4.5277118739244996e-29 1.2028723769028462e-29
000300 63 02 7e ec 66 a7 26 3a 9d 73 9f 4f 34 29 39 3a
       1.4296629836922404e-28 3.1757589289532494e-28
000310 c0 dc bc c7 42 e9 26 3a ec 64 7a d1 ed 37 23 3a
       1.4458984348684352e-28 1.2128561334118773e-28
000320 c4 a4 c7 f5 39 2b 43 3a d0 46 40 d5 63 2d 36 3a
       4.838898831497323e-28 2.7991693707246157e-28
000330 07 e7 92 a4 e6 c5 57 3a 72 74 61 6c 6f 50 f1 39
       1.2002323328687261e-27 1.3658495631572913e-29
000340 05 52 0c 8d 5c 17 58 3a 2a c5 2a 7f 23 64 59 3a
       1.2162975992977147e-27 1.2819263166828499e-27
000350 30 a5 f1 43 9d 16 34 3a 52 45 45 a5 2d 00 54 3a
       2.535504616308589e-28 1.009777122764982e-27
000360 18 fa 63 be 7f bc 54 3a b5 7e 43 88 d6 1a 38 3a
       1.046916831405133e-27 3.042458039900407e-28
000370 93 5b ba aa 1b b9 eb 39 f5 2e ed f2 01 4e 22 3a
       1.0934826366387074e-29 1.1551900648359138e-28
000380 42 be ba 25 d8 0e 59 3a d5 03 68 b9 2c 79 48 3a
       1.2651049754070681e-27 6.177939235531228e-28
000390 d0 74 2d 75 35 04 44 3a 53 1c 76 6b b9 ab 49 3a
       5.052860009606707e-28 6.4802204712374915e-28
0003a0 40 29 26 da cd 01 7f 3a aa 3b e5 c7 21 5e cb 3a
       6.261823335634807e-27 1.7685963511146648e-25
0003b0 2b 31 62 96 9b 98 ce 3a 58 21 ec 15 d1 e9 e1 3a
       1.9772281761579085e-25 4.630491577974833e-25
0003c0 71 0b cf c7 a2 34 d9 39 fa d1 92 cb fa df 4b 3a
       4.9709298502325355e-30 7.036619226445931e-28
0003d0 cd eb 98 3f 1e 33 47 3a a9 07 15 a7 2c e8 8e 3a
       5.856422657837688e-28 1.2483210157509864e-26
0003e0 6b 2b bc 91 54 b1 db 3a 03 86 87 24 e0 de f4 39
       3.579197156043509e-25 1.6464006440192322e-29
0003f0 d6 75 85 b6 4f 1f 10 3a 2f 63 f8 e5 cd b0 33 3a
       5.087304047519798e-29 2.485308397188758e-28
000400 ab 36 55 d8 48 ea 0e 3a fe 13 53 e3 74 ed 22 3a
       4.8775544336412715e-29 1.194497273347782e-28
000410 5b 69 ae b8 81 af ea 3e 7f 94 97 87 6a 11 f0 3e
       1.2724672861887004e-05 1.532366920810714e-05
000420 45 23 0e 9e 80 be f2 3e 06 5a a9 21 b5 9b f4 3e
       1.787581448156889e-05 1.9653542134479375e-05
000430 39 df 0e bd ad 54 f6 3e 4c ea c3 9b 7c f1 35 3e
       2.1296287574051212e-05 5.109074438032405e-09
000440 70 38 96 ae e8 b9 88 3d 19 e6 f0 3a 67 be 6c 3d
       2.811044248033638e-12 8.169468704986531e-13
000450 50 a8 6f 6a 2c b1 7e 3d 08 d9 5d c4 18 f1 3c 3e
       1.7446429854321864e-12 6.738534235697825e-09
000460 d2 0b 16 1b 90 97 42 3e 9c 8c 13 8c 5c 3a 91 3d
       8.657594504805018e-09 3.917187918385863e-12
000470 b6 f5 dc 63 46 da 26 3e ae 47 1b 91 9a 3f 80 3d
       2.660397040604197e-09 1.8472351544620252e-12
000480 0c a3 9c cd ed 5f ea 3d bd b7 9c c3 e3 cb f9 3d
       1.9190136182027245e-10 3.7538766852975253e-10
000490 cd 7c 69 0c 46 76 cb 3d 85 23 ac 13 74 10 20 3e
       4.995309855994644e-11 1.870127300743325e-09
0004a0 14 c8 49 7e aa da 3f 3e fe f0 3c 4a ad f6 10 3e
       7.416625512182823e-09 9.874104112061058e-10
0004b0 8c de 4e 4e fe 63 82 3d 6a 3d e9 37 42 53 35 3e
       2.0907690611633555e-12 4.965166832003506e-09
0004c0 cd 56 bb a9 10 26 c3 3d 0d 4d fc 00 a9 8d 20 3e
       3.4831267398527857e-11 1.927064736850439e-09
0004d0 3c 4d fd 99 a6 c1 7a 3d 53 fa 81 c6 3b 5f 7e 3d
       1.5209280029166293e-12 1.7264486502049962e-12
0004e0 eb 5b bd 98 19 ef 42 3e 77 06 85 16 ca 64 24 3e
       8.81682351404855e-09 2.374140151970224e-09
0004f0 3b e6 e5 f4 54 9f 25 3e 09 91 00 5b b0 10 23 3e
       2.517177500452635e-09 2.219480342584381e-09
000500 56 67 0e 4b 7a 10 2f 3e aa d5 98 6b 89 53 3d 3e
       3.616368170591024e-09 6.828064941191845e-09
000510 dd 8b b9 54 c7 10 7c 3d 6f 57 20 8b 57 c4 2c 3e
       1.5953413338260403e-12 3.3489150003558214e-09
000520 c8 91 bf 07 8a ae 40 3e 47 4e 4e fd bd 32 33 3e
       7.768065517175188e-09 4.469931942722742e-09
000530 2e 77 03 74 40 1d 28 3e f3 0d 6c c8 5b cd 37 3e
       2.8072698888654913e-09 5.54187729626243e-09
000540 34 b5 90 52 af 96 43 3e 52 85 58 4a a5 9e 43 3e
       9.121658610812959e-09 9.136139243631333e-09
000550 cd a3 2f 4a f0 7c 58 3d fb 43 e1 e3 a7 72 82 3d
       3.479960004598685e-13 2.0972804919070454e-12
000560 6c 79 7c 0d 9f 1b 24 3e 38 ae 07 fb f4 94 3d 3e
       2.340867149329599e-09 6.887564227703343e-09
000570 6e e2 06 df 37 3c 65 3d 7a 60 a9 dc b4 4a 3a 3e
       6.03541466456282e-13 6.121541893689247e-09
000580 45 8e 90 73 a4 50 3f 3e 08 58 a3 c6 ad f5 61 3d
       7.291093778237096e-09 5.104448877164866e-13
000590 ad 71 48 4e b3 de 41 3e 31 8d 78 73 fc 3e 8a 3d
       8.321331576105055e-09 2.9838292445499507e-12
0005a0 cc 60 2e a5 ef f6 e1 3e f0 44 dd 06 14 09 e5 3e
       8.566186044764791e-06 1.003048984285707e-05
0005b0 f1 27 68 6b ec c5 e8 3e a7 43 02 95 77 55 ec 3e
       1.1812753069956996e-05 1.3510635341414308e-05
0005c0 e5 24 aa 10 98 84 ee 3e 48 3c fc 52 63 c9 e3 3e
       1.4552090324986735e-05 9.435020359242538e-06
0005d0 85 91 7f 78 43 7a e8 3e 84 25 fd ca e2 a0 ed 3e
       1.16718254190094e-05 1.4127950947478601e-05
0005e0 4d cc a7 75 f3 24 f1 3e 29 eb 6d 42 b1 2a f3 3e
       1.635011663299003e-05 1.8278853669322047e-05
0005f0 28 ab a2 c4 4d e7 da 3e 07 0f c4 95 15 52 e0 3e
       6.414301490102391e-06 7.78228848519843e-06
000600 d4 5d a7 98 62 67 e3 3e 72 55 99 1b ba 09 e6 3e
       9.252475838757603e-06 1.050853539933769e-05
000610 08 f9 ec 9e 8c 96 e7 3e
       1.1247674562061858e-05

exp_avg f8 [3]
000000 05 00 00 00 00 00 00 00 27 cb 3c 3a 2f 36 61 bf
       2.5e-323 -0.0021010324870983812
000010 76 98 33 ff 3f b1 2e bf
       -0.00023416429721762375

exp_avg_sq f8 [3]
000000 7b de df 98 ed 6c c3 3a 24 3e 40 68 db 4f 38 3f
       1.2553435435371207e-25 0.0003709707891639011
000010 44 de 03 9b 7c 56 f2 3e
       1.7488325910057384e-05

exp_avg f8 [3, 1, 1]
000000 05 00 00 00 00 00 00 00 2b 7a 57 1a 51 50 21 3f
       2.5e-323 0.00013209333444215549
000010 16 41 06 58 83 5c fe be
       -2.8954867504150493e-05

exp_avg_sq f8 [3, 1, 1]
000000 a5 54 0e 87 07 05 a2 3a 78 3f ff f0 93 6a eb 3e
       2.911230841501695e-26 1.3073120072620617e-05
000010 73 e4 c9 e4 01 db a4 3e
       6.21542264391625e-07

exp_avg f8 [3, 3, 5]
000000 05 00 00 00 00 00 00 00 05 00 00 00 00 00 00 00
       2.5e-323 2.5e-323
000010 05 00 00 00 00 00 00 00 05 00 00 00 00 00 00 00
       2.5e-323 2.5e-323
000020 05 00 00 00 00 00 00 00 05 00 00 00 00 00 00 00
       2.5e-323 2.5e-323
000030 05 00 00 00 00 00 00 00 05 00 00 00 00 00 00 80
       2.5e-323 -2.5e-323
000040 05 00 00 00 00 00 00 00 05 00 00 00 00 00 00 80
       2.5e-323 -2.5e-323
000050 05 00 00 00 00 00 00 00 05 00 00 00 00 00 00 00
       2.5e-323 2.5e-323
000060 05 00 00 00 00 00 00 00 05 00 00 00 00 00 00 00
       2.5e-323 2.5e-323
000070 05 00 00 00 00 00 00 00 82 3a 9c f7 57 93 09 3f
       2.5e-323 4.878151135133837e-05
000080 fe cf fc 80 3b 9d 1b 3f a6 b1 e4 4d 8c 09 07 3f
       0.00010533977205967601 4.394015717177077e-05
000090 c1 85 bb 22 ab 07 ff 3e 10 84 f8 8a 13 6a 26 bf
       2.959247119250163e-05 -0.0001710080009482977
0000a0 0b 80 65 ab 96 ba 3e bb cd 6e 92 13 96 19 07 bd
       -2.5418318507070566e-23 -1.0258436871054176e-14
0000b0 dc e1 cc c4 b3 74 21 bc a1 74 ff 87 2b 44 fc be
       -4.731422516544173e-19 -2.695683406260931e-05
0000c0 1f 6d ba 10 75 35 eb bc ea 82 d3 0b 29 f0 28 3f
       -3.020785568952397e-15 0.00019026280452918233
0000d0 1a ab cc a8 fc c4 2d 3f fd b5 a0 22 34 68 26 3f
       0.00022712311001645767 0.00017095219055944513
0000e0 1a 4a 43 6e f5 e0 1d 3f db 7d 6e c5 dc a1 f0 be
       0.00011397836675834002 -1.5861773444590193e-05
0000f0 07 21 12 a7 56 50 e9 be 22 49 a8 2e fa ee 10 bf
       -1.2070571047809621e-05 -6.459619513802088e-05
000100 92 88 d7 c3 5d 2f de be 8a 98 85 fa 44 41 04 bf
       -7.196670649164043e-06 -3.8633267936559015e-05
000110 01 a2 4f 9b c4 9c 05 bf 89 73 84 1e 81 09 83 bc
       -4.1222333869776063e-05 -3.302415017275422e-17
000120 e0 71 db 37 5d f5 48 bb 01 7f c8 a8 d5 cd 93 b9
       -4.129029795175984e-23 -2.4410365705225094e-31
000130 77 2f 92 a3 bd d4 3a bc ca 6a 55 f1 79 7c 51 bd
       -1.4545124360979311e-18 -2.484943550212461e-13
000140 26 ea d5 66 6b e6 e3 be 0f 95 3d cb 0f fd 12 bf
       -9.48909584041087e-06 -7.243546388975931e-05
000150 5a 20 c1 02 b2 86 16 bf ec 50 48 fa 15 4d 0f bf
       -8.593045703364621e-05 -5.970214195741446e-05
000160 5f 61 5d dc 06 56 fe be
       -2.893070429563335e-05

exp_avg_sq f8 [3, 3, 5]
000000 6f b6 69 d0 51 6c 3d 3a 4d 2b 3d 23 6f a9 3b 3a
       3.7137202795781033e-28 3.4914165870009015e-28
000010 76 50 f3 b9 97 24 59 3a 58 52 a8 31 2c c9 31 3a
       1.2693940822435194e-27 2.244887427918652e-28
000020 52 92 75 d9 c8 f8 7d 3a ea 4f ed ea 32 fa 47 3a
       6.052759780008482e-27 6.052731423091287e-28
000030 f1 7f bc cb af a6 e5 39 23 15 46 f7 b0 a3 74 3a
       8.53986103419162e-30 4.168097480604563e-27
000040 86 0e 4f 6d 8c 69 50 3a 9b bb fe 27 ff 06 2f 3a
       8.286093467245044e-28 1.9580998656579656e-28
000050 35 2c e1 25 08 a2 a5 3a 8a 60 5e c7 b7 c7 b1 3a
       3.494989440780896e-26 5.7450756668184e-26
000060 25 92 16 f5 e8 71 be 3a 25 8c 2c c7 f9 56 b2 3a
       9.83729742355873e-26 5.925892443307603e-26
000070 93 36 a1 fc 58 fa a3 3a 5b 6a f7 aa 09 d6 cf 3e
       3.227607104925035e-26 3.795157077252516e-06
000080 df 67 4f 28 71 44 d8 3e db c0 e5 42 70 55 d9 3e
       5.785787497958647e-06 6.040035300678056e-06
000090 ea 2e 80 11 94 38 e3 3e 80 41 a3 d7 00 34 d5 3e
       9.165291473343469e-06 5.055221999409102e-06
0000a0 ee 6b 0b 3a bc b5 d9 3d c9 94 f8 ad b5 09 ca 3d
       9.353208356359554e-11 4.736271595957292e-11
0000b0 65 6a 2a 58 a6 97 c4 3d 5f 5e 47 aa d4 bd a6 3e
       3.74573245864099e-11 6.777502972688576e-07
0000c0 04 29 95 7a ee 9d e1 3d ff f7 65 ce 5a d8 b7 3e
       1.28179964291431e-10 1.421280836660498e-06
0000d0 f6 90 21 19 fd 97 c1 3e ef 3a a6 c7 31 9d bb 3e
       2.0973331596331816e-06 1.645925094526521e-06
0000e0 94 f7 6c 72 56 89 b5 3e 38 2c c0 3e 95 93 98 3e
       1.2836739615297174e-06 3.662183292180596e-07
0000f0 d3 5d 79 12 ea 60 80 3e 2c d3 90 6f 22 53 7c 3e
       1.2202986819879764e-07 1.0551789476969603e-07
000100 71 b3 e0 6f 84 a4 8d 3e 96 56 d3 99 58 42 a6 3e
       2.208549218519709e-07 6.633747947858025e-07
000110 a5 b8 29 a2 16 17 b8 3e 2a 50 e4 7a 5e 0b 9b 3d
       1.4358871644154679e-06 6.149186993092561e-12
000120 9e 24 89 4f ee 94 6e 3d 25 d4 a0 e6 a8 24 8b 3d
       8.691859344621353e-13 3.085824826379922e-12
000130 42 c3 42 86 16 2b 61 3d 4f ea 3b d6 55 20 9e 3d
       4.879527877485027e-13 6.849929779130981e-12
000140 33 56 8e a7 0a ca 85 3e 26 6e 1b 1e bc 5b 8c 3e
       1.623423775658507e-07 2.1128609178118184e-07
000150 92 55 a9 43 48 15 98 3e d5 4d c7 f9 36 a8 93 3e
       3.5886666053160883e-07 2.929134497429432e-07
000160 57 48 07 c6 01 76 9b 3e
       4.0920025947994493e-07

exp_avg f8 [3, 13, 1]
000000 f2 4c 6d 06 79 8e 50 3f 00 00 00 00 00 00 00 00
       0.0010105306516450777 0.0
000010 00 00 00 00 00 00 00 00 00 00 00 00 00 00 00 00
       0.0 0.0
000020 00 00 00 00 00 00 00 00 00 00 00 00 00 00 00 00
       0.0 0.0
000030 00 00 00 00 00 00 00 00 00 00 00 00 00 00 00 00
       0.0 0.0
000040 00 00 00 00 00 00 00 00 00 00 00 00 00 00 00 00
       0.0 0.0
000050 e0 78 45 6b 47 79 6a bf 16 78 3a 37 99 c2 75 3f
       -0.003231658449450156 0.0053125367154773975
000060 0b 4e 84 6e 7f 94 53 3f 24 cf 3d a4 4f 0f 3c bf
       0.0011950725984818413 -0.0004281587064192008
000070 00 00 00 00 00 00 00 00 00 00 00 00 00 00 00 00
       0.0 0.0
000080 00 00 00 00 00 00 00 00 00 00 00 00 00 00 00 00
       0.0 0.0
000090 00 00 00 00 00 00 00 00 00 00 00 00 00 00 00 00
       0.0 0.0
0000a0 00 00 00 00 00 00 00 00 00 00 00 00 00 00 00 00
       0.0 0.0
0000b0 00 00 00 00 00 00 00 00 4c b3 a0 cb 89 fb 63 3f
       0.0 0.002439278728181204
0000c0 17 00 ed 59 ae 16 70 bf 11 f9 0d 48 71 11 44 bf
       -0.003927880344065235 -0.0006124308712143496
0000d0 56 e8 74 e2 d4 95 55 3f 00 00 00 00 00 00 00 00
       0.001317460913766518 0.0
0000e0 00 00 00 00 00 00 00 00 00 00 00 00 00 00 00 00
       0.0 0.0
0000f0 00 00 00 00 00 00 00 00 00 00 00 00 00 00 00 00
       0.0 0.0
000100 00 00 00 00 00 00 00 00 00 00 00 00 00 00 00 00
       0.0 0.0
000110 00 00 00 00 00 00 00 00 00 00 00 00 00 00 00 00
       0.0 0.0
000120 06 54 55 2b 4a 0b 6e bf 5d aa 6a a0 80 7f 78 3f
       -0.0036674927347726287 0.005980970809711464
000130 ac 66 7c a7 09 44 59 3f
       0.001542100360842384

exp_avg_sq f8 [3, 13, 1]
000000 59 f0 a4 a2 5a dc 2d 3f 00 00 00 00 00 00 00 00
       0.0002278195036725685 0.0
000010 00 00 00 00 00 00 00 00 00 00 00 00 00 00 00 00
       0.0 0.0
000020 00 00 00 00 00 00 00 00 00 00 00 00 00 00 00 00
       0.0 0.0
000030 00 00 00 00 00 00 00 00 00 00 00 00 00 00 00 00
       0.0 0.0
000040 00 00 00 00 00 00 00 00 00 00 00 00 00 00 00 00
       0.0 0.0
000050 26 9d 9c 23 dd 27 28 3f 36 37 fe c7 bd 4d 30 3f
       0.00018429350330360325 0.0002487743695319568
000060 ab d0 fb 42 aa 4b 25 3f 51 5f 3f 7c 0e c1 21 3f
       0.00016247228040067638 0.00013545324156782415
000070 00 00 00 00 00 00 00 00 00 00 00 00 00 00 00 00
       0.0 0.0
000080 00 00 00 00 00 00 00 00 00 00 00 00 00 00 00 00
       0.0 0.0
000090 00 00 00 00 00 00 00 00 00 00 00 00 00 00 00 00
       0.0 0.0
0000a0 00 00 00 00 00 00 00 00 00 00 00 00 00 00 00 00
       0.0 0.0
0000b0 00 00 00 00 00 00 00 00 0d e5 8f 75 5e 3e 1a 3f
       0.0 0.00010011149915091864
0000c0 3f fd 63 cc 02 16 22 3f d8 ad 1c d4 46 16 17 3f
       0.0001379850784317491 8.806998542059492e-05
0000d0 f8 34 b5 cf 1c 51 32 3f 00 00 00 00 00 00 00 00
       0.0002794928875190085 0.0
0000e0 00 00 00 00 00 00 00 00 00 00 00 00 00 00 00 00
       0.0 0.0
0000f0 00 00 00 00 00 00 00 00 00 00 00 00 00 00 00 00
       0.0 0.0
000100 00 00 00 00 00 00 00 00 00 00 00 00 00 00 00 00
       0.0 0.0
000110 00 00 00 00 00 00 00 00 00 00 00 00 00 00 00 00
       0.0 0.0
000120 da 90 11 25 0d b3 2e 3f ed fa 8a 85 5d ae 34 3f
       0.00023421798190093637 0.0003155687641473299
000130 fc 7a 1d 75 4b 16 2b 3f
       0.0002066580878432241

exp_avg f8 [3]
000000 52 9e 71 ba 2a d6 6a 3f 27 cb 3c 3a 2f 36 61 bf
       0.003275950864509083 -0.0021010324870983812
000010 09 34 3e e9 bb 95 6f 3f
       0.003855578435781219

exp_avg_sq f8 [3]
000000 b1 76 d8 7c 68 28 46 3f 24 3e 40 68 db 4f 38 3f
       0.000676203746198664 0.0003709707891639011
000010 40 90 ce 6d 71 1c 4c 3f
       0.0008578828670704544

exp_avg f8 [3]
000000 e6 02 47 39 13 b1 4f bf bf 4b 3f 03 0a 3a 4f bf
       -0.0009671539178769089 -0.0009529637231885309
000010 cc b8 96 f0 24 f7 5f 3f
       0.0019510136356575723

exp_avg_sq f8 [3]
000000 4c 95 e6 f2 5b 56 fc 3e 55 1c 4d ca 26 b1 f1 3e
       2.7024593856635624e-05 1.6872404234005305e-05
000010 73 e3 ad de 8d 4c 0a 3f
       5.016143753428558e-05

exp_avg f8 [3, 1, 1]
000000 bc e9 c1 80 8f e6 35 bf 42 fd 32 a8 34 d7 35 3f
       -0.00033417705049712163 0.0003332618291089392
000010 91 14 4f d5 52 1c 30 bf
       -0.00024582884116981183

exp_avg_sq f8 [3, 1, 1]
000000 32 16 71 8a 0c 80 bc 3e 0e 2e 35 d6 3e 36 b1 3e
       1.698743781878935e-06 1.0259089656292062e-06
000010 ba 86 1a 6d 64 3d 9f 3e
       4.6550949859602243e-07
