darts_logs/TCN_air/checkpoints/last-epoch=99.ckpt (torch, 31827 bytes, 49 tensors)

res_blocks.0.conv1.bias f8 [3]
00000000: c0ab f6cd a800 d73f 7e3e 5cd9 397d b8bf
00000010: b60c 6a7b 0c24 c63f
0.35941524613980036 -0.0956607967057099 0.17297512079321614

res_blocks.0.conv1.weight_g f8 [3, 1, 1]
00000000: dee7 d9e9 4f14 f63f 5f20 8ede f5e6 e13f
00000010: d268 2d87 1e5a e63f
1.3799590239345814 0.5594434115200889 0.6985008850272385

res_blocks.0.conv1.weight_v f8 [3, 13, 5]
00000000: 9f1d 355c 859b b9bf 4ca1 fc01 a9df c6bf
00000010: 7bda 79cc 363a aa3f b124 d08a b624 c8bf
00000020: 59ee cad1 5c4e e5bf 55fb daa2 57da 243f
00000030: 0610 7f31 db12 8c3b 0a5a 9562 93c7 a8be
00000040: 9b72 c983 10c4 05be aed5 d017 c86c 02bd
00000050: 847d 33df 42a4 303f ceff dbeb 09d1 a53e
00000060: 4196 da0a df25 64bb e930 7c02 bc06 59be
00000070: 21d6 7878 06b6 2c3c 68e8 8e9b cd4b e0bd
00000080: 8c28 7258 a629 34bb c7f9 b3a1 fed7 653f
00000090: 82c9 2695 5230 fbbb 9509 decf b6a4 4a3e
000000a0: cf73 cf67 8e15 8c3d be81 52fe 58da dc3a
000000b0: 193c f055 12f0 453d de5d d9a6 5443 113c
000000c0: 8b90 6a0b 3115 953c 0b06 5ca0 6fe0 473e
000000d0: 2cb6 ff28 8dcf a53e 0fa2 bcee a37a 92bf
000000e0: 5559 63de 12d5 7dbb f390 3ac1 1411 ed3b
000000f0: d696 112d 72aa e63a 6223 0316 dd48 d33c
00000100: 35c8 d1b2 f6d2 f13c abb4 43f0 badd 673d
00000110: f44d 79cf 90db c33a 8742 0550 cf92 61bb
00000120: 7062 4e2f 4292 23bd 8ee8 b38f 3088 0bbf
00000130: e600 1473 d43d 21be 5302 f763 5ac0 1b3f
00000140: cd97 37f4 8c33 65bf 6720 37cb cbca 313b
00000150: f241 e592 dfbd 3bbc 8d82 d514 cf18 923f
00000160: 9633 767a 1c25 6e3b 8c56 829c 031d 853e
00000170: b064 1f35 7efb 50bb a0a6 8384 d4ea 273c
00000180: 6804 2621 92ad 833f 1c52 de7f f734 00bf
00000190: 8968 ddd2 ad3f ac3f be8e b1ab 71fa d23f
000001a0: cad6 ad12 f196 d03f f407 76c6 917d d3bf
000001b0: 19c3 df16 4bf8 ca3f fe5a 9856 2185 c03f
000001c0: 6e7b caeb 32c0 b63f 48ce 5492 f4e9 8e3f
000001d0: cfc6 64c0 a83d a93f 84a3 e9ee ec53 bebf
000001e0: abab c3a9 8e74 ce3f c96c 29de 4ee8 62bf
000001f0: 152b 5802 a009 863f b3b2 c1a2 bd66 dcbf
00000200: 58f7 35e5 5c6f d23f ee63 0e4d bfd8 b5bf
00000210: dceb 7253 25c2 b43f 3e13 8b50 5167 9f3f
00000220: dc71 3a88 d512 c2bf 9fcc ca6f 2936 a13f
00000230: cdce b332 0a0b b13f 1ae6 72ba 2782 c03f
00000240: a73e 7119 f268 b8bf 69d0 2253 60d3 a8bf
00000250: 3c38 1e6c 0c9a b4bf 0d0b ce5a 8b32 c23f
00000260: 3ec6 de69 1909 c3bf 51e3 52f0 366f ab3f
00000270: 200d 1bf7 007c ab3f 6974 fb01 e923 c1bf
00000280: 54d4 ddef 66eb b3bf 99d6 a5c1 7f9c b73f
00000290: 8918 bbc4 0bf3 c33f 9399 a341 e8af c03f
000002a0: 892d 54db cd7c b6bf eccc d770 77d0 c13f
000002b0: 84fb 36ab e452 c0bf 76ae 0d22 0dbf b43f
000002c0: 8892 7148 9de0 adbf e19e fff4 db55 ba3f
000002d0: 35cc c454 70b7 b63f ef0a 4586 0d37 c3bf
000002e0: 4a72 caaa 365e b4bf c4df beae f0aa aebf
000002f0: 9983 2472 a20d adbf c90b 3880 d3d4 aa3f
00000300: 6103 dc0c 108b b23f 9d5a 171c df91 b73f
00000310: e780 f29a 7899 b23f 79f7 8a29 f4c3 b1bf
00000320: 1b28 88d3 8240 bbbf 2947 9b5a 6d9e b6bf
00000330: 0736 ca4e e749 c33f fe30 8bdf 3e32 aa3f
00000340: 589b bd6a 8d64 c3bf c7e0 1777 aacf c33f
00000350: 9061 4247 04eb b5bf 48e4 a751 92ff c1bf
00000360: 6b34 f8b2 3b42 c23f 5a3e fb0d 4a3d b7bf
00000370: c9a9 4484 38ae aa3f 93ee 9927 b88c b13f
00000380: d63f 440b 79b4 c33f e16b 8cc5 75cb bdbf
00000390: bb6d ac9f d0ad bbbf 0b8f f64e bc54 bebf
000003a0: 2a00 f315 d5fc c2bf 75bd 50f6 7dda b63f
000003b0: f508 a4ff c1ac a8bf 209f bff8 2d02 913f
000003c0: 7c22 ff54 77e5 a8bf 38c9 1bcb 9849 bfbf
000003d0: fc55 6855 dd35 bdbf b4ec efe9 95d4 98bf
000003e0: b58a e869 1084 b63f 043a 9639 815f aa3f
000003f0: 880b db7a 6b98 adbf f09c 9cfa ecc7 b5bf
00000400: cc0a dc25 ad64 adbf 8a43 7dd5 7ab2 b1bf
00000410: d01c 1922 dbc0 e13f a5bc 15f2 4c9f db3f
00000420: a29b 444c 9221 d33f e269 ab1a ec29 d1bf
00000430: d5a4 7c4a 5392 c3bf b5f0 7484 4f39 423f
00000440: 75b0 fffc cf5c 893e 7939 85d3 a65c 25bd
00000450: c83d 5ea0 db5a 7dbe 0aac 2e88 147c a83f
00000460: 4e36 5a9c 4722 b6bf 8527 afd7 0e4e 8d3c
00000470: 448d 7e48 08f8 783c 503d 5d6c 94ad 7c3f
00000480: aada 8d1f e65b b2be b001 75d2 5dfd 95bf
00000490: 60f4 61ea 9889 f1bd 0171 c313 b88d b5bd
000004a0: 2777 1e90 df3b b0bf 1ad9 60ca 36f0 343f
000004b0: 6339 f396 8e1d 23be 98d2 e029 187c 02bf
000004c0: 6917 5b59 a332 533f 423a efab 4b6d 0dbf
000004d0: da8b 51a2 d6b0 733c 740d 5393 4d9c 31bc
000004e0: 4778 7276 38cd b63f 3e84 82cf 9e5b 23bf
000004f0: 923d 4b5b 7055 82be dfdb 4fdc 3147 86be
00000500: 3ecf af36 a6c0 ad3d 179b 16fb a5a0 a93f
00000510: 8194 8528 c4b6 8f3f 4bc9 fad7 d883 1cbf
00000520: cd40 7c48 a90d b2bf 9837 1fcc 7b97 fd3c
00000530: ffb3 4993 2987 923f 9e2d 883b ba2f 863f
00000540: bac1 ed57 6909 b8bf a695 e9bd 1718 b8bf
00000550: 8f51 bc51 870b 6bbe d5b5 e21a 6c2f 28bf
00000560: bee2 7816 8833 debd b028 4c0d c75e aa3f
00000570: c030 7bcd 8b3d bf3d 69a2 1844 943a 9f3f
00000580: 7293 997b 5c18 af3f 357e 6047 1a64 c53d
00000590: 3f52 6a0e abaa b4bf 8146 7b36 9cf4 3abe
000005a0: 0d40 04bf 2487 c8bf 0e7c 97b7 f4a3 d3bf
000005b0: 4abe 3672 8447 cabf f3b4 1125 ecf5 b1bf
000005c0: f0d1 a2f4 ab57 d23f c3ca 9917 edcb d1bf
000005d0: b8e2 ac10 bedb cabf b3a2 8df3 b107 86bf
000005e0: 46a6 4722 7618 b1bf 8634 8547 5f21 b1bf
000005f0: c63b aac3 d38a cfbf b6cf 69d8 18f4 d5bf
00000600: e2de 8947 ef9f c0bf 196a 01f7 38ef 69bf
00000610: 7393 08e7 c239 b63f
-0.1000293111911703 -0.17870056721700178 0.05122538801235962 -0.1886203935430664 -0.6658157441629086 0.00015909499909657712 7.431035167127901e-22 -7.384894093281338e-07
-6.3347039382604e-10 -8.18231179582016e-15 0.000253931356565894 6.501840840999975e-07 -1.333278471185185e-22 -2.3307564016867916e-08 7.782141964647673e-19 -1.1856977706884992e-10
-1.66781899713251e-23 0.0026664708399259693 -9.211910243545252e-20 1.2406806689439323e-08 3.192804363792056e-12 3.7291525620427526e-25 1.5587730061761778e-13 2.3395741769228107e-19
7.314558546053321e-17 1.1118456387778286e-08 6.500109339648814e-07 -0.018045960851994333 -3.9482745663353184e-22 4.9240944003059576e-20 5.858973189387525e-25 1.0705116517914875e-15
3.957740095779058e-15 6.783163174089947e-13 1.283272388119413e-25 -1.1629150807307001e-22 -3.476565240089746e-14 -5.2513105368094245e-05 -2.007177445626914e-09 0.00010586311053995796
-0.002588057804802957 1.4717339855003978e-23 -1.5038801755348768e-18 0.01767276348744189 1.9948265017610887e-22 1.5730661418317609e-07 -5.61900300191814e-23 6.482798581196195e-19
0.009608403812992175 -3.0912211499121485e-05 0.05517333220514426 0.2965358902640495 0.2592127497112925 -0.304539150056484 0.21070231072328552 0.1290628121211838
0.08887022263159647 0.01509467193191151 0.049298547254137064 -0.11846810181454087 0.23793204583429647 -0.002308038748464723 0.010760545798822055 -0.44377079862787666
0.2880470503222248 -0.08533855086569961 0.08108742987944545 0.03066756300065098 -0.1411997714211698 0.03361634721422856 0.06657470453120169 0.12897202114054168
-0.09535134431029722 -0.0484876729473463 -0.08047559394455644 0.14216749128180375 -0.14871518773502318 0.053582875095748 0.053680448688760984 -0.1339083919218951
-0.0778107009517311 0.09223173597077973 0.15585467439649772 0.13036826329262094 -0.08784185986239924 0.1391743947020595 -0.12752970085236026 0.0810402115000047
-0.05835429677316478 0.10287260753068096 0.08873655385541286 -0.15011757904183962 -0.07956258458802626 -0.05989791997075103 -0.056744648393084414 0.052404984857296784
0.07243442834807247 0.09206957279034574 0.07265428336041034 -0.06939626707295855 -0.10645311035492037 -0.08835490667413794 0.1506928572384114 0.051164593494464214
-0.1515061160273159 0.15477495970822572 -0.08561732043961556 -0.14061192500210695 0.14264627684352446 -0.09077895013182893 0.05211044897653811 0.06855345694378405
0.15394509363295467 -0.11638580391847554 -0.10812095545082105 -0.11848046233950187 -0.14834083148707694 0.08927142394599293 -0.04819303746809737 0.016609876925854583
-0.04862568771892925 -0.12221674879746025 -0.1141031583323055 -0.02424844971026792 0.08795263848927955 0.051509893684045266 -0.0578034961195249 -0.08508187406970413
-0.057408724662328575 -0.06912963592664148 0.5547919908502994 0.43159793511490313 0.29892404029890873 -0.26818373302890397 -0.15290299546294386 0.0005561483639336036
1.8896571285455467e-07 -3.7946393701174886e-14 -1.0935557534355716e-07 0.0478216568220305 -0.08646056716153191 5.0835922240551763e-17 2.165704802238605e-17 0.00700147607660935
-1.094280490413687e-06 -0.021474328966407163 -2.5520406134064553e-10 -1.9602875950277396e-11 -0.06341359394579325 0.0003194936529128542 -2.2253320779853536e-09 -3.525685063757617e-05
0.0011717410283593416 -5.6127425970599085e-05 1.7079024874735922e-17 -9.54670300493651e-19 0.08906891719604558 -0.00014768899541642457 -1.3659704980191567e-07 -1.659848135879599e-07
1.3529887027547848e-11 0.050053774738719685 0.015485317694308389 -0.00010877619751673455 -0.07052095431959345 6.570684607003615e-15 0.018093728651752624 0.01083322042634088
-0.09389360806176841 -0.09411762606176541 -5.037530056824163e-08 -0.00018451876298312847 -1.0987167219267788e-10 0.05150434529612491 2.8412991441031748e-11 0.0304968992769851
0.06073273667133251 3.891004959389089e-11 -0.08072918989120924 -6.2760684216504125e-09 -0.19162425353033577 -0.30688207558517966 -0.20530753685805997 -0.07015872864731758
0.28660105600582053 -0.27807166390190846 -0.20983100713944736 -0.010756864781528241 -0.06677950226699023 -0.06691546913244126 -0.24642417005494915 -0.3430235017215141
-0.12988081925481426 -0.0031658279986406354 0.08681886806932741

res_blocks.0.conv2.bias f8 [3]
00000000: 6f9f 7f9c 61b9 d0bf 1e7b cefa 3251 da3f
00000010: 5a31 f3ef 47d2 b5bf
-0.2613147762590335 0.41120600216702197 -0.08523988350061043

res_blocks.0.conv2.weight_g f8 [3, 1, 1]
00000000: 1dd2 0656 f7f5 de3f 41c7 bc1d 062b e13f
00000010: 41ae 04e4 05ac ee3f
0.48376258278884327 0.5365019398507017 0.9584989026529415

res_blocks.0.conv2.weight_v f8 [3, 3, 5]
00000000: 508f 3740 0806 b5bf 2b28 af32 9294 b4bf
00000010: f57c c141 98c8 c0bf a319 1451 25cd b1bf
00000020: c7cd b79c 5590 d0bf 2884 82d6 d315 b9bf
00000030: d180 09b7 2f58 a5bf a9a2 c679 1cfd cb3f
00000040: d5a0 89a9 6b4b bcbf ac93 d8e2 5111 b13f
00000050: afa3 8bab 6405 c73f 070d 1a0d 3706 953f
00000060: 628d 4b52 26f9 c9bf 270b 6a1c f6bd 8a3f
00000070: 1e97 b0e9 f497 ca3f ae81 c8e9 9d36 a43f
00000080: 8baa 5872 3091 b7bf ab99 b33b 77b3 9d3f
00000090: 722d dfd6 b7a5 cbbf 589d aed9 bbbd df3f
000000a0: 6c66 d1ee 41c3 983a 6581 4b3f 20cf 243e
000000b0: 9c52 88cc b114 323f 53db 2aa2 13bd c43f
000000c0: ef26 8261 00e9 6238 d958 74ce 75d7 cb3f
000000d0: 3494 321b 824d 763f f27a 782f ef76 c43f
000000e0: 2a35 3ce0 2b2e d53f a37b 3898 1ea5 dd3f
000000f0: a950 a443 aa2f d7bf b995 ed78 3bd1 c43f
00000100: ef2c 9ebe 4281 a43f 8d35 2f90 e3de ddbf
00000110: a768 57b4 19f6 dd3f 33a5 5af5 f215 8b3e
00000120: d3e7 d26b 088c 23bd 0853 0a2b 51ee cd3a
00000130: 7c52 aac8 c37f 10bf 299e 4949 4154 903f
00000140: 0736 4a8c 3541 dabf 0c99 d779 4ff3 bebf
00000150: 62dd 5766 0043 c03f 98c5 c17e 2913 c3bf
00000160: e579 f3e0 a4d7 b73f
-0.08212329452322575 -0.08039201486022367 -0.13112166605694822 -0.0695365260072323 -0.25880947403421967 -0.09798931109482167 -0.041688433736227666 0.21866184183206386
-0.11052582635022941 0.06667053020699026 0.17985208870166278 0.02053152101008229 -0.20291594522778228 0.013057635061391416 0.20776235018382122 0.03947919348525218
-0.09205916206034652 0.02900492002381731 -0.21599481574808582 0.495955431537785 2.0003169798307788e-26 2.4224964207879504e-09 0.0002758916930656692 0.16202016275721096
4.4457577353921585e-37 0.2175128229216117 0.005445011355878871 0.15987958734418545 0.3309430780216923 0.4632030951051382 -0.36228424649858454 0.1626352634877273
0.040048681038649885 -0.4667290599871528 0.4681457768580323 2.0180447773036436e-07 -3.4722453351880434e-14 1.9342407598090578e-25 -6.293899984150837e-05 0.0159464074116881
-0.41023005199608104 -0.12090012287771773 0.1270447253916514 -0.14902228059103773 0.09313421718568511

res_blocks.0.conv3.weight f8 [3, 13, 1]
00000000: eda9 5f94 ade0 d6bf 0000 00a0 022d c33f
00000010: 0000 00e0 3f6a cc3f 0000 0080 8478 d0bf
00000020: 0000 0080 637b d0bf 0000 0040 3cde c13f
00000030: 0000 0040 cfa6 bcbf 0000 0000 5db0 c1bf
00000040: 0000 0060 a765 d13f 0000 00c0 f04b c0bf
00000050: 55a2 f889 3a45 83bf 8c0a f954 ffc9 d5bf
00000060: 09cf 1faa 0c60 d6bf 3bad 6996 2630 d13f
00000070: 0000 0080 0ac5 c1bf 0000 00c0 da20 cfbf
00000080: 0000 00a0 933b b23f 0000 00e0 463e d1bf
00000090: 0000 00a0 9967 c3bf 0000 0000 b982 b43f
000000a0: 0000 0080 47fc b33f 0000 0060 18aa 70bf
000000b0: 0000 00e0 e439 ca3f e406 9da8 19d9 d13f
000000c0: 5c55 7cf0 57c8 cc3f 7f78 f19f 4829 cb3f
000000d0: 5f2f a02f 5cff e1bf 0000 0080 7dd2 c1bf
000000e0: 0000 0060 edad c7bf 0000 0040 faac cbbf
000000f0: 0000 00e0 e9d9 ce3f 0000 0040 020b bdbf
00000100: 0000 0040 9e09 d1bf 0000 00c0 4cb0 c33f
00000110: 0000 0020 3b49 d1bf 0000 0040 a652 bdbf
00000120: 29b9 9156 d9bb c9bf 175f e387 ab4b 7ebf
00000130: 5b5a 063d 30d8 7e3f
-0.3574632595979484 0.14981110394001007 0.22199247777462006 -0.25735580921173096 -0.2575310468673706 0.13959458470344543 -0.1119203120470047 -0.13819468021392822
0.2718294560909271 -0.12731751799583435 -0.009409386954829882 -0.34045394228102377 -0.3496123944635064 0.2685638874888416 -0.13882571458816528 -0.24319013953208923
0.07122156769037247 -0.2694260776042938 -0.15159912407398224 0.08011966943740845 0.07806822657585144 -0.0040684654377400875 0.20489178597927094 0.27887574640418067
0.22486399881806107 0.21219737825134996 -0.5624218874158763 -0.13923615217208862 -0.18499533832073212 -0.21621635556221008 0.2410251945257187 -0.11344923079013824
-0.2662120461463928 0.15381774306297302 -0.2700946629047394 -0.11454237997531891 -0.20104519583714733 -0.007396383325804632 0.0075303921043060286

res_blocks.0.conv3.bias f8 [3]
00000000: fa6e 4cd1 7f6c 843f c4f6 9ce5 cc62 c43f
00000010: d732 2562 684f b73f
0.009972570967469608 0.15926514827326888 0.09105541607022914

res_blocks.1.conv1.bias f8 [3]
00000000: e369 6cfc 8de4 c83f 66fa e5a4 710c cf3f
00000010: 9eaf b2f6 30ac ce3f
0.1944749338661743 0.24256725837399812 0.23962986036110306

res_blocks.1.conv1.weight_g f8 [3, 1, 1]
00000000: 832b 4e46 630b d13f afda 7e9b 0238 ee3f
00000010: 1c43 6035 ebea eb3f
0.26632005563504196 0.9443371808073006 0.8724266092777699

res_blocks.1.conv1.weight_v f8 [3, 3, 5]
00000000: a1d5 e073 28a8 c83f c0bd f303 2e96 c83f
00000010: b42b 58f6 dd57 d4bf ab83 28bb 50ae d7bf
00000020: 97f9 eba2 f3fd c1bf 93ca e1fc 79bf c23f
00000030: 790c fa28 e225 c03f b428 88ac e66c ccbf
00000040: f789 fe29 cd5b a13f 587c ccad a8cf d3bf
00000050: 94ad 4c6e 996a e73f 9242 53a2 81c5 b63f
00000060: e9d9 f0e2 7341 ed3f 265f f36c fdfe d3bf
00000070: fa54 d24b 10a8 d1bf 9de2 ac14 f593 d0bf
00000080: fbde 0f44 a444 d8bf 0cac 0fb4 6c8c d33f
00000090: e036 654d dec2 c33f d26b 81d9 dc76 bb3f
000000a0: b22b 881e 1e1e e0bf 0d2c 45a7 c8d4 bfbf
000000b0: 9610 a079 b375 bb3f b7ff aab0 831d c13f
000000c0: 4800 913d 2b49 c5bf f7f5 9114 1207 eebf
000000d0: 11c2 a89d be0c d5bf a218 e511 eac8 b63f
000000e0: 1126 8def 6b81 c83f 245d 016a dc82 c83f
000000f0: dd23 c463 68cd c43f ac28 f2e1 d64e d33f
00000100: badb a537 1ea7 d63f bb91 cb41 51b9 c83f
00000110: d0c9 9205 b9c6 b73f 4ca4 5c1a 5f97 e0bf
00000120: f40a 0eab 7e2b a13f ae6b 9c28 710a c43f
00000130: 92b5 acf3 9ce3 d03f d135 6710 1c8e 943f
00000140: 7a3b 7707 7d43 513f 901c 1c86 e1fa a0bf
00000150: ce60 0295 1951 db3f 5049 5cbf 54b8 e13f
00000160: a544 e8bb 4082 e43f
0.19263177545660162 0.19208312218641588 -0.317862978525848 -0.37001436497853984 -0.14056249098935034 0.14646839950326704 0.12615611077135094 -0.22207339691550987
0.033903514267212324 -0.3095494935277592 0.7317626146590777 0.08895120823877736 0.9142398292959203 -0.31243835105623174 -0.27588279156164186 -0.2590305997760341
-0.37918955465964616 0.305445838776621 0.15438441065855724 0.10728245077318313 -0.5036764713598727 -0.1243405731558342 0.10726472586981325 0.13371320844998788
-0.16629543787166967 -0.9383631135712552 -0.3289028682366118 0.08900320946586018 0.19144963452190258 0.19149356056252842 0.16251854773898247 0.3016869741919759
0.35395007547725366 0.19315543854385261 0.09287601839131487 -0.5184779658203609 0.03353496397087055 0.1565686653419482 0.2638924007067881 0.02007335519902204
0.0010536881435318766 -0.03316406976778652 0.4268249468964428 0.5537513482579843 0.6409000082077411

res_blocks.1.conv2.bias f8 [1]
00000000: 8e0b a420 f458 b73f
0.09120107457060397

res_blocks.1.conv2.weight_g f8 [1, 1, 1]
00000000: d6ef 93ac 26c5 dc3f
0.44953314641292985

res_blocks.1.conv2.weight_v f8 [1, 3, 5]
00000000: 3ebb a717 4186 cfbf 1643 d3a5 255d a2bf
00000010: db8f c997 2d9a cbbf 9cf9 2fa5 251e b8bf
00000020: 53c6 3b83 6a8d d83f 7248 bbcf 82ec ddbf
00000030: e39b f931 4d5b cfbf 04ea 5ed6 dfe6 ce3f
00000040: 1a4b 12d0 9056 dc3f acdc 36c5 dbe7 803f
00000050: ea3f a909 fda8 933f b08d e731 2ae4 b53f
00000060: 0bd0 0a14 6f35 bebf 4a9b 0d7d b058 d4bf
00000070: de53 7b8d 9c4f d9bf
-0.24628461508788208 -0.035866905681933556 -0.2156426421307732 -0.09421000750442093 0.38363135162135115 -0.4675604847553877 -0.2449738019961095 0.2414207264644831
0.442783549494537 0.008254734951022101 0.01919932719675891 0.08551276892062876 -0.1180028366023295 -0.3179131718847442 -0.3954841024072361

res_blocks.1.conv3.weight f8 [1, 3, 1]
00000000: 9da6 1f65 be93 ddbf ceb8 ba5c ef24 dc3f
00000010: 8c50 8e71 3c17 dcbf
-0.4621425616775044 0.43975433402637243 -0.43891821946568466

res_blocks.1.conv3.bias f8 [1]
00000000: 2cfd d637 248d d2bf
-0.2898645921049645

best_model_score f8 []
00000000: bfe8 11e1 3b41 a43f
0.03956019518314368

exp_avg f8 [3]
00000000: faaf 677a 16c4 0ebf 0500 0000 0000 0000
00000010: f01a 39a7 70d5 5dbf
-5.868142698148278e-05 2.5e-323 -0.0018209076050809646

exp_avg_sq f8 [3]
00000000: 1154 1d7c 3214 bf3e 05df 5093 86ce c738
00000010: e7aa f72d 392d 1f3f
1.8524465165887847e-06 3.5820402570423507e-35 0.00011892949577655861

exp_avg f8 [3, 1, 1]
00000000: 5b09 766c ea63 103f 0500 0000 0000 0000
00000010: 0023 2c3e 6017 23bf
6.252401646203913e-05 2.5e-323 -0.0001456551536523007

exp_avg_sq f8 [3, 1, 1]
00000000: 1f3d f307 1cc5 723e 2149 57b2 6e08 7c38
00000010: de82 e363 9906 b23e
6.992354605331905e-08 1.3181024618068263e-36 1.074420097384332e-06

exp_avg f8 [3, 13, 5]
00000000: 90e5 4333 0aa7 0e3f 1156 7668 100a fe3e
00000010: 0a87 9524 1101 0ebf 6be5 9229 c3a1 03bf
00000020: 8fa4 db0d 18d3 103f 47ab f395 8fbd 3dbe
00000030: db38 ba06 b396 acba c722 812f ab97 c73d
00000040: aa5e ceca c002 263d b5b1 dd64 5b43 2a3c
00000050: 51b3 0cbf 079c 54be 29b0 008b a2c3 c4bd
00000060: fe54 358d bf2e 873a 6fb8 f226 e8b8 753d
00000070: c7bd 6ac1 9cde 51bb 7198 6235 3ebb 053d
00000080: 35c2 cd3c 7dd1 573a f6d6 f486 2849 81be
00000090: 647a 044b 8f6f 343b 5b95 155d 7b8c 6bbd
000000a0: 2fde ec27 fd98 8abc 5358 2c6d bc9c f6b9
000000b0: 9b8e 692b 4cd9 67bc c39c 7589 997c 28bb
000000c0: 153b dedc 691f b5bb 59f6 66ff 1e74 6dbd
000000d0: 6561 6453 bd34 c4bd 2690 0459 50f4 b43e
000000e0: beea fa31 837b 9d3a a319 92a5 68c5 0bbb
000000f0: cab6 7718 8cdd 03ba 53ad 08b8 eefa f0bb
00000100: fc0a 5ed6 0380 14bc 438b 8fde b378 9fbc
00000110: 9a5c 2826 f324 d6b9 00b6 e44e 3b36 813a
00000120: 2f50 b6c0 2539 473c 4e38 3a77 133e 273e
00000130: 45c3 e26d 43b2 3a3d bc95 a810 6eae 4ebe
00000140: 9468 6c38 6f1d 883e 27c6 8761 e4ae 54ba
00000150: a181 858c 3b30 5d3b 53a4 7bcc e782 b4be
00000160: 5d3b 49ba 6b30 8eba d2e5 7ecf 28d5 a1bd
00000170: 7076 7d69 d647 683a 075d 60a2 386c 49bb
00000180: aa7d b5e9 da16 a5be 2c92 6fc6 63ba 223e
00000190: 3e35 9955 6f8f 2e3f beef 57ba c140 283f
000001a0: 268e a215 2e27 2d3f 5762 c140 2c7f 213f
000001b0: 748e 6c69 ab4b 233f 356b df0f cc8b 2cbf
000001c0: 1756 a72e a27f 2fbf 1b31 588f 78b6 30bf
000001d0: 04bf 25b8 e965 31bf 6459 3620 6f37 2ebf
000001e0: b616 302a ac27 fb3e d0c6 e609 da8f 063f
000001f0: a604 ba88 6277 063f 81e3 e458 449f 143f
00000200: af40 0ed0 6802 f3be 0500 0000 0000 0000
00000210: 0500 0000 0000 0080 0500 0000 0000 0000
00000220: 0500 0000 0000 0000 0500 0000 0000 0000
00000230: 0500 0000 0000 0080 0500 0000 0000 0080
00000240: 0500 0000 0000 0000 0500 0000 0000 0000
00000250: 0500 0000 0000 0000 0500 0000 0000 0080
00000260: 0500 0000 0000 0000 0500 0000 0000 0080
00000270: 0500 0000 0000 0080 0500 0000 0000 0000
00000280: 0500 0000 0000 0000 0500 0000 0000 0080
00000290: 0500 0000 0000 0080 0500 0000 0000 0080
000002a0: 0500 0000 0000 0000 0500 0000 0000 0080
000002b0: 0500 0000 0000 0000 0500 0000 0000 0080
000002c0: 0500 0000 0000 0000 0500 0000 0000 0080
000002d0: 0500 0000 0000 0080 0500 0000 0000 0000
000002e0: 0500 0000 0000 0000 0500 0000 0000 0000
000002f0: 0500 0000 0000 0000 0500 0000 0000 0080
00000300: 0500 0000 0000 0080 0500 0000 0000 0080
00000310: 0500 0000 0000 0080 0500 0000 0000 0000
00000320: 0500 0000 0000 0000 0500 0000 0000 0000
00000330: 0500 0000 0000 0080 0500 0000 0000 0080
00000340: 0500 0000 0000 0000 0500 0000 0000 0080
00000350: 0500 0000 0000 0000 0500 0000 0000 0000
00000360: 0500 0000 0000 0080 0500 0000 0000 0000
00000370: 0500 0000 0000 0080 0500 0000 0000 0080
00000380: 0500 0000 0000 0080 0500 0000 0000 0000
00000390: 0500 0000 0000 0000 0500 0000 0000 0000
000003a0: 0500 0000 0000 0000 0500 0000 0000 0000
000003b0: 0500 0000 0000 0000 0500 0000 0000 0000
000003c0: 0500 0000 0000 0000 0500 0000 0000 0000
000003d0: 0500 0000 0000 0000 0500 0000 0000 0000
000003e0: 0500 0000 0000 0000 0500 0000 0000 0080
000003f0: 0500 0000 0000 0000 0500 0000 0000 0000
00000400: 0500 0000 0000 0000 0500 0000 0000 0000
00000410: a7ff 1483 6d9f 40bf 5841 c693 89d4 44bf
00000420: 264f c735 7f98 49bf 70b8 6dcf b42c 4bbf
00000430: a311 db99 0ae6 4ebf 04f5 e36b a851 703e
00000440: c0e8 e378 2c03 c3bd 869c 08af 0438 6c3c
00000450: a977 acd2 771b b8bd bee8 e1a9 f24d d03e
00000460: b799 5dc0 239e dcbe 165b a82a 1c0c e33b
00000470: 63d5 3308 b5a2 f7bb c2e2 de04 fe3d a63e
00000480: 08e3 b2fc e6d9 edbd b888 eca5 f3fe bebe
00000490: 27de 7536 104c 733d d105 9e20 16d6 e43c
000004a0: 1b66 541a ca49 d5be ceda 6ec1 d234 3e3e
000004b0: bc81 8a79 c733 8fbd 8b3b 60c2 3898 32be
000004c0: 948a 9aa5 02d0 803e 56d4 7479 3d5d 733e
000004d0: ceb3 2581 826c 82bb 698f 9c85 9761 3d3b
000004e0: c1aa 6f50 1e72 dd3e 66d3 d352 d4c6 53be
000004f0: 1b30 6a79 633c c2bd b138 102a 16f1 c23d
00000500: 7633 b94c 02c0 fdbc fa79 0662 2205 d13e
00000510: 1e60 5582 26e0 b63e c691 d72e def2 613e
00000520: 7eee 7b2c 408d d7be 0fde 248d cab0 463c
00000530: 25f9 b418 41ac ba3e 67fa a084 5373 b03e
00000540: cb66 193a 16fa debe 500c 4165 480c dfbe
00000550: 733d db33 f532 a2bd a749 e19b 04d3 56be
00000560: 4e1a ba01 7cd5 f83c 26af 0151 107c d13e
00000570: f616 3b2c 0d9d f8bc 6f2e 05cd bb69 c53e
00000580: 3eea 7c46 f26e d43e 2608 e12b 476c 043d
00000590: 65e9 40ce 25cc dabe 28c5 9a99 54bb 83bd
000005a0: decb 78f7 ae93 27bf e886 7725 cf09 2dbf
000005b0: 3bdf d16a 0390 32bf 9bed 33a6 7b61 39bf
000005c0: 02ee 23a8 96a3 3abf 9baf 4daf 8f79 283f
000005d0: 8774 5fd5 5624 203f 126b 659e edab 00bf
000005e0: 8f40 5fbc a06b 1fbf c92e 08bb c709 34bf
000005f0: 6568 8f54 1be8 41bf 035a 7833 74aa 42bf
00000600: 405b 0996 7ab5 40bf fe4b 53e8 7595 3cbf
00000610: 7e6d 5d9b 10e5 37bf
5.8465002810546775e-05 2.864772116380725e-05 -5.7228408489219394e-05 -3.744484747287665e-05 6.418070139670356e-05 -6.92449328365308e-09 -4.6187486173775444e-26 4.291442716642409e-11
3.9098953897975714e-14 7.118631127245041e-19 -1.919408626758274e-08 -3.776985787960069e-11 9.363381751011822e-27 1.2347693632677737e-12 -5.912547853544612e-23 9.650688238293668e-15
1.2025177142549599e-27 -1.2878905717723878e-07 1.6904081207183805e-23 -7.82982777403502e-13 -4.6139503421673114e-17 -1.7837920129966232e-29 -1.0342776333969926e-17 -1.0127469109623417e-23
-4.472907633119548e-21 -8.371216036615883e-13 -3.675452513869454e-11 1.2489766483903414e-06 2.3815750112933696e-26 -2.87146733718721e-24 -3.134210473339692e-29 -5.753117255144812e-20
-2.7782760024944035e-19 -1.0918868097486561e-16 -4.3672000699816735e-30 6.951807811670625e-27 2.517867892451888e-18 2.7057813158608393e-09 9.48444572251034e-14 -1.4287124834825714e-08
1.796705897054588e-07 -1.0442333463657105e-27 9.657634296732534e-23 -1.2225716989283915e-06 -1.2193298074182731e-26 -8.109352151800363e-12 2.451715617076149e-27 -4.2058393919786315e-23
-6.285094572947769e-07 2.18023603640194e-09 0.00023315652906534008 0.00018503537027913895 0.00022242009692262469 0.00013348975369599739 0.0001472136252341664 -0.00021778932563062408
-0.00024031500590975037 -0.0002550167403974222 -0.0002654739002059122 -0.0002305339004180048 2.5896998192129476e-05 4.303344870794162e-05 4.285115673231228e-05 7.866720827544132e-05
-1.8128787818095276e-05 2.5e-323 -2.5e-323 2.5e-323 2.5e-323 2.5e-323 -2.5e-323 -2.5e-323
2.5e-323 2.5e-323 2.5e-323 -2.5e-323 2.5e-323 -2.5e-323 -2.5e-323 2.5e-323
2.5e-323 -2.5e-323 -2.5e-323 -2.5e-323 2.5e-323 -2.5e-323 2.5e-323 -2.5e-323
2.5e-323 -2.5e-323 -2.5e-323 2.5e-323 2.5e-323 2.5e-323 2.5e-323 -2.5e-323
-2.5e-323 -2.5e-323 -2.5e-323 2.5e-323 2.5e-323 2.5e-323 -2.5e-323 -2.5e-323
2.5e-323 -2.5e-323 2.5e-323 2.5e-323 -2.5e-323 2.5e-323 -2.5e-323 -2.5e-323
-2.5e-323 2.5e-323 2.5e-323 2.5e-323 2.5e-323 2.5e-323 2.5e-323 2.5e-323
2.5e-323 2.5e-323 2.5e-323 2.5e-323 2.5e-323 -2.5e-323 2.5e-323 2.5e-323
2.5e-323 2.5e-323 -0.000507286522555707 -0.0006356879962812574 -0.0007811185019428221 -0.000829304014457367 -0.0009429504168215096 6.079292355975094e-08
-3.4583349301720526e-11 1.2237963016223239e-17 -2.192545898927123e-11 3.887291908916632e-06 -6.822999244571218e-06 3.226738942482537e-20 -8.008044243228917e-20 6.628679416398731e-07
-2.1719592647790848e-10 -1.847499923442659e-06 1.0969144106365462e-12 2.31329124050778e-15 -5.075511954966075e-06 7.032961788403322e-09 -3.5472865526383062e-12 -4.329396429912765e-09
1.2526318720226339e-07 7.213733820429557e-08 -4.876756814403336e-22 2.430357414351866e-23 7.020419849882831e-06 -1.8418466020544668e-08 -3.317089587108604e-11 3.445483244018998e-11
-6.6058347882095526e-15 4.0578975419023595e-06 1.3634912730733286e-06 3.343206409956646e-08 -5.615177265157568e-06 2.4601187719157676e-18 1.5898268398008733e-06 9.805257996789181e-07
-7.385468877874143e-06 -7.402415196425155e-06 -8.275971592503536e-12 -2.1256775666335664e-08 5.514238719590296e-15 4.168659202812518e-06 -5.465290942168205e-15 2.5526311235086025e-06
4.871698457804275e-06 9.069616608589057e-15 -6.389010398117439e-06 -2.2432413565897073e-12 -0.0001798773844129122 -0.00022154477731733198 -0.0002832420676166407 -0.00038728016643548865
-0.00040647915024269465 0.00018672827686871677 0.00012315330485438236 -3.179854302245133e-05 -0.00011985939553871477 -0.00030575872645564585 -0.0005464681099696221 -0.0005696360958065697
-0.000509915215000635 -0.00043615463830554136 -0.00036460547868496357

exp_avg_sq f8 [3, 13, 5]
00000000: bc9e 6924 4287 aa3e abec ce78 83ab a43e
00000010: 82dc a60a f83c a73e fcc2 4394 c0fe a33e
00000020: 134d 2350 a01a a03e d8cb 6e6f 555d 903d
00000030: 2708 4dcf c891 513d c6b3 ae0f 5350 9e3d
00000040: 63de 59b0 14d5 503d c362 864c d634 733d
00000050: a024 e169 906f 693d 1e6c a499 8e43 9e3d
00000060: f2c8 172c e11b 623d b78f 6b03 4b08 963d
00000070: 995a cf68 87eb 693d 0ba6 4ba7 aae8 703d
00000080: 7363 8886 a1b4 643d 6c52 d36d 8b91 923d
00000090: 2c58 9686 0511 1c3d cb5d 2add 4d4c 533d
000000a0: 17bf ed20 996d 883d 312e a5d7 9177 313d
000000b0: ea33 3307 3a36 5a3d f5ee 251d 01c5 2a3d
000000c0: 1a81 af54 14d0 4f3d 715a 7944 1c0c 693d
000000d0: 8b23 6f40 a1d8 433d e979 70bb e390 d73d
000000e0: 7159 9180 d453 4d3d 81e4 525a 2fb2 473d
000000f0: 6268 77c7 9c4b 3d3d 1f83 f247 fd03 3e3d
00000100: 7f87 4691 7411 623d b6ee 4819 b19e 803d
00000110: f5d2 31a8 76eb 203d 41ba fba8 b8ef 4b3d
00000120: 5c09 625b 8df5 1a3d 26e8 f522 153d 383d
00000130: 394c b618 6a78 173d cd42 0531 ed02 803d
00000140: 666f 2987 8d14 613d 2493 9622 981b 633d
00000150: a52a 1058 1f7c 553d c07d 8865 3b15 d73d
00000160: 0b5f 1bb6 09bb 4f3d 16eb b508 f44b 383d
00000170: 810a 7230 3443 273d abee c75f 80df 563d
00000180: 6dae a446 0d9b b53d 825c 6396 0c86 623d
00000190: 42ad c440 4bd2 c23e 582b d005 e6b9 b83e
000001a0: 362d 95e8 b243 be3e 5b48 d726 3f02 bf3e
000001b0: 7312 3056 29dc b93e 4242 3863 91cf aa3e
000001c0: d2b8 6b0f 9988 ac3e 5142 7048 85f9 ac3e
000001d0: 00a9 5bc4 c9ca ad3e e838 7aa8 c509 ad3e
000001e0: 3873 26d5 2180 a03e e27f bc95 da06 9e3e
000001f0: c2c7 9350 dc3d a03e 75ff c556 4c37 9d3e
00000200: 4206 4371 f7c6 a63e 48c4 4c66 7119 0a38
00000210: ea10 fedf 6267 4938 645a 065b 5e0e 8e38
00000220: c2eb 165f bcce 8e38 69c4 2a5f 230e b038
00000230: bede 00e6 ff4c f537 3ee1 8cdf f30e 2538
00000240: 0ebe ae01 f456 1238 afdf 99e8 eafd af37
00000250: 8aaa bae9 118d 0538 f43c 5e56 5ffe 2a38
00000260: f198 3d4f 5d34 2e38 cbda cc35 a9f5 d737
00000270: 412e 1565 0f64 d837 51bd e170 e731 2738
00000280: 80b0 9b73 ad38 0338 1214 faa7 859a 1038
00000290: 2b3d 9a07 0cf4 3038 f1ef a939 0ea7 2538
000002a0: 2481 5e93 4597 0c38 d3ec 4766 a795 2938
000002b0: 0e45 9300 fc73 2438 587c e518 360f 0638
000002c0: e3a9 374e a764 e637 bc35 dd25 63da 1638
000002d0: aafd 38fa 9581 0d38 b9ca 77ed 49ea 2e38
000002e0: 45bb e93f 6dbd 0438 c4b6 dee0 50e8 e937
000002f0: 217a bdcf 4bd6 e237 1657 747c 8904 c437
00000300: 557e f1f4 66bd fd37 4ec3 1d29 fa83 1038
00000310: bea5 386c dc13 fe37 2a1d 6783 d63a f937
00000320: d8c7 e380 292a 1938 0573 6dd0 391d 0d38
00000330: 15ba 4dec 8335 2f38 18c0 3c51 dcba c637
00000340: da7b 5fbe 74a0 2f38 449d 1252 a9aa 3038
00000350: 8c48 dd5e 2d5f 0a38 ffe9 e332 b941 2a38
00000360: da1b f7f9 f238 2b38 d54f 5e1a 05a5 0f38
00000370: 3552 e868 8232 c237 dca1 e083 bf07 f837
00000380: e4e7 5cb2 ac72 3038 8e24 a4a0 6e10 2038
00000390: c9e6 9ac0 0347 1a38 85c6 7c5f a6d9 2038
000003a0: 388d 73a5 565a 5438 80c7 df08 cbf6 a138
000003b0: 5d93 42be 4915 a438 b5dc caeb 3784 b738
000003c0: 51c9 f314 7b8b b037 1674 fb48 064c 2238
000003d0: 5b5d 89f9 d174 1e38 8faa a3e7 8349 6438
000003e0: d894 5e76 672d b238 06ab 5e0f 1466 cb37
000003f0: c83d bbf9 4b2a e537 dfbb a39e 85d9 0938
00000400: 82d7 127c e64a e437 5dcd 193f 12d9 f837
00000410: 5cf1 5c36 a2d7 e83e 5c6d 031a 661f ee3e
00000420: b3e9 7f6b ea5b f13e 4f43 3f82 bfbc f13e
00000430: 6a13 c5f6 7306 f33e 1adb be96 a4f3 c73d
00000440: ae2f abd8 420b 7b3d 0274 2769 c5e9 813d
00000450: ecc8 7dfe bfc1 a43d 8150 cd2d 1e32 0f3e
00000460: 3b93 2ed2 d138 253e aea4 3817 4103 933d
00000470: 4da8 7f96 6546 8b3d 069e 4e71 6f3e dd3d
00000480: 0f29 1e75 510b a53d 042e e8d4 13b4 f43d
00000490: 3cc8 858e 8a72 8b3d d2d7 e5a6 9979 743d
000004a0: 22b4 ed9e 80ae 183e 4bbb cd45 4d00 5d3d
000004b0: a661 313e a9da 8f3d d079 8991 95eb bd3d
000004c0: 76e3 81e8 61bb ca3d 0ca8 10b2 621c 893d
000004d0: 9908 e5f5 ebc5 643d 4d81 f112 a556 643d
000004e0: 4173 acf0 9164 263e 810d d162 aa64 bc3d
000004f0: 594c 5604 4894 a03d 29fc 2c50 8a28 503d
00000500: d763 533c ba73 523d e107 7ba0 a4c1 103e
00000510: 6a20 dc84 514a ee3d 7201 2f53 178f 813d
00000520: 88e8 8ff2 f699 1d3e c400 c597 efc6 973d
00000530: 4640 4cc0 481a ef3d 7cdd 4a16 1927 e63d
00000540: 6e78 5537 f3a5 283e aca8 10a1 7bc1 283e
00000550: ab73 9617 ee86 ac3d 9e0a a9ed e601 c33d
00000560: c03e dd9c beaf 683d ac7f c92c d288 113e
00000570: 1e0a 270c a0a3 4f3d 761d a47a 7551 003e
00000580: 6021 8f39 26f4 163e c557 a318 1c4e a13d
00000590: 3e9d aa82 a4c4 223e 7311 a3d3 c26f 983d
000005a0: a549 f443 9ce5 e03e 5659 1641 0c16 e43e
000005b0: bc8c 56a0 b008 e83e 4851 31ab 3bbf ea3e
000005c0: 0205 bc00 6711 ed3e 3d4a 5b1e d3fd e13e
000005d0: 8b83 b8c7 9b76 e63e a7f0 83fe 4e12 eb3e
000005e0: 9952 86ef 241e eb3e c69f f6c5 d807 ee3e
000005f0: ffe7 f238 78b2 d93e a82c 294b f96b df3e
00000600: 6c2d 2b60 c817 e33e 7066 2e42 7dff e53e
00000610: acbd 0fb2 ff11 e83e
7.906065285336054e-07 6.16013254287926e-07 6.925511304910298e-07 5.959011919726258e-07 4.799368585002647e-07 3.72087581331076e-12 2.4967719076456295e-13 6.892552713506551e-12
2.392020368393292e-13 1.0917571524999805e-12 7.229288407453653e-13 6.881212961125148e-12 5.146860248055787e-13 5.009586541981937e-12 7.366917013111116e-13 9.611570684302033e-13
5.884882535786141e-13 4.221995770373768e-12 2.492805123741393e-14 2.7424197113032987e-13 2.7771554650177965e-12 6.205549541914392e-14 3.724924076055873e-13 4.755227011471388e-14
2.2604361208375814e-13 7.118872624535117e-13 1.4101580707129e-13 8.573251731786029e-11 2.0838414568315195e-13 1.683704556882326e-13 1.040780297864069e-13 1.0663677412035661e-13
5.135287019762166e-13 1.88946271609451e-12 3.0055565702529675e-14 1.9850014211455197e-13 2.394456915953427e-14 8.611281916295923e-14 2.0845875163463568e-14 1.8202890436055344e-12
4.854508843417372e-13 5.430760594309118e-13 3.0531812841777754e-13 8.397523768654772e-11 2.2545959363298906e-13 8.631919148784762e-14 4.1322527789955725e-14 3.2504562716428067e-13
1.965024359826731e-11 5.264732172150797e-13 2.243692966660182e-06 1.4737943481192466e-06 1.8039017127432584e-06 1.8482670854813954e-06 1.5413764564719e-06 7.990244683138332e-07
8.503671143614413e-07 8.635130520646895e-07 8.878749972716937e-07 8.654049716437676e-07 4.917537046903597e-07 4.474337822347308e-07 4.84038680385742e-07 4.3535245344144366e-07
6.788138500400973e-07 9.587400467908844e-39 1.4931042529288996e-37 2.8264646233550633e-36 2.8971291905729157e-36 1.2078610502433233e-35 3.9123353446916305e-39 3.0942550595446884e-38
1.3473854750959176e-38 1.836243035557906e-40 7.916607160607404e-39 3.9663592441117636e-38 4.438159559044867e-38 1.1001714826247602e-39 1.1199733606321959e-39 3.408189787856663e-38
7.060825996956946e-39 1.2198400170853256e-38 4.982129609599125e-38 3.181557864135377e-38 1.0502639928509162e-38 3.7593169748548737e-38 3.005307648498393e-38 8.103350831898037e-39
2.056488601154396e-39 1.6789788127857352e-38 1.0838864128851638e-38 4.5425789801468704e-38 7.618653757755186e-39 2.3792266571183575e-39 1.729913900430838e-39 4.595843779796121e-40
5.462348173398478e-39 1.213369946805311e-38 5.524379357032791e-39 4.6339889613898665e-39 1.848809859035922e-38 1.0694854573154476e-38 4.5857568992712006e-38 5.218534683734531e-40
4.6471378538978936e-38 4.897887092438958e-38 9.687464225847332e-39 3.8580800405350845e-38 3.999980629670574e-38 1.1624393515436367e-38 4.177895735581451e-40 4.4136628090407144e-39
4.833617384235009e-38 2.3604202867041124e-38 1.9305585273413622e-38 2.4759136144706804e-38 2.3924700890844025e-37 6.757319143173654e-36 7.554443837201049e-36 1.7691831922209765e-35
1.899255271853272e-40 2.688498241677331e-38 2.2375776649873816e-38 4.769490500895731e-37 1.3675125725823395e-35 6.290443029667586e-40 1.943718644776386e-39 9.495678309202322e-39
1.86357909907161e-39 4.5638448177136376e-39 1.1845740754184187e-05 1.4363599632741496e-05 1.6554876054877907e-05 1.691560477451735e-05 1.814385125100145e-05 4.3567943387715896e-11
1.5372727798727965e-12 2.0364914802392966e-12 9.439116114470961e-12 9.079164881749425e-10 2.4705603270248487e-09 4.322990197439181e-12 3.1008070900628115e-12 1.0638864470534939e-10
9.569799518740075e-12 3.012745234771201e-10 3.1204111460168373e-12 1.1638690462298257e-12 1.4366611196821653e-09 4.1213154258029655e-13 3.6213970068203083e-12 2.721230974589379e-11
4.86251569073987e-11 2.8547766504326572e-12 5.904079137591707e-13 5.780536960545732e-13 2.6068710570317346e-09 2.5823487598308656e-11 7.539358144333142e-12 2.2962411338392163e-13
2.622195506839384e-13 9.753519120157434e-10 2.2039098534863584e-10 1.996221460590085e-12 1.7230296722810994e-09 5.406285116977331e-12 2.263017274865552e-10 1.6118229940518834e-10
2.8694330754105217e-09 2.8819535720722276e-09 1.2972609737395715e-11 3.4574313644303805e-11 7.016325943641022e-13 1.0206397282438452e-09 2.248097592925215e-13 4.749220923490937e-10
1.3360816673826347e-09 7.86945575538832e-12 2.1848985028609507e-09 5.556231956148949e-12 8.057077251187614e-06 9.577810518729298e-06 1.1460278083691405e-05 1.2753965483871255e-05
1.3860691999936177e-05 8.579017002051658e-06 1.071134305791353e-05 1.2908705642626922e-05 1.2930751368136778e-05 1.4319730495440565e-05 6.1266772625693375e-06 7.491534392455004e-06
9.104204769092287e-06 1.0489466211005565e-05 1.1477617194415413e-05

exp_avg f8 [3]
00000000: 0500 0000 0000 0000 b407 08ac ec54 6dbf
00000010: 812c e7a2 5046 423f
2.5e-323 -0.0035805342197372195 0.0005576986057404116

exp_avg_sq f8 [3]
00000000: e480 792b 6a80 9938 297d 1cc3 3baa 363f
00000010: 7639 1b97 f75b eb3e
4.7963216438033356e-36 0.00034584006344747176 1.3045905436295741e-05

exp_avg f8 [3, 1, 1]
00000000: 0500 0000 0000 0000 3743 a2be 4103 4bbf
00000010: 647a e4ff 6932 193f
2.5e-323 -0.0008243628519882588 9.611865968792984e-05

exp_avg_sq f8 [3, 1, 1]
00000000: 6a7e 0e67 f1a7 7738 ee28 3b22 2483 ef3e
00000010: 6504 ac3e a2e3 9d3e
1.1123010563195402e-36 1.5026221326226428e-05 4.453837038482274e-07

exp_avg f8 [3, 3, 5]
00000000: 0500 0000 0000 0000 0500 0000 0000 0000
00000010: 0500 0000 0000 0000 0500 0000 0000 0000
00000020: 0500 0000 0000 0000 0500 0000 0000 0000
00000030: 0500 0000 0000 0000 0500 0000 0000 0080
00000040: 0500 0000 0000 0000 0500 0000 0000 0080
00000050: 0500 0000 0000 0000 0500 0000 0000 0000
00000060: 0500 0000 0000 0000 0500 0000 0000 0000
00000070: 0500 0000 0000 0000 938a 9040 1dd4 103f
00000080: 66c0 542b 1b2e fb3e cea4 ef9c 228a 223f
00000090: 2ee7 1936 5025 f6be 6996 6ed5 d56d 343f
000000a0: ada0 3284 4f51 fb39 3ae5 553b 4055 773d
000000b0: bd57 202f ab0d 923e 8e2f ec01 560a 1a3f
000000c0: 6566 52d5 d4c7 aab7 5a96 643e 3bb7 12bf
000000d0: 54a3 2915 b4cf 31bf 5749 a5ae c381 2cbf
000000e0: f972 52a6 e2b6 27bf c158 51fa 9a5d 24bf
000000f0: 8741 0811 21da 043f cc11 f729 aab5 b53e
00000100: 1e36 0635 d6f6 243f 076e bf66 4916 223f
00000110: 9792 4e06 0832 293f b2c4 934e 7b11 f4bd
00000120: e27c c61b edad bebb 1940 78ae 6f20 f2b9
00000130: 76aa ee31 8969 303e 6348 89be ae91 bbbe
00000140: 0867 f0b7 c1f8 073f 47d9 5663 48d7 0e3f
00000150: c593 b5fb baab 233f 5262 26da 2e36 243f
00000160: 7234 f7db 7cea 1e3f
2.5e-323 2.5e-323 2.5e-323 2.5e-323 2.5e-323 2.5e-323 2.5e-323 -2.5e-323
2.5e-323 -2.5e-323 2.5e-323 2.5e-323 2.5e-323 2.5e-323 2.5e-323 6.419590512555589e-05
2.59209652614948e-05 0.00014144585153922365 -2.111983793049511e-05 0.0003117224745728732 2.1549802105578947e-29 1.3263281374050352e-12 2.690165238362308e-07 9.93361468141758e-05
-1.5371305575217317e-40 -7.139491171822537e-05 -0.0002717795042941802 -0.00021749032687041578 -0.00018092648239056273 -0.0001553775483979555 3.9772161589127094e-05 1.2939946499738941e-06
0.00015994419892388726 0.00013799329769780008 0.0001922259135912665 -2.9203202232925073e-10 -6.496615489254508e-21 -1.4299448224556946e-29 3.821274656871772e-09 -1.6432447812642465e-06
4.57224004934542e-05 5.882444058207203e-05 0.00015007646093603673 0.00015420267034184587 0.00011793505745246057

exp_avg_sq f8 [3, 3, 5]
00000000: 5602 0726 2e50 1338 c02b 979a 3828 1238
00000010: c797 ef3a f380 3038 1ce3 df11 5d59 0738
00000020: 3e6e dc7e 61ac 5338 6991 a3ed 2b7a 1f38
00000030: d842 fc7b 636c bc37 d803 b2bb 6118 4b38
00000040: 0199 e130 c18b 2538 4376 0832 bf5d 0438
00000050: a913 8f19 4766 7c38 0031 a32a 7457 8738
00000060: 5105 8c13 e3fb 9338 0afc 6a75 8513 8838
00000070: d1dd 64a6 113a 7a38 f9b7 8443 7ae7 c13e
00000080: 8547 c8c3 f82d cc3e 4cae 4699 b906 ca3e
00000090: d379 171d ad91 d73e b67f 7437 32d3 c63e
000000a0: 9c9c f51b 3851 c03d 4bad 1154 4f15 c33d
000000b0: eacd 4e2c 9431 e53d d2ca fe55 127f 8e3e
000000c0: 6ca7 d992 561a b23d a319 36e3 b209 a13e
000000d0: d1cc 1ccb 4cda be3e 7d86 a052 ff3e b23e
000000e0: 5b5b 7d35 ee32 a13e 0c36 31e0 d2de 953e
000000f0: e29b 4c8d 6c62 753e dad8 089c 6a72 803e
00000100: 7720 938e cab2 853e f351 cf40 0eea 9b3e
00000110: ec48 bd65 eba5 b23e 7ab9 bc89 f962 573d
00000120: 7831 96f6 1d89 663d 8d9d 025b 1a0d 863d
00000130: 7589 b48d f637 7a3d a5e5 0730 1554 d13d
00000140: 5897 69bc 8878 7b3e ecb5 3ee3 4e02 8f3e
00000150: 56ee 9e84 c5a1 8f3e 9386 017b 4600 913e
00000160: 147d 9bb9 7b2e 9b3e
1.41891014994854e-38 1.3339740368267932e-38 4.850004879162792e-38 8.577096057777257e-39 2.312592667326572e-37 2.3125818329302084e-38 3.262845499484216e-40 1.5925151535313213e-37
3.165887907269092e-38 7.481359835508786e-39 1.3353391257702444e-36 2.1950350490040412e-36 3.758560179964828e-36 2.264120155077391e-36 1.2331797056466799e-36 2.134348076185917e-06
3.3592673658400067e-06 3.1025730981759882e-06 5.619298876406768e-06 2.7209502452412957e-06 2.968092741630035e-11 3.471221444713925e-11 1.542042241761642e-10 2.2721568892837598e-07
1.6464476638078878e-11 5.077685671241182e-07 1.838966266776155e-06 1.0875513205627816e-06 5.125685715684285e-07 3.25894433388135e-07 7.966335442405405e-08 1.2253924632091135e-07
1.616657024138109e-07 4.159551856817993e-07 1.111514754865773e-06 3.3234386120644995e-13 6.405006573855592e-13 2.5069293091231944e-12 1.490355194755399e-12 6.304052766584186e-11
1.0233684042681225e-07 2.3103517465593067e-07 2.35676170410681e-07 2.5333576570393007e-07 4.050370364504528e-07

exp_avg f8 [3, 13, 1]
00000000: 16df b589 c6b0 683f 0000 0000 0000 0000
00000010: 0000 0000 0000 0000 0000 0000 0000 0000
00000020: 0000 0000 0000 0000 0000 0000 0000 0000
00000030: 0000 0000 0000 0000 0000 0000 0000 0000
00000040: 0000 0000 0000 0000 0000 0000 0000 0000
00000050: d768 b4d1 ecbd 563f abf9 a139 a5fb 613f
00000060: 5cfc 9060 c22b 2d3f 9ab0 f16d 71fb 66bf
00000070: 0000 0000 0000 0000 0000 0000 0000 0000
00000080: 0000 0000 0000 0000 0000 0000 0000 0000
00000090: 0000 0000 0000 0000 0000 0000 0000 0000
000000a0: 0000 0000 0000 0000 0000 0000 0000 0000
000000b0: 0000 0000 0000 0000 97c0 1589 6c32 56bf
000000c0: de06 6833 258b 5ebf d61f 496e 1eb1 37bf
000000d0: f270 5052 45ef 673f 0000 0000 0000 0000
000000e0: 0000 0000 0000 0000 0000 0000 0000 0000
000000f0: 0000 0000 0000 0000 0000 0000 0000 0000
00000100: 0000 0000 0000 0000 0000 0000 0000 0000
00000110: 0000 0000 0000 0000 0000 0000 0000 0000
00000120: 8c1d 220f 69fd 543f c9ce fc3a 23ed 633f
00000130: eb5d 0c1f edec f73e
0.003013980645558588 0.0 0.0 0.0 0.0 0.0 0.0 0.0
0.0 0.0 0.0013880551039791489 0.0021951891949918054 0.0002225565697546475 -0.002805444280559466 0.0 0.0
0.0 0.0 0.0 0.0 0.0 0.0 0.0 -0.001354795448005352
-0.0018642295159456072 -0.00036150925578626086 0.0029217103897406444 0.0 0.0 0.0 0.0 0.0
0.0 0.0 0.0 0.0 0.0012811208694375213 0.002432411965765134 2.2817128356581865e-05

exp_avg_sq f8 [3, 13, 1]
00000000: aa6c cf93 1ce6 273f 0000 0000 0000 0000
00000010: 0000 0000 0000 0000 0000 0000 0000 0000
00000020: 0000 0000 0000 0000 0000 0000 0000 0000
00000030: 0000 0000 0000 0000 0000 0000 0000 0000
00000040: 0000 0000 0000 0000 0000 0000 0000 0000
00000050: 0082 2496 b610 233f f45f d87c 528b 2b3f
00000060: 000e 4780 b50a 233f c9d1 7c75 8276 203f
00000070: 0000 0000 0000 0000 0000 0000 0000 0000
00000080: 0000 0000 0000 0000 0000 0000 0000 0000
00000090: 0000 0000 0000 0000 0000 0000 0000 0000
000000a0: 0000 0000 0000 0000 0000 0000 0000 0000
000000b0: 0000 0000 0000 0000 301c 6d7b 9eff 173f
000000c0: 76ec e876 c596 213f eb1f e77e bf3f 183f
000000d0: 8d9a fd70 18b8 2b3f 0000 0000 0000 0000
000000e0: 0000 0000 0000 0000 0000 0000 0000 0000
000000f0: 0000 0000 0000 0000 0000 0000 0000 0000
00000100: 0000 0000 0000 0000 0000 0000 0000 0000
00000110: 0000 0000 0000 0000 0000 0000 0000 0000
00000120: 3fdd b7a3 164e 273f 22e8 6e81 84f7 303f
00000130: 521f 788c f846 273f
0.00018233393521325153 0.0 0.0 0.0 0.0 0.0 0.0 0.0
0.0 0.0 0.00014545658911747916 0.00021014577798505985 0.00014527764882475702 0.00012560217396074953 0.0 0.0
0.0 0.0 0.0 0.0 0.0 0.0 0.0 9.15470580881018e-05
0.00013419304328174717 9.250265404780993e-05 0.00021148012501300378 0.0 0.0 0.0 0.0 0.0
0.0 0.0 0.0 0.0 0.00017780329095249713 0.0002588938236233203 0.00017759117166371102

exp_avg f8 [3]
00000000: db3d 85c8 572d 6f3f b407 08ac ec54 6dbf
00000010: 4af6 cb9c b19b 6e3f
0.0038058008687256012 -0.0035805342197372195 0.0037363499635592367

exp_avg_sq f8 [3]
00000000: 4f51 ac3e bedb 413f 297d 1cc3 3baa 363f
00000010: 5a59 e9b7 7adf 453f
0.0005449942521829429 0.00034584006344747176 0.0006675099574049812

exp_avg f8 [3]
00000000: b7ab d311 f663 43bf 2d7c 9b76 6ded 36bf
00000010: 7a2a 6b23 b5d2 413f
-0.0005917502891440361 -0.00034984514659969456 0.0005439171280497556

exp_avg_sq f8 [3]
00000000: 2e59 774d 9b77 e03e 0ab9 4dee 7f42 f93e
00000010: 04cf b1b7 d958 0f3f
7.852179279160638e-06 2.4089588709080358e-05 5.9789795124580116e-05

exp_avg f8 [3, 1, 1]
00000000: 994b feb2 78e3 183f 8479 f7a2 b3bc f83e
00000010: da93 6c09 9e6c e83e
9.494232358368686e-05 2.359115222627099e-05 1.1646407342144898e-05

exp_avg_sq f8 [3, 1, 1]
00000000: 5836 80a1 7c38 a43e f711 0e99 e6ac a93e
00000010: d9d9 d1ac 3ea7 b33e
6.026223813308271e-07 7.651863588175474e-07 1.171427970873148e-06

exp_avg f8 [3, 3, 5]
00000000: 74da 034c ca82 f13e 915a 8f4b e704 f93e
00000010: e92d 289a 40f6 fd3e 3fd5 a282 1bf1 083f
00000020: ebda 32fc 66c6 083f 04d5 a7d1 6f5d 05bf
00000030: 40d6 24c7 89b6 00bf 803e 8e45 1bf8 f6be
00000040: 8641 d013 77f3 12bf 5f34 4eb5 db2f 1fbf
00000050: 7abf 3677 ca94 f03e 241c 9188 747f ee3e
00000060: 22fb 4020 aa28 a93e 48c1 b223 044d ff3e
00000070: 90aa 4379 325f 013f ddc2 d495 cc76 0f3f
00000080: 1d9e 6fe7 7698 1a3f b86a 1716 c6cc 043f
00000090: 8227 a5eb e157 073f c3fa b1e1 1501 213f
000000a0: 6440 df65 19a6 21bf b3c6 6ac0 67d9 25bf
000000b0: 6bb1 4b16 5be2 213f 93f7 5e69 c593 223f
000000c0: 0475 2cad 1ae0 32bf 155b 73b9 55d3 203f
000000d0: 67d6 59bd cc1f 283f 2e34 43b6 e2e2 093f
000000e0: 4dbb 87ff 53da e43e 87a6 ffd4 e6a6 1b3f
000000f0: 075f 9cad c0be b0be 8200 4bcd 722b fa3e
00000100: f4b3 3515 0f83 123f 5dd9 eb08 e3a0 0d3f
00000110: ad1f 573a 0992 24bf a3a6 9b9e 0946 cf3e
00000120: 793f 7883 d348 24bf 61ef c96d 4f82 3abf
00000130: b407 55a1 cb0c 34bf 0c30 66c5 5f57 373f
00000140: 3516 3986 7460 79be 50a0 115a 2f5f 023f
00000150: 98de 5c6e a0e1 213f 5244 0ff4 2210 243f
00000160: 35e6 b432 8c43 0abf
1.6699694925537874e-05 2.3860124858855197e-05 2.8573916674585606e-05 4.757275776638225e-05 4.725457940806483e-05 -4.075047964483862e-05 -3.187759365845229e-05 -2.1905103810447666e-05
-7.229246416807196e-05 -0.00011896875851232076 1.5813078290071826e-05 1.4542518572592247e-05 7.497920369094259e-07 2.9850811398447475e-05 3.313420089220032e-05 6.001293034286145e-05
0.00010145402653415803 3.9672656167962503e-05 4.452379421822276e-05 0.00012973205670970518 -0.0001346498492567099 -0.000166696467393692 0.00013644563582405496 0.0001417330246890584
-0.00028801585465194923 0.00012836858215933196 0.00018405317557650404 4.937414522174947e-05 9.94341097368197e-06 0.00010548385512234626 -9.980873784727784e-07 2.495739029728705e-05
7.061748083510272e-05 5.651181083081672e-05 -0.00015694010396160915 3.728101764068096e-06 -0.00015475828125532576 -0.00040449561291898943 -0.000305938448338701 0.00035616005097760593
-9.453586496355084e-08 3.504145866700724e-05 0.00013642390620715174 0.00015306879688961828 -5.009433365406013e-05

exp_avg_sq f8 [3, 3, 5]
00000000: 8f7c 3d99 6ac4 683e 5cdc dcc5 f13c 6b3e
00000010: f307 26f0 795f 703e 480a 53bc 8828 6c3e
00000020: b065 34a5 7348 6e3e 4428 d353 81ab 913e
00000030: 7aea 41f9 b924 943e bd81 7687 73d1 903e
00000040: 9376 65ae 24b2 903e a8d4 a261 c232 933e
00000050: 4380 0d12 300d 493e 2120 4d45 7bd8 5a3e
00000060: 2bf6 5502 6de8 483e 6e7b 5711 83d4 603e
00000070: 145c 6b88 63d7 613e d0bb cdcd ed3b a93e
00000080: ee32 909b 44df c23e ff0c 1525 85ea c23e
00000090: 316d f918 a855 c13e 393e 62aa 5da2 c23e
000000a0: 4341 ec20 08db c83e 09c8 a01a b72f e43e
000000b0: e833 65f9 02f6 ea3e 8f9c df9b e752 ec3e
000000c0: 8dce d2e4 5fc6 eb3e be14 728f afb8 a53e
000000d0: 87d9 68a3 d2d0 b33e 561f e6cd c4e1 b43e
000000e0: 5818 eee8 9feb b13e b06b 26ff 7cc9 b13e
000000f0: 7a96 a6da 5b5f 463e 1b26 3e13 fc90 8c3e
00000100: 722e 13a0 ba8c ad3e c120 b3a9 d641 c53e
00000110: 78ab 37fc 82fb d53e 0090 9445 a84f 7e3e
00000120: d100 180d 246b bf3e 7920 dd35 a695 de3e
00000130: beca ba43 91a3 f23e a480 b6e1 d800 003f
00000140: 4a9a b865 d623 f23d fa51 f9ff 4d3d 803e
00000150: 4235 7260 5d8f 8b3e cc96 0603 b85c a03e
00000160: 607e 7f77 acb7 b13e
4.613260098820036e-08 5.073484808523625e-08 6.09940080994595e-08 5.244898874372246e-08 5.640651026313799e-08 2.633026559671531e-07 3.0016098518491326e-07 2.5061024852039284e-07
2.487878830915418e-07 2.8607664294005397e-07 1.1665520606516887e-08 2.5001942144457584e-08 1.1598650993421485e-08 3.134855057115606e-08 3.323212731880229e-08 7.520347043830481e-07
2.2497344756066946e-06 2.2549741422198334e-06 2.0664448994574683e-06 2.2213747171218894e-06 2.9630175569854402e-06 9.625619743134516e-06 1.2855998460148705e-05 1.3505862508324146e-05
1.3244104730559463e-05 6.473490249547869e-07 1.1811085990472108e-06 1.2446587827913747e-06 1.0681395996316885e-06 1.06019160437427e-06 1.0418004976773631e-08 2.1283586592824874e-07
8.80650361656392e-07 2.5340535337627908e-06 5.2410286488319024e-06 1.1291787540120219e-07 1.8726896552357262e-06 7.291929106596864e-06 1.7775473891655116e-05 3.0523890212964534e-05
2.6397159954517935e-10 1.2099349077039672e-07 2.053381395788479e-07 4.876310466985574e-07 1.0560438266012613e-06

exp_avg f8 [1]
00000000: add2 f753 4c08 81bf
-0.008316608726980002

exp_avg_sq f8 [1]
00000000: a333 87a5 68a8 613f
0.002155498874549315

exp_avg f8 [1, 1, 1]
00000000: d516 5005 5808 f3be
-1.8150895204647008e-05

exp_avg_sq f8 [1, 1, 1]
00000000: d49f ccfd 4f62 d53e
5.098350780476065e-06

exp_avg f8 [1, 3, 5]
00000000: 9472 0f6a 7460 25bf 1379 aa4c 5db2 24bf
00000010: ad50 e950 e4ce 2bbf 345d f33e f383 38bf
00000020: 29e2 03af d270 42bf 6fe1 dddc bb91 e1be
00000030: c65f a260 32c3 ddbe f3c2 1453 6bc9 03bf
00000040: a649 6967 b511 1fbf bd37 4169 4a77 2fbf
00000050: 17e5 da96 a798 00bf 91fe 1761 121c eb3e
00000060: 5508 25ea d56f 003f 8781 672f 7b83 14bf
00000070: 2a20 eab6 ff11 34bf
-0.00016309186051346027 -0.00015790356549855912 -0.0002121595102432308 -0.00037407578106525845 -0.0005627659539007612 -8.377682117575236e-06 -7.095929968191312e-06 -3.774031427850556e-05
-0.00011851949407429857 -0.00024006636943102274 -3.165494386565321e-05 1.2926891062469625e-05 3.135081830631161e-05 -7.825316774968091e-05 -0.00030624859838513047

exp_avg_sq f8 [1, 3, 5]
00000000: 1163 d0f4 b0b2 c53e 4d07 80f5 371d d43e
00000010: 388f e3ea e35d da3e c461 3f40 dd93 e13e
00000020: 5543 24ba b73a e83e d3a8 fd63 e556 893e
00000030: d1d8 1167 94c5 a53e aa1f 99f1 b259 c13e
00000040: 68f1 9345 1db2 c83e 2c0a 9f45 6df0 c33e
00000050: a10d 13c0 776a bd3e e1f0 9922 de75 c93e
00000060: 5190 56e6 c0d8 c83e a40b faa9 eeb6 c43e
00000070: 0b16 0c98 6189 c43e
2.5866046713503837e-06 4.795583514295905e-06 6.286325215241165e-06 8.381650339049018e-06 1.1553462006237749e-05 1.8879352303307386e-07 6.488500742380314e-07 2.0683272737055305e-06
2.943963903432961e-06 2.3769339749524147e-06 1.7533236589685924e-06 3.0351186708893733e-06 2.961956669893621e-06 2.469370272541057e-06 2.4481589097093444e-06

exp_avg f8 [1, 3, 1]
00000000: 61a1 8c91 a76a 703f 1240 1dd0 3061 83bf
00000010: 5c79 38ec b501 6c3f
0.004007963719040526 -0.009462720252173571 0.0034187844446613

exp_avg_sq f8 [1, 3, 1]
00000000: a1b1 2fea a48a 3e3f 689b 384c 58cf 633f
00000010: 8f64 1b99 792a 2b3f
0.000466027510070766 0.002418205696602827 0.00020725950576297835

exp_avg f8 [1]
00000000: add2 f753 4c08 81bf
-0.008316608726980002

exp_avg_sq f8 [1]
00000000: a333 87a5 68a8 613f
0.002155498874549315
