output/checkpoints/model120.pt (torch, 16479 bytes, 5 tensors)

conv1d.weight f4 [64, 3, 1]
0	0xbf00b3e6	-0.50274503
1	0xbe0391c6	-0.12848577
2	0x3eb0886b	0.3447908
3	0xbdbddb6e	-0.092703685
4	0x3e7922b3	0.24329643
5	0x3e490694	0.19631416
6	0x3eaf08c8	0.34186387
7	0x3e003662	0.12520745
8	0x3dd4bfc5	0.1038814
9	0xbd28b32b	-0.041186493
10	0x3e70096c	0.23441094
11	0xbeaad6ef	-0.33367106
12	0x3df60abe	0.12013768
13	0x3f05a5f2	0.5220634
14	0x3ddb326e	0.10702978
15	0xbe2cf7be	-0.16891381
16	0x3ee0837d	0.43850318
17	0x3e9c7a74	0.30562174
18	0x3e533897	0.20627056
19	0x3eea489b	0.4575852
20	0xbef1d532	-0.47232968
21	0x3eb26123	0.34839734
22	0xbece5712	-0.40300804
23	0xbeb16f59	-0.34655264
24	0x3ee85d9c	0.45383918
25	0xbeeb4ff3	-0.45959434
26	0xbddc8b0d	-0.10768709
27	0x3ea7c06d	0.32763997
28	0x3e1924a2	0.1495538
29	0xbd917bd3	-0.07103696
30	0x3ec20b47	0.3789923
31	0xbf04dd39	-0.5190006
32	0x3ecd0176	0.40040177
33	0x3c638233	0.013886022
34	0x3e83f978	0.25776267
35	0xbd981946	-0.074266955
36	0x3f014f54	0.5051167
37	0xbe0b5da9	-0.13609947
38	0xbe043435	-0.1291054
39	0x3e9595b1	0.29215768
40	0xbe26e2e8	-0.16297495
41	0xbeb2c262	-0.34913927
42	0xbe14f08c	-0.14544886
43	0xbdc9693e	-0.098345265
44	0x3e9da912	0.30793053
45	0xbea01179	-0.3126333
46	0x3f0b86a6	0.5450233
47	0xbe276509	-0.16347136
48	0xbef06402	-0.469513
49	0xbdcb65f5	-0.09931556
50	0xbd747c73	-0.059688997
51	0x3eb9ac4e	0.3626427
52	0x3f059c9b	0.52192086
53	0x3f14e2ca	0.5815855
54	0xbda54a31	-0.080707915
55	0x3eda7604	0.42668164
56	0xbdabb9ea	-0.0838507
57	0x3d1578e6	0.03649225
58	0x3e3c10b1	0.18365742
59	0xbece47ed	-0.4028925
60	0x3f11ea48	0.5699811
61	0xbe84f259	-0.25966147
62	0xbefb2f1e	-0.49059385
63	0x3eac5f68	0.3366654
64	0x3e9f6df0	0.31138563
65	0x3ec5ba28	0.38618588
66	0xbed45d87	-0.41477606
67	0x3e991929	0.29902008
68	0x3ee39064	0.444461
69	0x3e4292bb	0.19001286
70	0x3d62d5ae	0.055379562
71	0xbec6b985	-0.38813415
72	0x3ed47eef	0.41503093
73	0xbef9a615	-0.48759523
74	0x3ebb9497	0.36636803
75	0x3e947324	0.28994095
76	0x3e65b66e	0.22432873
77	0x3e80b2f8	0.25136542
78	0xbd810137	-0.0629906
79	0xbf12d2a7	-0.5735268
80	0x3eb32f74	0.3499714
81	0x3ea88453	0.32913455
82	0x3eb56941	0.35431865
83	0xbf0396b9	-0.5140186
84	0xbe8617c2	-0.2619
85	0xbdb967af	-0.09052979
86	0xbe9aa1fc	-0.3020171
87	0xbe5f8b5f	-0.2183051
88	0x3ebd67fa	0.3699339
89	0x3e20c2ad	0.15699263
90	0x3f113c44	0.56732583
91	0xbe3130f1	-0.17303826
92	0x3f15c41f	0.5850238
93	0x3e07d72a	0.13265672
94	0xbe375660	-0.17904043
95	0x3eb67acc	0.35640562
96	0x3f0e5da1	0.55611616
97	0x3f040229	0.51565796
98	0xbf081059	-0.53149945
99	0xbd35c02f	-0.044372734
100	0xbe4469ee	-0.19181034
101	0x3ea21902	0.31659704
102	0x3ee5a3cd	0.44851533
103	0x3daad263	0.08340909
104	0x3ea790eb	0.3272775
105	0x3e709812	0.2349551
106	0xbef2ea59	-0.47444418
107	0xbe4cbfdd	-0.19995065
108	0x3e4faa2e	0.20279762
109	0xbeaeef3f	-0.34166905
110	0xbeea1b3b	-0.457239
111	0x3e839abe	0.25703996
112	0x3eeef154	0.46668494
113	0x3f08bc21	0.5341206
114	0x3d2733b8	0.040820807
115	0x3d82409a	0.06359978
116	0xbd852d67	-0.065028004
117	0x3eda0590	0.4258237
118	0x3edf4bfb	0.43612656
119	0x3c9b5faa	0.018966515
120	0xbf08a236	-0.53372514
121	0x3e3ba679	0.18325223
122	0xbe293351	-0.16523482
123	0x3f026a14	0.5094311
124	0xbd5d9390	-0.054095805
125	0x3e5d35a0	0.21602488
126	0xbef316b8	-0.4747827
127	0xbebb80e2	-0.36621767
128	0xbe489cd7	-0.1959108
129	0xbed226ec	-0.4104532
130	0x3e93c1c8	0.2885878
131	0xbde78947	-0.113054805
132	0xbf0c4b76	-0.54802644
133	0xbeb0bcdf	-0.34519097
134	0x3e9b77b1	0.30364755
135	0x3e02a6b7	0.12758909
136	0x3d03b267	0.03215256
137	0x3eb3483c	0.35016048
138	0xbee9825c	-0.4560727
139	0x3dcd5ae4	0.10027102
140	0xbed1a648	-0.40947175
141	0x3f0d7bd9	0.552671
142	0xbe56f3da	-0.2099146
143	0xbe949dac	-0.29026544
144	0x3e5b4efd	0.2141685
145	0xbe2284a9	-0.15870918
146	0xbdb1c39a	-0.08679886
147	0xbeca4934	-0.39508975
148	0xbea4d5c0	-0.32194328
149	0x3e3643f8	0.17799366
150	0xbf0aa6d1	-0.5416079
151	0xbddd75ab	-0.10813459
152	0xbe1f7b73	-0.15574436
153	0xbedd5515	-0.43228975
154	0x3e53b477	0.2067431
155	0x3e82068a	0.25395614
156	0x3e2e34bd	0.17012306
157	0xbe5ee93a	-0.21768656
158	0x3ed15fa8	0.40893292
159	0x3effee1b	0.49986348
160	0xbeacf82c	-0.3378309
161	0xbef8921c	-0.48548973
162	0x3ef180a0	0.47168446
163	0xbebdb195	-0.37049547
164	0x3e049cb8	0.12950408
165	0xbf13f3ec	-0.5779407
166	0xbf058f3c	-0.52171683
167	0x3dd29a82	0.10283376
168	0xbee1b9d1	-0.4408708
169	0xbe1da160	-0.15393591
170	0xbed069ee	-0.40705818
171	0xbd6b45cb	-0.057439607
172	0x3f0daa60	0.55338097
173	0x3ce95928	0.028484896
174	0xbe386188	-0.18005955
175	0x3f059743	0.5218393
176	0xbeb6e7ec	-0.35723817
177	0x3dcbedf6	0.09957497
178	0xbe989a7b	-0.2980536
179	0xbe6b4054	-0.22973758
180	0x3ecdd687	0.40202734
181	0x3f0e06e5	0.5547927
182	0xbdb555bf	-0.088542454
183	0xbe703ead	-0.23461409
184	0xbe83a8d4	-0.25714743
185	0x3e8c9792	0.2745939
186	0xbe406420	-0.18788195
187	0x3e909f8f	0.28246734
188	0x3ef81c84	0.48459256
189	0x3dde81b1	0.108645804
190	0xbe674c21	-0.22587635
191	0xbe8e8bc9	-0.27841023

conv1d.bias f4 [64]
0	0x3ed0f9cc	0.4081558
1	0x3f77495b	0.96596307
2	0x3f85661e	1.0421789
3	0xbe9f7922	-0.31147105
4	0x3e9f4f2e	0.31115097
5	0x3f3112e5	0.69169456
6	0xbf321b19	-0.695726
7	0x3efff0d5	0.49988428
8	0x3e8330e6	0.25623244
9	0x3f156be3	0.5836775
10	0x3f4d386a	0.80164206
11	0x3f593863	0.84851664
12	0x3edfcd17	0.4371116
13	0x3da82f43	0.082121395
14	0x3f69969f	0.91245455
15	0xbe4d9644	-0.20076853
16	0xbedba758	-0.4290111
17	0x3f84f1f4	1.0386338
18	0xbf028080	-0.50977325
19	0xbe99575c	-0.29949462
20	0xbf12b13d	-0.57301694
21	0x3f2f06d8	0.6836982
22	0x3f203c85	0.62592345
23	0x3e9d83f2	0.3076473
24	0x3e5cd6e9	0.21566357
25	0xbddc0c78	-0.10744566
26	0xbeda30df	-0.4261541
27	0xbe686382	-0.22694209
28	0x3f08d95e	0.53456676
29	0x3e44017c	0.19141191
30	0x3f88313c	1.0640025
31	0x3e9ace2f	0.3023543
32	0xbf891574	-1.0709672
33	0x3f989df0	1.1923199
34	0x3f17a157	0.5923056
35	0x3e94e457	0.2908046
36	0x3e23615a	0.15955105
37	0x3f981131	1.1880246
38	0xbf3be89e	-0.7340182
39	0x3f620de6	0.8830246
40	0xbeb3d8d4	-0.35126364
41	0x3f62a331	0.8853026
42	0x3e45a601	0.19301607
43	0x3d930614	0.07178894
44	0x3e382666	0.17983398
45	0x3dc2a0fe	0.09503363
46	0x3c0a65c3	0.008447113
47	0xbe8f174a	-0.27947456
48	0xbef0c21c	-0.47023094
49	0xbeeff8e8	-0.46869588
50	0xbeb41ca7	-0.3517811
51	0x3f57163a	0.8401829
52	0x3e039645	0.12850292
53	0x3dc73ef3	0.097288035
54	0x3f30bb70	0.69036007
55	0xbea0b2e3	-0.3138648
56	0xbd9de5c5	-0.07709841
57	0xbf891e98	-1.0712461
58	0x3f314641	0.69247824
59	0xbe3cbcbb	-0.1843137
60	0xbf47e9bf	-0.78091043
61	0x3e3bd8bc	0.18344396
62	0x3e8c68cc	0.27423704
63	0x3e156b39	0.14591683

fc1.weight f4 [50, 64]
0	0xbddd4d71	-0.108057864
1	0x3c903e42	0.017607812
2	0xbda5a4e9	-0.08088095
3	0xbd54297d	-0.05179738
4	0xbd887332	-0.06662597
5	0x3d433f29	0.047667656
6	0x3def4e0c	0.11684808
7	0x3cfc050f	0.03076413
8	0x3d83cece	0.06435929
9	0xbde052ee	-0.109533176
10	0x3cca8591	0.024721893
11	0x3da5591a	0.080736354
12	0x3d9fd339	0.078039594
13	0x3d3e64e0	0.04648292
14	0x3dc5e8ac	0.09663519
15	0x3d0fd24e	0.03511267
16	0xbcb76560	-0.022387207
17	0x3cc002f7	0.023438914
18	0xbdfc7f4b	-0.12328967
19	0x3c8bab9f	0.017049609
20	0x3c7f66ed	0.015588504
21	0xbd2fd62d	-0.042928863
22	0x3d93f504	0.072244674
23	0xbcd7ea09	-0.026356714
24	0xbd0226e2	-0.031775363
25	0xbe0fb091	-0.14032198
26	0x3d8bf276	0.06833355
27	0xbd9ce0a3	-0.076600336
28	0x3defc0a4	0.11706665
29	0xbd97a8b0	-0.074052215
30	0x3d1e1446	0.038593553
31	0xbdbb874c	-0.09156665
32	0xbd9a3dc6	-0.075313136
33	0x3dda247c	0.1065149
34	0xbda22ff2	-0.07919301
35	0xbd19cee7	-0.037550833
36	0xbd84d16e	-0.06485258
37	0x3dbcd4f9	0.09220309
38	0x3d4ef1ae	0.050523452
39	0x3b09962d	0.0020994053
40	0x3d970b1f	0.07375168
41	0xbe07a10e	-0.13245031
42	0xbcd31988	-0.02576901
43	0xbd928da3	-0.07155921
44	0xbd9e0999	-0.07716674
45	0xbdab6239	-0.08368344
46	0xbdb41304	-0.087926894
47	0x3d71714b	0.058945935
48	0x3daa848b	0.08326062
49	0x3db7578f	0.08952247
50	0xbd660be8	-0.0561637
51	0xbce108a5	-0.027469942
52	0xbd2ac478	-0.041691273
53	0x3dfa8c45	0.122337855
54	0x3dbc9e5d	0.09209893
55	0xbc3658d6	-0.011129579
56	0xbdda4cac	-0.10659155
57	0xbda789c6	-0.08180575
58	0xbd452d17	-0.048138704
59	0xbda2cea5	-0.079495706
60	0x3d43cdc8	0.04780367
61	0xbd295a56	-0.041345917
62	0x3da8e74d	0.08247242
63	0x3d7d5a09	0.061853442
64	0xbd91be56	-0.07116382
65	0x3e24db09	0.1609918
66	0x3e0351ad	0.12824126
67	0xbbf04bb2	-0.0073332423
68	0x3df5e7ad	0.12007079
69	0x3dab69ab	0.08369764
70	0xbda7219d	-0.08160708
71	0xbd6f7b5b	-0.05846725
72	0xbc9db9ff	-0.019253729
73	0xbd86d17d	-0.065829255
74	0x3de3f984	0.11131576
75	0x3dc6ab25	0.09700612
76	0x3cf60845	0.03003324
77	0x3db3e06f	0.08783042
78	0x3e121feb	0.14269988
79	0xbe0c401c	-0.13696331
80	0xbd1602d0	-0.036623776
81	0x3cbcbb5a	0.023038555
82	0xbd9d71a8	-0.07687694
83	0xbd729f13	-0.059233736
84	0xbba78fca	-0.0051135765
85	0x3d6aa3ed	0.057285238
86	0x3d63bb0e	0.05559831
87	0x3d828521	0.063730486
88	0xbc513862	-0.01276979
89	0xbdadfc84	-0.08495429
90	0xbcee9891	-0.029125484
91	0x3d614007	0.0549927
92	0x3d5cc9ef	0.053903516
93	0x3e100364	0.14063793
94	0x39aa53ed	0.00032487456
95	0x3c91cf4a	0.017799038
96	0xbd50eaed	-0.051005293
97	0x3b6d7e70	0.0036238693
98	0x3d84660a	0.06464775
99	0xbdb161cc	-0.086612314
100	0xbdc08417	-0.09400194
101	0x3e0b393d	0.13596053
102	0xbe6a3eec	-0.22875565
103	0xbc553015	-0.013011952
104	0xbcc179ad	-0.02361759
105	0xbb285bf2	-0.002568957
106	0xbdc7333c	-0.09726569
107	0xbdcf63e1	-0.10126472
108	0x3e422c30	0.18962169
109	0x3d93dfeb	0.07220443
110	0xbd3fa395	-0.046786863
111	0x3d21427a	0.039370038
112	0xbd1f54c9	-0.038899217
113	0x3e196914	0.1498149
114	0xbdbe1948	-0.09282166
115	0x3d9c0ccd	0.07619629
116	0x3d000ce4	0.031262293
117	0xbd60f9b7	-0.054925647
118	0x3dbcf892	0.092270985
119	0xbceda1e9	-0.029007869
120	0x3dbcdbc2	0.09221603
121	0xbdf89e9b	-0.121396266
122	0x3d31557f	0.043294426
123	0xbd9528f1	-0.072831996
124	0xbd4fd2b0	-0.050738037
125	0xbd5c338c	-0.053760096
126	0x3da4d712	0.08048834
127	0x3dacc7f2	0.08436574
128	0xbcdad689	-0.026713626
129	0xbd8311dc	-0.06399891
130	0xbcf28b63	-0.02960748
131	0xbdfc5630	-0.123211265
132	0xbdc57ac1	-0.09642554
133	0x3de11be0	0.10991645
134	0xbdd3efd3	-0.10348477
135	0xbbdc65c9	-0.006726001
136	0x3dcd3168	0.10019189
137	0xbdad5e6c	-0.08465275
138	0x3d898833	0.06715431
139	0xbd37e217	-0.04489335
140	0x3deb1524	0.11478642
141	0x3be382c6	0.0069430796
142	0x3c5408e2	0.012941571
143	0xbdbf13dc	-0.0932996
144	0xbd957d42	-0.07299282
145	0xbdc9deb2	-0.09856929
146	0xbdcf3fbd	-0.10119579
147	0x3de86204	0.1134682
148	0x3c079a48	0.00827653
149	0x3dad6a7e	0.084675774
150	0xbe0f51dc	-0.1399607
151	0xbd751414	-0.0598336
152	0x3d770e19	0.06031618
153	0xbd80982e	-0.06279026
154	0xbcbea5de	-0.023272451
155	0xbdbdb3d3	-0.092628144
156	0x3c917f80	0.017760992
157	0x3da21cd0	0.07915652
158	0xbcaa00a8	-0.020752266
159	0x3dae5942	0.08513118
160	0x3d8cfb09	0.06883819
161	0xbda7cbcb	-0.08193167
162	0xbb9ea3b1	-0.004841291
163	0x3d18f307	0.037341144
164	0xbd6d4774	-0.05792947
165	0x3db469b4	0.08809224
166	0x3bfd34c0	0.0077272356
167	0xbdeb0d6a	-0.11477168
168	0xbd6c1528	-0.057637364
169	0x3ccb35ea	0.024805982
170	0x3d0f5070	0.03498882
171	0xbd2df934	-0.042473987
172	0x3d05ca39	0.032663558
173	0x3d1a6a6b	0.037699144
174	0xbddc5fea	-0.10760482
175	0x3daacbcb	0.08339652
176	0x3c04af36	0.008098414
177	0xbcc339f4	-0.023831345
178	0xbd282360	-0.04104936
179	0xbdd78f42	-0.10525371
180	0xbdebbe71	-0.11510933
181	0x3cceeec4	0.025260337
182	0xbdfcbb2d	-0.123403884
183	0xbd910702	-0.07081415
184	0xbdef86f0	-0.11695659
185	0xbdc6073f	-0.09669351
186	0xbd939886	-0.07206826
187	0x3dfce657	0.12348621
188	0x3dbbd6fd	0.09171865
189	0x3daa8ab0	0.08327234
190	0x3da2a4ec	0.079416126
191	0x3cdb4372	0.026765559
192	0x3db5cf7c	0.08877465
193	0x3e05f846	0.1308299
194	0x3dbf2e57	0.093350105
195	0xbe59b9f3	-0.2126234
196	0x3cb4d62c	0.022074781
197	0xbba1be0f	-0.004935987
198	0xbd554981	-0.052072052
199	0x3e18884b	0.14895742
200	0x3ca7eb5e	0.020497974
201	0x3e0e93ef	0.1392362
202	0x3e0b405a	0.13598767
203	0x3e01f9d0	0.12692952
204	0x3e01dc37	0.12681662
205	0xbcaf17e8	-0.021373704
206	0x3c0704e8	0.008240916
207	0xbda86a44	-0.082233936
208	0x3d5cd014	0.053909376
209	0xbc84119d	-0.01612168
210	0x3ced95dd	0.029002124
211	0xbe199dfa	-0.1500167
212	0x3c855f33	0.016280746
213	0xbc4ec9f8	-0.012621395
214	0xbd40ceba	-0.04707215
215	0x3e10db50	0.14146161
216	0xbd1bf5fd	-0.03807639
217	0x3d1cfdeb	0.038328093
218	0x3daa5775	0.08317462
219	0xbdbc141a	-0.091835216
220	0xbc84da40	-0.016217351
221	0x3d27d96f	0.040978845
222	0x3e232570	0.1593225
223	0x3db3d6bb	0.08781191
224	0xbd5a74b1	-0.05333394
225	0x3dd2331d	0.10263655
226	0x3d76b3b9	0.06022999
227	0x3d5070d0	0.050888836
228	0x3d92acf5	0.07161895
229	0x3d89cf34	0.06728974
230	0xbd73e984	-0.05954887
231	0x3dc87296	0.097874805
232	0xbc99ee65	-0.018790433
233	0x3d8a71f0	0.06760013
234	0x3c874550	0.016512543
235	0xbe6a9de2	-0.2291179
236	0x3e384bed	0.17997713
237	0x3dfa15f7	0.12211221
238	0x3ddec303	0.10877039
239	0x3d67e226	0.056612156
240	0xbe090da7	-0.13384114
241	0x3e3d9e49	0.18517412
242	0x3d5980b0	0.05310124
243	0x3d7a6788	0.06113389
244	0xbd95fe96	-0.07323949
245	0xbd284395	-0.041080076
246	0xbdadcc5d	-0.08486245
247	0xbdde2418	-0.10846728
248	0x3d9d0cb0	0.076684356
249	0xbd92f3c4	-0.07175401
250	0x3dc1a33f	0.09454965
251	0xbd5ba59c	-0.053624734
252	0x3d0cf8cd	0.034416962
253	0x3d1146f1	0.035468046
254	0x3d296ce5	0.041363616
255	0x3da049a2	0.07826544

fc1.bias f4 [50]
0	0xbc226647	-0.00991208
1	0x3f36e487	0.71442455
2	0x3d51a70d	0.051184703
3	0x3f2e51a7	0.6809334
4	0xbf272afe	-0.65299976
5	0xbd66a740	-0.056311846
6	0x3dca89f3	0.09889593
7	0x3ef72860	0.4827299
8	0x3f0c6dce	0.5485505
9	0xbf3c5f0e	-0.7358254
10	0x3f0a48fa	0.54017603
11	0x3f3331ab	0.6999766
12	0xbd83b17d	-0.064303376
13	0x3f031807	0.5120854
14	0xbf2a0d1e	-0.66426265
15	0xbf291ed6	-0.66062677
16	0x3f37fc56	0.7186941
17	0xbf06ac48	-0.5260663
18	0x3de183b3	0.11011448
19	0xbd785511	-0.060628
20	0x3ddebd2c	0.108759254
21	0xbc3e937c	-0.011631843
22	0x3d6d903a	0.057998873
23	0x3f2d7a06	0.6776432
24	0x3f272609	0.6529241
25	0xbf2d751c	-0.6775682
26	0xbdcdbe74	-0.10046092
27	0x3de8b8ce	0.11363374
28	0xbda0aea8	-0.07845813
29	0x3d29f248	0.041490823
30	0x3cc8b3d7	0.024499817
31	0xbbc12120	-0.0058938414
32	0x3f135da8	0.57564783
33	0x3aa55480	0.0012613684
34	0x3dcac39d	0.099005915
35	0xbd8da86e	-0.06916891
36	0x3f05df78	0.5229411
37	0x3d0685cc	0.032842442
38	0x3f05837b	0.5215375
39	0x3b324e40	0.0027207285
40	0x3c8aa02d	0.01692208
41	0x3ee3f0e5	0.44519725
42	0x3f33f40d	0.70294267
43	0xbe0e4158	-0.13892114
44	0xbe0084c4	-0.12550646
45	0x3f33edf4	0.7028496
46	0x3f13ceee	0.57737625
47	0xbf2bd746	-0.67125356
48	0x3f17f4cf	0.59357923
49	0x3dd6ea49	0.10493905

fc2.weight f4 [1, 50]
0	0xbc3191cc	-0.010837983
1	0x3e2f04f6	0.17091736
2	0xbe114464	-0.14186245
3	0x3db7496e	0.089495525
4	0xbde7396c	-0.11290249
5	0xbdd26d80	-0.10274792
6	0xbd3920af	-0.045197185
7	0x3e261220	0.16217852
8	0x3dcacc70	0.099022746
9	0xbe50b672	-0.20382097
10	0x3da31b03	0.079641365
11	0x3e09c943	0.13455682
12	0x3dd1cd46	0.10244231
13	0x3d9f68b7	0.07783645
14	0xbe13092b	-0.14358966
15	0xbe5ec962	-0.21756509
16	0x3da9d073	0.08291712
17	0xbe290b26	-0.16508159
18	0x3d028f29	0.03187481
19	0x3d2d8ff2	0.042373605
20	0x3dad89a8	0.084735215
21	0xbe2a4be7	-0.16630517
22	0xbe12e102	-0.14343646
23	0x3d93f468	0.07224351
24	0x3e064eb3	0.13115959
25	0xbdcf750f	-0.10129749
26	0xbcb271c0	-0.021782756
27	0x3d7ed4fc	0.062214836
28	0xbdce163b	-0.10062834
29	0xbe09ea6e	-0.13468334
30	0x3dab0ae5	0.08351687
31	0xbe0a2d3d	-0.1349382
32	0x3e2a90ce	0.16656801
33	0x3c6a5fda	0.014305079
34	0x3d1743d5	0.036929924
35	0xbd93fdd8	-0.07226151
36	0x3e0647d5	0.13113339
37	0xbb9a6d71	-0.0047127535
38	0x3da57233	0.080784224
39	0x3db3e542	0.08783962
40	0xbda083af	-0.07837617
41	0x3e020ca8	0.1270014
42	0x3d9c4f1c	0.076322764
43	0xbd5d0f9e	-0.05396997
44	0xbb974bee	-0.004617206
45	0x3e3f799b	0.18698733
46	0x3e429ae8	0.19004405
47	0xbe0f9074	-0.14019948
48	0x3df9ae53	0.12191453
49	0xbd55a3a7	-0.052158024
