output/checkpoints/model0.pt (torch, 16271 bytes, 5 tensors)

conv1d.weight f4 [64, 3, 1]
000000 cb b6 04 bf 38 14 f8 bd 07 bb a4 3e cf 17 ad bd
       -0.5184142 -0.121132314 0.3217394 -0.08451807
000010 b3 ce 82 3e 65 0a 4a 3e 1d 83 b4 3e 3c f2 0c 3e
       0.25548324 0.19730528 0.35256281 0.1376428
000020 44 48 d5 3d 6c f4 22 bd 60 02 5a 3e cc 11 ad be
       0.10414174 -0.03978388 0.21289968 -0.3380264
000030 9b c8 04 3e 4f 2f 09 3f ca 82 d6 3d cc 40 24 be
       0.1296715 0.5358781 0.10474165 -0.16040343
000040 35 9f e6 3e 7f 07 9b 3e 5f 8a 5f 3e 5c 24 ee 3e
       0.4504334 0.30279157 0.21830128 0.46512115
000050 47 bd e1 be 06 8a ac 3e 75 76 da be 5f 40 b9 be
       -0.4408972 0.33699054 -0.426685 -0.36181924
000060 1b 57 d5 3e 7a 79 fc be a6 8c 2e be c7 7d b2 3e
       0.4166802 -0.4931143 -0.1704584 0.34861585
000070 89 65 2e 3e 81 86 5a bd 05 42 c5 3e 7e 92 03 bf
       0.1703092 -0.05335093 0.3852693 -0.51395404
000080 3d 65 c8 3e e7 c1 c9 3c 34 96 89 3e 39 a0 99 bd
       0.3913974 0.024628593 0.26872408 -0.07501263
000090 47 5d 09 3f ec be cc bd 36 56 b6 bd e0 f6 8e 3e
       0.53657955 -0.09997353 -0.08903162 0.27922726
0000a0 6f 32 2a be dc 77 c6 be 0c ad 23 be 09 df d6 bd
       -0.16620801 -0.3876332 -0.15983981 -0.10491759
0000b0 b2 3e 93 3e 64 a0 99 be b2 c5 0b 3f 84 32 23 be
       0.2875877 -0.3000518 0.54598534 -0.15937239
0000c0 02 64 f0 be f5 65 cb bd 73 7c 74 bd da 73 be 3e
       -0.469513 -0.09931556 -0.059688997 0.37197763
0000d0 08 f0 08 3f 2a 7f 14 3f e1 83 5f bd 24 70 e1 3e
       0.5349126 0.58006537 -0.05456913 0.4403087
0000e0 fe 75 a0 bd e5 6c 69 bb 41 60 f2 3d d3 9e ed be
       -0.07835005 -0.0035617885 0.11834765 -0.46410236
0000f0 00 7a 04 3f 6a 13 9b be d6 11 10 bf 5e 12 bc 3e
       0.5174866 -0.3028825 -0.56277215 0.36732763
000100 f9 df aa 3e cb 31 d3 3e 66 bd d5 be aa 09 9d 3e
       0.33374003 0.41248927 -0.41746062 0.30671436
000110 c1 e6 dd 3e 6f 2a 1b 3e 5c 03 94 3b 37 cb d0 be
       0.43340114 0.15152906 0.004517002 -0.4078004
000120 cb ef db 3e 62 67 f5 be 37 d2 ba 3e 57 22 92 3e
       0.42956385 -0.47930437 0.36488506 0.28541824
000130 19 ea 6a 3e 93 a2 85 3e 73 45 c0 bc d3 bf 0b bf
       0.22940864 0.26100597 -0.023470616 -0.54589576
000140 10 41 b8 3e c7 bb ae 3e da 37 b4 3e 73 b1 ff be
       0.3598714 0.34127638 0.3519886 -0.4994007
000150 a0 9a 99 be 8b bb 03 be c1 24 ae be 47 72 50 be
       -0.30000782 -0.1286451 -0.34012416 -0.20356093
000160 37 df c5 3e 0e 44 20 3e 47 b7 13 3f cd dd 23 be
       0.38646862 0.15650961 0.57701534 -0.16002579
000170 9d f5 15 3f a3 40 14 3e 18 3b 2a be a9 52 b8 3e
       0.585779 0.14477782 -0.16624105 0.36000565
000180 b0 f2 0c 3f a5 1c 01 3f ec 57 08 bf 99 83 89 bd
       0.5505781 0.50434333 -0.5325916 -0.067145534
000190 43 bd 4e be 1b f2 95 3e a9 cb ea 3e f2 7d c6 3d
       -0.20189385 0.29286274 0.45858505 0.09691991
0001a0 47 c2 a7 3e 1e 33 64 3e 4c 79 00 bf e5 40 3e be
       0.3276541 0.22285125 -0.50185084 -0.18579443
0001b0 d7 2d 59 3e f5 5a b8 be e3 66 e3 be 38 e5 88 3e
       0.21208893 -0.36006895 -0.44414434 0.2673738
0001c0 f5 29 f5 3e cf 79 08 3f f5 58 ad 3c ec 7e 09 3d
       0.47883573 0.53310865 0.021160582 0.033568308
0001d0 84 51 ad bd fc 14 df 3e 62 5d e6 3e 77 0e a3 3c
       -0.084628135 0.43570697 0.4499312 0.019904358
0001e0 ec ef 0a bf e2 cd 3c 3e 81 6c 12 be b6 2d 05 3f
       -0.5427234 0.18437913 -0.14299203 0.52022874
0001f0 e2 db 29 bd 5d 7b 5b 3e b8 16 f3 be e2 80 bb be
       -0.041469462 0.21433778 -0.4747827 -0.36621767
000200 d7 9c 48 be 7c 82 d6 be e2 95 6d 3e 9b 8e 17 be
       -0.1959108 -0.41896427 0.23201707 -0.14800493
000210 67 b8 12 bf 41 be c5 be 27 5b 81 3e 97 c7 0c 3e
       -0.57312626 -0.38621715 0.25264856 0.13748012
000220 a4 30 3b 3d f0 7c b1 3e 56 05 fd be 42 96 7e 3d
       0.045700684 0.34665632 -0.49418133 0.062155016
000230 3e 29 e5 be 71 88 0d 3f 7a 1f 50 be 8f a7 8f be
       -0.44758028 0.5528632 -0.20324507 -0.28057525
000240 f6 b7 4f 3e 59 a3 24 be 5a 57 d5 bd dd 65 d5 be
       0.2028502 -0.16077937 -0.104170516 -0.41679278
000250 5c f9 b1 be 7d 70 0d 3e d1 a6 0a bf ab 75 dd bd
       -0.3476056 0.13812442 -0.5416079 -0.10813459
000260 73 7b 1f be 3e d0 db be 79 9e 64 3e e6 07 7b 3e
       -0.15574436 -0.42932314 0.22326078 0.24514732
000270 9d d0 37 3e fb e2 51 be ae 0f d2 3e 8f 8d f7 3e
       0.17950673 -0.20496742 0.41027588 0.48350188
000280 d3 55 aa be a3 fd 03 bf 60 38 f1 3e c8 8a bd be
       -0.33268604 -0.51558894 0.47113323 -0.37019944
000290 03 7d ea 3d 31 fe 10 bf 26 c9 02 bf 84 52 e5 3d
       0.11449625 -0.56637865 -0.5108818 0.11197379
0002a0 d1 b9 e1 be 60 a1 1d be ee 69 d0 be 25 cd 4f bd
       -0.4408708 -0.15393591 -0.40705818 -0.05073275
0002b0 ba 94 0d 3f 8b 08 90 3c 30 13 57 be d9 ca fa 3e
       0.55305064 0.017582199 -0.21003413 0.48982885
0002c0 68 e3 c6 be 5e 26 cc 3d f9 d9 9c be 85 96 5c be
       -0.38845372 0.099682555 -0.3063505 -0.21541794
0002d0 cf 0e ca 3e 08 0c 0b 3f 89 5f b4 bd cf e2 7e be
       0.39464423 0.54315233 -0.088072844 -0.24891208
0002e0 41 56 5d be fc 93 89 3e 29 74 35 be c9 12 98 3e
       -0.21614935 0.26870716 -0.17720093 0.29701832
0002f0 1b e4 f4 3e a8 56 b6 3d f2 6a 60 be a0 57 9b be
       0.4783028 0.08903247 -0.21915796 -0.3034029

conv1d.bias f4 [64]
000000 16 58 a5 3e 74 64 d0 3e 98 8e ec 3e 20 43 35 be
       0.32293767 0.4070164 0.4620254 -0.17701387
000010 ca 9d 9a be 9c 3c de 3d bf 3f 9a bd 03 02 f0 3e
       -0.30198509 0.10851404 -0.0753169 0.46876535
000020 38 e5 a7 3e 74 4d 5d 3d 26 da 55 3e 78 08 8c 3e
       0.32792068 0.054028943 0.20883998 0.2735021
000030 56 9d 33 bd cc 7c 5f 3e b7 21 bd 3e b0 18 b1 3e
       -0.04385122 0.2182495 0.36939785 0.34589148
000040 58 a7 db be 47 f8 e7 3e c0 00 1c 3d b8 3c 8d be
       -0.4290111 0.45306608 0.038086653 -0.27585387
000050 71 84 cb be 36 26 89 3e f3 2c 71 3c 86 27 7c 3e
       -0.39749482 0.26786965 0.014720189 0.24624452
000060 f7 53 af be 39 a7 e4 3e ed 46 f4 be 0a 9a c2 3e
       -0.34243748 0.4465883 -0.47710362 0.38008147
000070 98 30 fe 3e 93 25 ce be ef 9a f5 3e 0e cf 87 be
       0.4964645 -0.40263042 0.47969767 -0.26525158
000080 01 14 f3 be 85 af 19 3f 21 8b a8 3a 10 eb 8b 3e
       -0.474762 0.60033447 0.0012858846 0.27327776
000090 e2 4d ff 3d fb 3b 19 3f 85 76 22 be 5d 70 96 3e
       0.12466027 0.5985715 -0.15865524 0.293826
0000a0 50 1f bc be 79 84 96 3e 01 a6 45 3e 8d 03 cd 3d
       -0.3674264 0.29397944 0.19301607 0.10010443
0000b0 00 1b d2 3d 71 15 03 bf 87 11 f3 bc 45 44 b0 3e
       0.10259056 -0.5120459 -0.029671444 0.34427086
0000c0 72 50 41 be db bd fe be a7 1c b4 be e6 67 df 3e
       -0.18878344 -0.49754223 -0.3517811 0.43633956
0000d0 49 a7 f0 be 74 7c 5d 3e f4 b4 80 3d 5b ba 9a be
       -0.47002628 0.21629506 0.06284514 -0.30220303
0000e0 c5 e5 9d bd 94 6c 03 bf ff c6 91 3e b7 8c 1d be
       -0.07709841 -0.5133755 0.28472134 -0.1538571
0000f0 2e 14 40 be fc 98 f4 3d 0b 27 a9 be 37 67 ee 3d
       -0.18757698 0.11943242 -0.330376 0.116407804

fc1.weight f4 [50, 64]
000000 6e 76 cb bd 70 27 d4 3c 8a f1 95 bd 7d 29 54 bd
       -0.09934698 0.025897712 -0.073214605 -0.05179738
000010 ee a8 71 bd 70 62 64 3d dc d9 f0 3d f6 76 00 3d
       -0.058998995 0.05575794 0.117603034 0.03136345
000020 17 43 86 3d ed 7d d9 bd d0 e8 08 3d f6 0b a9 3d
       0.06555765 -0.106197216 0.033425152 0.082542345
000030 15 91 a4 3d b9 92 42 3d 30 2c d7 3d bc 24 11 3d
       0.08035485 0.047503207 0.10506475 0.035435423
000040 60 65 b7 bc b1 66 02 3d 70 df f9 bd 4b 77 86 3c
       -0.022387207 0.031836215 -0.122008204 0.016414305
000050 9b b9 87 3c 0b bb 0d bd ce 9e a5 3d 33 ec cf bc
       0.016567996 -0.034602206 0.0808693 -0.025381183
000060 e5 2b be bc cc 44 07 be ed 37 9e 3d e0 9d 9b bd
       -0.02321429 -0.13209838 0.07725511 -0.07598472
000070 a4 c0 ef 3d cc 6f 88 bd 20 da 40 3d b5 81 a9 bd
       0.11706665 -0.066619486 0.04708302 -0.08276693
000080 7f f7 97 bd a5 6c ec 3d 96 67 91 bd 6a 6b 17 bd
       -0.07420253 0.1154416 -0.070998356 -0.036967672
000090 2f a8 82 bd 67 2a ce 3d f5 ed 4f 3d 0c 70 12 3c
       -0.06379735 0.10066681 0.050764043 0.008937847
0000a0 bb e5 96 3d d2 1c ff bd 88 19 d3 bc 57 b5 92 bd
       0.07368036 -0.12456669 -0.02576901 -0.07163494
0000b0 67 a6 8d bd 84 d6 99 bd 04 13 b4 bd cb ad 75 3d
       -0.06916504 -0.07511619 -0.087926894 0.059980195
0000c0 f8 67 ac 3d 0c c1 c4 3d e8 0b 66 bd a7 63 9b bc
       0.08418268 0.09607133 -0.0561637 -0.018968416
0000d0 10 cc 06 bd dc d6 fb 3d 40 fd ca 3d 35 1c d8 bb
       -0.032909453 0.122968405 0.09911585 -0.0065951594
0000e0 ac 4c da bd 09 bd 9a bd 3c b7 45 bd a0 a2 a0 bd
       -0.10659155 -0.07555587 -0.04827045 -0.07843518
0000f0 15 5b 51 3d 3e 79 06 bd 21 d0 b9 3d f5 e3 80 3d
       0.051112253 -0.03283047 0.090729006 0.06293479
000100 99 ac bf bd 10 02 16 3e e6 9e f8 3d 1f b9 ec 3d
       -0.09359092 0.14649224 0.121396825 0.115587465
000110 6d 6f 03 3e 3a 8a a7 3d 62 00 34 bd 91 9c b4 bd
       0.12835474 0.081806615 -0.043945678 -0.08818925
000120 cd b9 59 3d c7 c0 81 bd 3a b4 b4 3d 18 db ac 3d
       0.05315571 -0.063355975 0.08823438 0.08440226
000130 aa 51 fb 3c 4d cc f0 3d 98 eb b2 3d cd b0 c2 bd
       0.030678589 0.11757717 0.08736342 -0.09506378
000140 d0 02 16 bd 44 c6 b4 3c 6a 4c 6c bd a8 b8 7c 3d
       -0.036623776 0.022067197 -0.05769006 0.06169954
000150 6f 18 dc 3c a8 3c 68 3d dd 4b 4a 3d ed d7 ef bc
       0.02686712 0.05669847 0.049388755 -0.029277766
000160 ee f9 60 bc 83 41 a9 bd bf ae d4 bd 98 94 9f 3d
       -0.013731463 -0.082644485 -0.10384893 0.07792014
000170 b7 4f 81 3c 32 bd 1a 3e 66 a7 e1 bb 4a b5 55 3c
       0.015785081 0.15111235 -0.0068864105 0.013043711
000180 38 d5 bf bc 50 5b b4 bd 07 ff 84 3d 1d 37 a7 bd
       -0.0234171 -0.08806479 0.06493955 -0.08164809
000190 ca d7 ce bd 4d e7 07 3e 52 19 9d bd f9 67 32 bc
       -0.10099752 0.13271828 -0.07670845 -0.010889047
0001a0 07 28 eb bc c5 81 ec bb 3c 33 c7 bd d1 89 c9 3d
       -0.02870561 -0.007217618 -0.09726569 0.098407395
0001b0 82 be f4 3d 7a 58 9e 3d 0a e2 ad bd d4 b5 45 3d
       0.11950399 0.07731719 -0.08490379 0.048269108
0001c0 09 bf 9e 3d a9 30 9c 3d 48 19 be bd 9a 16 60 3d
       0.07751281 0.07626469 -0.09282166 0.054709055
0001d0 01 06 02 3d f0 b5 6c ba d3 c0 ab 3d 57 c6 0a bd
       0.031744007 -0.00090297963 0.08386388 -0.033880558
0001e0 c2 db bc 3d 07 8c c3 bd 56 d1 f5 bc 29 e2 9c bc
       0.09221603 -0.095481925 -0.030007046 -0.01915081
0001f0 3d 44 0c bd 91 76 c9 bd ed 3f a9 3d 9b 33 a1 3d
       -0.034244765 -0.09837068 0.08264146 0.07871171
000200 25 d1 c0 bc bc b0 cc bc 04 5c e8 bc 30 56 fc bd
       -0.023537228 -0.024986617 -0.028364189 -0.123211265
000210 9f ec b8 bd 4b 23 f5 3d b9 49 f1 bd 94 76 87 bb
       -0.09029507 0.11969622 -0.117816396 -0.0041340087
000220 8f 4d ad 3d f8 66 b3 bd b2 0d 80 3d 88 f0 88 bc
       0.08462059 -0.08759874 0.06252612 -0.016716257
000230 99 a1 da 3d 66 ce a3 3c b1 72 87 bb dc 13 bf bd
       0.106753536 0.01999588 -0.0041335453 -0.0932996
000240 42 7d 95 bd db af bf bd 04 5e e1 bd 49 74 b6 3d
       -0.07299282 -0.09359714 -0.1100426 0.089088984
000250 81 ad 8c bc d4 5b b3 3d bb 2d c6 bd 02 1a 03 bd
       -0.017172577 0.08757749 -0.09676691 -0.032007225
000260 3f 08 5a 3d 62 7d 80 bd 6e 82 bc bc b1 01 ef bd
       0.05323052 -0.06273915 -0.023011412 -0.116702445
000270 80 7f 91 3c bd 48 9f 3d 53 79 ae bc dd 1e a9 3d
       0.017760992 0.077775456 -0.021298086 0.0825784
000280 ad 6d 54 3d 95 17 af bd 71 5b b7 bb 8a c7 4f 3d
       0.051862407 -0.0854942 -0.0055956175 0.050727405
000290 ce a4 50 bd 55 fa c2 3d 52 ff 07 bd f8 7f e9 bd
       -0.05093842 0.09520403 -0.033202477 -0.11401361
0002a0 28 15 6c bd 61 11 bc 3c 70 50 0f 3d 34 f9 2d bd
       -0.057637364 0.022957506 0.03498882 -0.042473987
0002b0 39 ca 05 3d 82 cd 17 3d ea 5f dc bd 3f be 8b 3d
       0.032663558 0.037061222 -0.10760482 0.06823396
0002c0 ee 89 81 bc f4 39 c3 bc 60 23 28 bd e3 5a df bd
       -0.01581284 -0.023831345 -0.04104936 -0.10906007
0002d0 3b 20 f5 bd f6 98 fa 3a a0 dc 04 be 02 07 91 bd
       -0.11969038 0.0019119072 -0.12974787 -0.07081415
0002e0 f0 86 ef bd b4 4c 74 bd 86 98 93 bd 2d 59 99 3d
       -0.11695659 -0.059643462 -0.07206826 0.07487712
0002f0 52 cd ae 3d 52 4e a3 3d fc a7 98 3d 10 cb 3b 3a
       0.085352555 0.07973923 0.074539155 0.00071637426
000300 aa 03 88 3d 43 05 ef 3d 5d ec b1 3d e4 b1 b7 bd
       0.06641324 0.116709255 0.08687661 -0.08969477
000310 c9 c3 fb 3c 3e ec d2 bb a4 1d 67 bc 1c 22 f4 3d
       0.030733006 -0.0064368537 -0.014106188 0.11920568
000320 4f 22 be 3d 28 78 11 3e a4 f3 e7 3d a4 e1 ea 3d
       0.092838876 0.14205992 0.11325768 0.11468819
000330 0f db 02 3e 34 74 09 3c 86 68 3f bd ab de 23 bd
       0.12778877 0.008389521 -0.04673054 -0.040007275
000340 14 d0 5c 3d b2 e8 88 bc 91 f2 46 3d b4 17 ee bc
       0.053909376 -0.01671252 0.048571173 -0.029064037
000350 ea c9 45 3d 43 33 52 bc ba a0 58 bd 66 b1 46 3d
       0.048288263 -0.012829605 -0.052887656 0.048509024
000360 f1 6e 1e bd 06 fa 27 3d f7 54 0c 3c 22 96 8c bd
       -0.03868002 0.041009925 0.008565179 -0.06864573
000370 18 8f 5e bd 88 5d 54 3d e9 23 1c 3e b6 e3 aa 3d
       -0.054335684 0.05184701 0.15248074 0.08344214
000380 85 28 d0 bc 9a 66 39 3c 80 63 79 3d 6c ba 64 3d
       -0.025409946 0.011315966 0.060885906 0.05584185
000390 5f 59 84 3d 38 f6 83 3d 27 0c be 3d 94 8c cd 3d
       0.06462359 0.06443447 0.092796616 0.10036579
0003a0 62 9c c3 bc e2 ac 81 3d 50 45 87 3c ca 61 f1 bc
       -0.02387828 0.06331803 0.016512543 -0.029465575
0003b0 51 05 e1 3d ff ac 02 3e a6 b3 90 3d db 69 86 3d
       0.10987342 0.12761305 0.07065515 0.06563159
0003c0 38 8a 8e bc 77 9f e4 3d b0 80 59 3d 45 b3 23 3d
       -0.017399892 0.11163228 0.05310124 0.039965887
0003d0 e9 3a 94 bd b7 7b 53 3c 2b 5b be bd 7f 21 e8 bd
       -0.07237799 0.012907914 -0.09294733 -0.11334514
0003e0 b0 0c 9d 3d a6 38 3a bd ee d4 ae 3c 82 54 86 38
       0.076684356 -0.04546418 0.021341767 6.405359e-05
0003f0 5f 08 52 3d 39 ab 14 bc d3 d7 33 3d bb b9 94 3d
       0.051277515 -0.009074026 0.043906998 0.07261988

fc1.bias f4 [50]
000000 25 52 b0 ba c3 a6 ff 3d 02 35 90 3d c8 a2 bb 3d
       -0.0013452215 0.12482979 0.070413604 0.091619074
000010 52 e0 fb bd 40 a7 66 bd 20 d2 c0 3d 3b 39 77 bd
       -0.12298645 -0.056311846 0.09415078 -0.060357314
000020 f5 ed 26 bd 19 d1 ef bd b9 09 49 bd 5c 44 e2 3d
       -0.040754277 -0.11709804 -0.049081538 0.11048195
000030 81 48 ca bd 90 31 9e bd c3 73 e7 bd 46 e0 93 bd
       -0.0987711 -0.07724297 -0.11301377 -0.07220511
000040 68 6c 04 3e d1 f9 d1 3b 88 4a a5 3d e6 ba 75 bd
       0.12931979 0.0064079543 0.08070856 -0.059992693
000050 c8 b4 97 3d 9d 29 24 3d 0e cc 7a 3d 8e 28 b5 3d
       0.07407528 0.040078748 0.061229758 0.08845626
000060 0a ee 81 3d ee 3d 9e bd 74 be cd bd ce b8 e8 3d
       0.063442305 -0.07726656 -0.10046092 0.11363374
000070 a8 ae a0 bd 48 f2 29 3d fe c5 c9 3c 20 21 c1 bb
       -0.07845813 0.041490823 0.024630543 -0.0058938414
000080 22 5a 65 bc 80 54 a5 3a cd e4 98 3d 6e a8 8d bd
       -0.01399854 0.0012613684 0.07465515 -0.06916891
000090 f0 61 88 bd 04 b2 10 3d 2a 2b 8b bd 40 4e 32 3b
       -0.06659305 0.03532602 -0.06795342 0.0027207285
0000a0 30 91 8c 3c 7e e4 b5 bd 45 d8 e8 3d 6b 77 b2 bd
       0.017159075 -0.08881472 0.11369375 -0.087141834
0000b0 7d 3c fb bd a5 f9 e7 3d c0 b0 49 bc 59 a0 35 bd
       -0.122673966 0.11326913 -0.012310207 -0.044342373
0000c0 5f 2e 86 3b ee 31 dd 3d
       0.0040948833 0.10800539

fc2.weight f4 [1, 50]
000000 6d 6d 9d bc 49 2c 1d 3e ec 60 9c bd ab 30 9d 3d
       -0.019217217 0.15348925 -0.07635674 0.07675298
000010 1d 5c fa bc 80 6d d2 bd 06 ce 8d bc a6 d6 df 3d
       -0.030561501 -0.10274792 -0.017310154 0.10929613
000020 50 cb a1 3d 28 e4 84 bd 52 3a 94 3d 1e 5d f7 3d
       0.07900107 -0.0648883 0.07237686 0.120783076
000030 04 ab a4 3d ba 6f 89 3d 93 b1 c4 bd 25 ea 0a be
       0.08040431 0.06710763 -0.09604182 -0.13565882
000040 93 c8 88 3d a3 25 da bd 8e a4 50 3d 90 29 30 3d
       0.066788815 -0.1065171 0.05093818 0.043008387
000050 5e fd 7e 3d 4c 24 0b be a4 b1 09 be d5 aa 76 3d
       0.06225335 -0.13588065 -0.13446671 0.060221512
000060 6a a1 f2 3d 94 8d cd bc c0 71 b2 bc fc d4 7e 3d
       0.118471935 -0.025091924 -0.021782756 0.062214836
000070 3b 16 ce bd 6e ea 09 be 27 f3 ac 3d 3d 2d 0a be
       -0.10062834 -0.13468334 0.08444815 -0.1349382
000080 32 11 18 3e da 5f 6a 3c b1 1d dd ba d8 fd 93 bd
       0.1485031 0.014305079 -0.0016869811 -0.07226151
000090 b6 65 f0 3d 37 33 df bb bf ba 8d 3d 42 e5 b3 3d
       0.1173815 -0.006811525 0.069203846 0.08783962
0000a0 ce b3 8f bd 80 a7 5b 3d e2 c4 8c 3d 62 dd e1 bc
       -0.07016717 0.053626537 0.0687349 -0.027571384
0000b0 1c c5 f4 bb 8b d4 2f 3e 4c 86 24 3e fd 16 d7 bc
       -0.0074697863 0.17170922 0.16066855 -0.026256079
0000c0 f6 33 dc 3d 49 65 79 bc
       0.10752098 -0.015221902
