output/checkpoints/model140.pt (torch, 16479 bytes, 5 tensors)

conv1d.weight f4 [64, 3, 1]
0	0xbf00c796	-0.50304544
1	0xbe037fc3	-0.12841706
2	0x3eb0b677	0.3451421
3	0xbdbeca63	-0.09315946
4	0x3e78c62f	0.24294351
5	0x3e475b69	0.19468464
6	0x3eaeabcf	0.34115455
7	0x3e00180f	0.12509178
8	0x3dd2b0c1	0.102876194
9	0xbd1eeafe	-0.038798325
10	0x3e6f6343	0.23377709
11	0xbeab5355	-0.33462015
12	0x3df5484c	0.1197668
13	0x3f059826	0.52185285
14	0x3dda218c	0.1065093
15	0xbe2dbd5f	-0.1696677
16	0x3ee05afc	0.43819416
17	0x3e9bf2d0	0.3045869
18	0x3e53944d	0.20662041
19	0x3eea625d	0.4577817
20	0xbef19893	-0.47186717
21	0x3eb29f61	0.3488722
22	0xbecde265	-0.40211788
23	0xbeb29432	-0.3487869
24	0x3ee7eb62	0.4529677
25	0xbeebccf9	-0.4605482
26	0xbdd7a225	-0.105289735
27	0x3ea6e236	0.3259446
28	0x3e1828a4	0.14859253
29	0xbd972ecd	-0.073819734
30	0x3ec1cca4	0.3785144
31	0xbf04eeb8	-0.51926756
32	0x3eccf2b2	0.40028912
33	0x3c5b526d	0.013386351
34	0x3e8422a2	0.25807673
35	0xbd98932b	-0.07449945
36	0x3f004ed8	0.50120306
37	0xbe1113e1	-0.1416774
38	0xbe0af34a	-0.1356937
39	0x3e95f6c6	0.29289836
40	0xbe284cd1	-0.16435553
41	0xbeb0b185	-0.34510437
42	0xbe159a08	-0.1460954
43	0xbdc8d7c4	-0.09806779
44	0x3e9dc2c5	0.3081266
45	0xbe9f62c2	-0.31130034
46	0x3f0bd207	0.5461735
47	0xbe276dd8	-0.16350496
48	0xbef06402	-0.469513
49	0xbdcb65f5	-0.09931556
50	0xbd747c73	-0.059688997
51	0x3eb958ed	0.36200657
52	0x3f0573f5	0.5213006
53	0x3f148b1d	0.5802477
54	0xbda59459	-0.08084936
55	0x3eda66c3	0.42656526
56	0xbdab8efb	-0.08376881
57	0x3d2045b8	0.03912899
58	0x3e3e88e4	0.18606907
59	0xbeccd792	-0.40008217
60	0x3f11aa2f	0.56900305
61	0xbe845df5	-0.25852934
62	0xbefa8cce	-0.4893555
63	0x3ea90094	0.33008254
64	0x3e9d31bd	0.3070201
65	0x3ec1bbc2	0.3783856
66	0xbed455fa	-0.41471845
67	0x3e9922bb	0.2990931
68	0x3ee36997	0.44416496
69	0x3e438344	0.19093043
70	0x3d69490d	0.056954432
71	0xbec957ed	-0.39324895
72	0x3ed339af	0.41254947
73	0xbefa7787	-0.48919317
74	0x3eba63f1	0.36404374
75	0x3e9405a8	0.28910565
76	0x3e62e003	0.22155766
77	0x3e803f80	0.25048447
78	0xbd80a99e	-0.06282352
79	0xbf13183c	-0.57458854
80	0x3eb3df3d	0.35131255
81	0x3ea89604	0.32926953
82	0x3eb60cad	0.35556546
83	0xbf03445a	-0.5127617
84	0xbe82d756	-0.25554913
85	0xbdac650f	-0.08417713
86	0xbe976193	-0.2956663
87	0xbe6296e2	-0.2212787
88	0x3ebcc91c	0.36872184
89	0x3e1f0551	0.15529372
90	0x3f1122fa	0.56693995
91	0xbe31422c	-0.17310399
92	0x3f159541	0.5843087
93	0x3e06aa4d	0.13150902
94	0xbe37ee84	-0.1796208
95	0x3eb5b2b0	0.3548789
96	0x3f0e4972	0.5558082
97	0x3f03e2a6	0.51517713
98	0xbf0802b4	-0.53129125
99	0xbd357d2d	-0.04430883
100	0xbe44d24e	-0.1922085
101	0x3ea21dbd	0.31663314
102	0x3ee5609a	0.44800264
103	0x3daa774e	0.08323537
104	0x3ea7261d	0.32646266
105	0x3e736418	0.23768651
106	0xbef1b0ea	-0.47205287
107	0xbe4c9660	-0.19979239
108	0x3e4d6bc3	0.20060639
109	0xbeae451a	-0.34037095
110	0xbeeb83de	-0.45999044
111	0x3e834866	0.25641173
112	0x3eeef406	0.4667055
113	0x3f088b31	0.5333739
114	0x3d25c7db	0.0404738
115	0x3d8259a7	0.06364756
116	0xbd84071e	-0.0644667
117	0x3ed9bf6b	0.42528853
118	0x3edee91f	0.43537232
119	0x3c8f79d5	0.017514149
120	0xbf0712b4	-0.52762914
121	0x3e3ec958	0.18631494
122	0xbe2b4194	-0.16724235
123	0x3f0228c6	0.50843465
124	0xbd5eb395	-0.05437048
125	0x3e5c2d82	0.21501735
126	0xbef316b8	-0.4747827
127	0xbebb80e2	-0.36621767
128	0xbe489cd7	-0.1959108
129	0xbed3cde8	-0.41368032
130	0x3e943c8a	0.28952438
131	0xbde74ff4	-0.11294547
132	0xbf0c929d	-0.54911214
133	0xbeb14401	-0.34622195
134	0x3e9bad92	0.3040586
135	0x3e01972a	0.12655321
136	0x3d021ef7	0.03176781
137	0x3eb2d3cb	0.3492721
138	0xbee641f0	-0.4497218
139	0x3dda5d84	0.10662368
140	0xbece65dc	-0.40312088
141	0x3f0daad8	0.5533881
142	0xbe588fbe	-0.21148583
143	0xbe939f46	-0.28832453
144	0x3e5a701f	0.21331833
145	0xbe22d592	-0.15901783
146	0xbdae1f46	-0.08502059
147	0xbeca3d7e	-0.3950004
148	0xbea49ad7	-0.32149383
149	0x3e35d76c	0.17757958
150	0xbf0aa6d1	-0.5416079
151	0xbddd75ab	-0.10813459
152	0xbe1f7b73	-0.15574436
153	0xbedd72b7	-0.43251583
154	0x3e52c8fd	0.20584483
155	0x3e829f77	0.25512287
156	0x3e2df132	0.1698654
157	0xbe5f80bc	-0.21826452
158	0x3ed0f171	0.40809205
159	0x3effce3b	0.4996203
160	0xbead4d2e	-0.33847946
161	0xbef7ac02	-0.4837342
162	0x3ef1717d	0.47156897
163	0xbebde587	-0.37089178
164	0x3e045eff	0.12926863
165	0xbf13eb15	-0.5778058
166	0xbf05793c	-0.52138114
167	0x3dd437d8	0.10362214
168	0xbee1b9d1	-0.4408708
169	0xbe1da160	-0.15393591
170	0xbed069ee	-0.40705818
171	0xbd6d14bf	-0.057881113
172	0x3f0d82d4	0.5527775
173	0x3ce7b71b	0.028285554
174	0xbe38d014	-0.18048126
175	0x3f057d9c	0.5214479
176	0xbeb6ad84	-0.35679257
177	0x3dccf012	0.10006727
178	0xbe98f54b	-0.29874644
179	0xbe6d92d9	-0.23200549
180	0x3ecdbe18	0.40184093
181	0x3f0de0f3	0.5542137
182	0xbdb544eb	-0.08851036
183	0xbe6cb651	-0.23116423
184	0xbe863e81	-0.26219562
185	0x3e8cdbfb	0.27511582
186	0xbe424d45	-0.18974788
187	0x3e90201a	0.28149492
188	0x3ef7b32c	0.48378885
189	0x3de1ec50	0.11031401
190	0xbe6d1433	-0.23152237
191	0xbe8eb50c	-0.27872503

conv1d.bias f4 [64]
0	0x3ed262de	0.41091055
1	0x3f7be066	0.9838928
2	0x3f87e5cb	1.0617002
3	0xbea711cf	-0.32630774
4	0x3eac8a59	0.336993
5	0x3f35ef21	0.71068007
6	0xbf37cce5	-0.7179702
7	0x3f03525e	0.5129756
8	0x3e75d9e6	0.24008903
9	0x3f18d78b	0.5970389
10	0x3f52c708	0.8233495
11	0x3f5e40ac	0.8681743
12	0x3ee4040f	0.44534346
13	0x3d8f46f3	0.06995954
14	0x3f6ca45d	0.924383
15	0xbe6404fd	-0.22267528
16	0xbedba758	-0.4290111
17	0x3f87adc4	1.0599904
18	0xbf098d21	-0.5373097
19	0xbea09293	-0.31361827
20	0xbf1854fa	-0.59504664
21	0x3f2d5e05	0.6772159
22	0x3f26b5bf	0.6512107
23	0x3eac6526	0.3367092
24	0x3e6b373c	0.22970289
25	0xbdfb9fbc	-0.12286326
26	0xbed61011	-0.41809133
27	0xbe7becac	-0.24602002
28	0x3f0a798a	0.54091704
29	0x3e562fee	0.20916721
30	0x3f8ada1a	1.0847809
31	0x3ea31da4	0.31858552
32	0xbf8c116d	-1.0942818
33	0x3f9b1a46	1.2117393
34	0x3f1d3c72	0.6142036
35	0x3e9336c3	0.28752717
36	0x3e299e8d	0.16564389
37	0x3f9ab3b7	1.2086095
38	0xbf42eb19	-0.7613998
39	0x3f6845d8	0.90731573
40	0xbeb43ffc	-0.35205066
41	0x3f67e20c	0.90579295
42	0x3e45a601	0.19301607
43	0x3d8bfc26	0.06835203
44	0x3e3cc0d3	0.18432932
45	0x3df134d0	0.11777651
46	0x3c727cca	0.01480026
47	0xbe9de875	-0.30841413
48	0xbefcd06d	-0.49377766
49	0xbef09c8b	-0.46994433
50	0xbeb41ca7	-0.3517811
51	0x3f56c0b6	0.83887804
52	0x3e1cffcb	0.15331952
53	0x3db92b96	0.090415165
54	0x3f37cbb5	0.7179521
55	0xbea0a464	-0.3137542
56	0xbd9de5c5	-0.07709841
57	0xbf8c0547	-1.093911
58	0x3f38acdf	0.7213878
59	0xbe4599c4	-0.19296938
60	0xbf4d9ce2	-0.8031751
61	0x3e418e9c	0.18902057
62	0x3e976049	0.29565647
63	0x3e178727	0.1479765

fc1.weight f4 [50, 64]
0	0xbdddf3f9	-0.1083755
1	0x3c8da418	0.01729016
2	0xbda64b71	-0.08119858
3	0xbd54297d	-0.05179738
4	0xbd8919ba	-0.0669436
5	0x3d41f213	0.04735
6	0x3def4e0c	0.11684808
7	0x3cfc050f	0.03076413
8	0x3d83cece	0.06435929
9	0xbde052ee	-0.109533176
10	0x3cc7eb67	0.02440424
11	0x3da4b293	0.08041873
12	0x3d9fd339	0.078039594
13	0x3d3e64e0	0.04648292
14	0x3dc54224	0.09631756
15	0x3d0fd24e	0.03511267
16	0xbcb76560	-0.022387207
17	0x3cbd68cd	0.023121262
18	0xbdfc7f4b	-0.12328967
19	0x3c8bab9f	0.017049609
20	0x3c7f66ed	0.015588504
21	0xbd312343	-0.04324652
22	0x3d934e7c	0.07192704
23	0xbcd7ea09	-0.026356714
24	0xbd0373f8	-0.03209302
25	0xbe1003d1	-0.14063956
26	0x3d8b4bee	0.06801592
27	0xbd9ce0a3	-0.076600336
28	0x3defc0a4	0.11706665
29	0xbd984f38	-0.07436985
30	0x3d1cc730	0.038275898
31	0xbdbc2dd4	-0.091884285
32	0xbd9a3dc6	-0.075313136
33	0x3dd97df4	0.10619727
34	0xbda2d67a	-0.079510644
35	0xbd19cee7	-0.037550833
36	0xbd84d16e	-0.06485258
37	0x3dbc2e71	0.091885455
38	0x3d4ef1ae	0.050523452
39	0x3ae98986	0.0017817474
40	0x3d970b1f	0.07375168
41	0xbe07f44e	-0.13276789
42	0xbcd31988	-0.02576901
43	0xbd928da3	-0.07155921
44	0xbd9eb021	-0.07748438
45	0xbdac08c1	-0.08400107
46	0xbdb41304	-0.087926894
47	0x3d71714b	0.058945935
48	0x3daa848b	0.08326062
49	0x3db6b107	0.08920484
50	0xbd660be8	-0.0561637
51	0xbce3a2cf	-0.027787594
52	0xbd2c118e	-0.04200893
53	0x3dfa8c45	0.122337855
54	0x3dbbf7d5	0.091781296
55	0xbc3b8d31	-0.011447237
56	0xbdda4cac	-0.10659155
57	0xbda789c6	-0.08180575
58	0xbd452d17	-0.048138704
59	0xbda2cea5	-0.079495706
60	0x3d43cdc8	0.04780367
61	0xbd2aa76c	-0.041663572
62	0x3da840c5	0.08215479
63	0x3d7d5a09	0.061853442
64	0xbd960a38	-0.07326168
65	0x3e25b213	0.16181211
66	0x3e03ec58	0.12883127
67	0xbc4af38e	-0.0123871695
68	0x3df66d82	0.12032606
69	0x3dac0c5a	0.084007934
70	0xbda7aba4	-0.08187035
71	0xbd519502	-0.051167496
72	0xbce360fa	-0.027756203
73	0xbd85f11a	-0.06540127
74	0x3de24f3f	0.11050271
75	0x3dca6247	0.09882026
76	0x3cfbadad	0.030722464
77	0x3dabf514	0.08396354
78	0x3e0e2e8e	0.13884947
79	0xbe0b56f4	-0.13607389
80	0xbd1602d0	-0.036623776
81	0x3cbe8602	0.02325726
82	0xbd9cf52a	-0.07663949
83	0xbd8a764b	-0.06760844
84	0x39332d89	0.00017087733
85	0x3d6b614f	0.057465848
86	0x3d6247c7	0.055244233
87	0x3dae519b	0.08511659
88	0xbc66b2b9	-0.014080697
89	0xbdae1478	-0.08499998
90	0xbccdaebf	-0.02510774
91	0x3d653957	0.055962887
92	0x3d76cf85	0.0602565
93	0x3e103078	0.1408099
94	0x39d4537e	0.00040497998
95	0x3c8dd67e	0.017314192
96	0xbd4fe73e	-0.05075764
97	0x3b01934c	0.0019771634
98	0x3d84991c	0.06474516
99	0xbdb6de97	-0.089291744
100	0xbdbca6f5	-0.09211532
101	0x3e0b86ac	0.13625592
102	0xbe70d983	-0.23520474
103	0xbc4e29dc	-0.012583222
104	0xbc93254a	-0.017962117
105	0xbb18ab76	-0.0023295558
106	0xbdc7333c	-0.09726569
107	0xbdf27e0f	-0.1184045
108	0x3e46c552	0.19411209
109	0x3d935bfb	0.07195278
110	0xbd259e05	-0.040433902
111	0x3d1b6a83	0.037943374
112	0xbd368acd	-0.044565964
113	0x3e1ad32d	0.1511962
114	0xbdbe1948	-0.09282166
115	0x3d97cf58	0.074125946
116	0x3cfa7d64	0.030577369
117	0xbd71b1df	-0.05900752
118	0x3dbb71d6	0.09152572
119	0xbcfe2b70	-0.031026572
120	0x3dbcdbc2	0.09221603
121	0xbdf9934a	-0.12186296
122	0x3d2a806e	0.041626386
123	0xbda8cfb5	-0.08242742
124	0xbd50915c	-0.050919876
125	0xbd4cb18b	-0.049974006
126	0x3da45e09	0.08025748
127	0x3dac1922	0.08403231
128	0xbcdad689	-0.026713626
129	0xbd8c218e	-0.068423375
130	0xbcf71cfb	-0.030165186
131	0xbdfc5630	-0.123211265
132	0xbdc8ea94	-0.09810367
133	0x3de332bd	0.11093662
134	0xbdd5f33c	-0.10446784
135	0xbc1af384	-0.009457473
136	0x3dcfe92d	0.101518966
137	0xbdae1f8c	-0.08502111
138	0x3d8c384e	0.06846677
139	0xbd51e612	-0.051244803
140	0x3dec1440	0.115273
141	0x3bacda59	0.0052750525
142	0x3c94b760	0.018153846
143	0xbdbf13dc	-0.0932996
144	0xbd957d42	-0.07299282
145	0xbdcb2e0f	-0.09920894
146	0xbdcb48a6	-0.09925966
147	0x3dee3b49	0.116324015
148	0x3c233aa4	0.0099627115
149	0x3dac93aa	0.08426602
150	0xbe161955	-0.14658101
151	0xbd83f6d2	-0.064435616
152	0x3d7d4523	0.061833512
153	0xbd80415e	-0.06262468
154	0xbcaefddf	-0.02136129
155	0xbdbc5e0d	-0.09197626
156	0x3c917f80	0.017760992
157	0x3daed6ec	0.08537087
158	0xbca7245b	-0.020403078
159	0x3db170d9	0.08664102
160	0x3d8fc953	0.070208214
161	0xbd9e6152	-0.07733406
162	0xbb9cf8e8	-0.004790414
163	0x3d121776	0.035666905
164	0xbd7570f7	-0.059922185
165	0x3db295a1	0.08719946
166	0x3c35ef44	0.011104409
167	0xbdec97fa	-0.11552425
168	0xbd6c1528	-0.057637364
169	0x3ccbf9d2	0.024899397
170	0x3d0f5070	0.03498882
171	0xbd2df934	-0.042473987
172	0x3d05ca39	0.032663558
173	0x3d1d28ab	0.038368862
174	0xbddc5fea	-0.10760482
175	0x3dad7b75	0.08470813
176	0x3c301c34	0.010748912
177	0xbcc339f4	-0.023831345
178	0xbd282360	-0.04104936
179	0xbdd78f42	-0.10525371
180	0xbde82c75	-0.113366045
181	0x3cd19d05	0.025587568
182	0xbdfb3626	-0.12266187
183	0xbd910702	-0.07081415
184	0xbdef86f0	-0.11695659
185	0xbdd425e6	-0.10358791
186	0xbd939886	-0.07206826
187	0x3e090bb0	0.13383365
188	0x3dbc87f1	0.09205616
189	0x3daa8ab0	0.08327234
190	0x3dac46cf	0.08411943
191	0x3cf44ea6	0.029822659
192	0x3db17f06	0.08666806
193	0x3e06be82	0.1315861
194	0x3dc03d2d	0.09386668
195	0xbe5ee57e	-0.21767232
196	0x3cb65779	0.022258507
197	0xbb99e5be	-0.004696577
198	0xbd569eec	-0.052397653
199	0x3e20024e	0.15625879
200	0x3c44a38a	0.012001881
201	0x3e0ef437	0.13960348
202	0x3e0a5aae	0.13511154
203	0x3e03c1a4	0.12866837
204	0x3e0280a3	0.12744384
205	0xbccec873	-0.025242066
206	0x3b8dc127	0.004326004
207	0xbda6b8b3	-0.08140697
208	0x3d5cd014	0.053909376
209	0xbc82d9dc	-0.015973024
210	0x3ceeef41	0.02916682
211	0xbe2231c8	-0.15839303
212	0x3cb09f4e	0.021560337
213	0xbc4cfdfd	-0.012511727
214	0xbd428c56	-0.047497116
215	0x3e26c03f	0.16284274
216	0xbd219812	-0.039451666
217	0x3d1c8475	0.03821226
218	0x3db28779	0.087172456
219	0xbdba3455	-0.09092013
220	0xbc219de9	-0.009864309
221	0x3d2842ac	0.04107921
222	0x3e232730	0.15932918
223	0x3db2b37d	0.08725641
224	0xbd59b8d8	-0.053154796
225	0x3dceb65a	0.100933746
226	0x3d76d0d0	0.060257733
227	0x3d4579e8	0.048211962
228	0x3d968aab	0.073506676
229	0x3d8a44be	0.06751393
230	0xbd874fa3	-0.066069864
231	0x3dc92f80	0.09823513
232	0xbc573488	-0.013135083
233	0x3d8acadc	0.067769736
234	0x3c874550	0.016512543
235	0xbe7c27c0	-0.24624538
236	0x3e3ce4b1	0.18446614
237	0x3df96bc9	0.121787615
238	0x3debc58f	0.11512291
239	0x3d61ee8a	0.05515913
240	0xbe0edf02	-0.13952258
241	0x3e3f092d	0.18655844
242	0x3d5980b0	0.05310124
243	0x3d71b705	0.05901243
244	0xbd9789d3	-0.07399335
245	0xbd38f463	-0.04515494
246	0xbdaf732b	-0.085668884
247	0xbde2459e	-0.11048435
248	0x3d9d0cb0	0.076684356
249	0xbd940fc1	-0.07229567
250	0x3dbe2b0c	0.09285554
251	0xbd817af6	-0.06322281
252	0x3d0befa3	0.034164082
253	0x3d20bccd	0.039242554
254	0x3d283058	0.04106173
255	0x3d9f9a39	0.077930875

fc1.bias f4 [50]
0	0xbc279aa2	-0.010229738
1	0x3f3c3eca	0.7353331
2	0x3d4c79af	0.049920734
3	0x3f33aa13	0.7018139
4	0xbf2b3e06	-0.66891515
5	0xbd66a740	-0.056311846
6	0x3dc99ef6	0.098447725
7	0x3f002aed	0.500655
8	0x3f11c576	0.56941926
9	0xbf454959	-0.77065045
10	0x3f0fa0fa	0.56105006
11	0x3f388b9a	0.72088015
12	0xbd6bee7f	-0.057600494
13	0x3f08708b	0.53296727
14	0xbf2e0cda	-0.6798836
15	0xbf2f27a9	-0.6841989
16	0x3f3d5506	0.7395786
17	0xbf0bbbfc	-0.54583716
18	0x3deb61b8	0.11493248
19	0xbd785511	-0.060628
20	0x3def7bbf	0.116935246
21	0xbc9ce418	-0.019151732
22	0x3d70b519	0.05876646
23	0x3f32d177	0.6985087
24	0x3f2c7ffc	0.6738279
25	0xbf33bc80	-0.70209503
26	0xbdcdbe74	-0.10046092
27	0x3de8b8ce	0.11363374
28	0xbda0aea8	-0.07845813
29	0x3d29f248	0.041490823
30	0x3cc8b3d7	0.024499817
31	0xbbc12120	-0.0058938414
32	0x3f18b832	0.5965606
33	0x3aa55480	0.0012613684
34	0x3dd44bdd	0.10366032
35	0xbd8da86e	-0.06916891
36	0x3f0b395f	0.54384416
37	0x3d0685cc	0.032842442
38	0x3f0adbfe	0.5424193
39	0x3b324e40	0.0027207285
40	0x3c53f7d3	0.012937504
41	0x3eeb3ee3	0.45946416
42	0x3f394c21	0.7238179
43	0xbe13ae65	-0.14421995
44	0xbe0084c4	-0.12550646
45	0x3f394832	0.72375786
46	0x3f1929cb	0.59829396
47	0xbf33f64c	-0.70297694
48	0x3f1d4e90	0.61448
49	0x3dd55c5c	0.10418007

fc2.weight f4 [1, 50]
0	0xbc2c5d78	-0.010520332
1	0x3e2fbdc5	0.17162235
2	0xbe228d4a	-0.1587421
3	0x3db8d8cd	0.090257265
4	0xbde8baf3	-0.11363783
5	0xbdd26d80	-0.10274792
6	0xbd43aada	-0.04777036
7	0x3e25b9de	0.16184184
8	0x3dcc30de	0.09970258
9	0xbe5efcba	-0.21776095
10	0x3da4313a	0.08017202
11	0x3e0aaafe	0.13541791
12	0x3dec2d83	0.11532118
13	0x3da0ac9c	0.078454226
14	0xbe133583	-0.14375882
15	0xbe606cad	-0.21916457
16	0x3dab2a87	0.08357721
17	0xbe290efb	-0.16509621
18	0x3d0944bc	0.033512816
19	0x3d2d8ff2	0.042373605
20	0x3dc2c05c	0.09509346
21	0xbe345a8b	-0.17612664
22	0xbe17d594	-0.14827567
23	0x3d952309	0.07282073
24	0x3e06c169	0.13159718
25	0xbdce57ca	-0.10075338
26	0xbcb271c0	-0.021782756
27	0x3d7ed4fc	0.062214836
28	0xbdce163b	-0.10062834
29	0xbe09ea6e	-0.13468334
30	0x3dab0ae5	0.08351687
31	0xbe0a2d3d	-0.1349382
32	0x3e2b2279	0.16712369
33	0x3c6a5fda	0.014305079
34	0x3d34a860	0.044105887
35	0xbd93fdd8	-0.07226151
36	0x3e06f2f9	0.13178624
37	0xbb9a6d71	-0.0047127535
38	0x3da5966d	0.08085332
39	0x3db3e542	0.08783962
40	0xbd9d2150	-0.076723695
41	0x3e022d38	0.12712562
42	0x3d9d918e	0.07693778
43	0xbd7fe159	-0.062470768
44	0xbb974bee	-0.004617206
45	0x3e404daf	0.18779634
46	0x3e434f56	0.19073233
47	0xbe157f4d	-0.14599343
48	0x3dfba6e7	0.122876935
49	0xbd78a4d4	-0.060704067
