output/checkpoints/model100.pt (torch, 16479 bytes, 5 tensors)

conv1d.weight f4 [64, 3, 1]
0	0xbf00e36d	-0.50347024
1	0xbe02d6e7	-0.12777291
2	0x3eb014f6	0.34390992
3	0xbdbcabfa	-0.092124894
4	0x3e7953f3	0.2434843
5	0x3e4b2856	0.19839606
6	0x3eaf7ed6	0.34276456
7	0x3e0026c1	0.12514783
8	0x3dd7b86b	0.10533222
9	0xbd2cdb84	-0.042201534
10	0x3e70014b	0.23437993
11	0xbeaa8431	-0.3330398
12	0x3df6c3c7	0.1204906
13	0x3f05b74f	0.5223283
14	0x3ddd3141	0.1080041
15	0xbe2bfdf9	-0.16796102
16	0x3ee07ffa	0.43847638
17	0x3e9d100e	0.3067631
18	0x3e53a0ae	0.20666763
19	0x3eea8549	0.45804814
20	0xbef1bd5f	-0.4721479
21	0x3eb23b10	0.34810686
22	0xbecf07e3	-0.40435705
23	0xbeaff0b8	-0.3436334
24	0x3ee8aa65	0.454425
25	0xbeea893e	-0.45807832
26	0xbde39d2a	-0.11113961
27	0x3ea8cb82	0.32967764
28	0x3e19c696	0.15017161
29	0xbd8b8368	-0.06812173
30	0x3ec23821	0.37933448
31	0xbf04e1d7	-0.51907104
32	0x3ecd3368	0.40078282
33	0x3c6f0ea9	0.014590898
34	0x3e83b202	0.25721747
35	0xbd974f95	-0.07388226
36	0x3f025ab7	0.5091967
37	0xbe0698a1	-0.13144161
38	0xbdfacda3	-0.12246253
39	0x3e94a0e5	0.29029003
40	0xbe2509c9	-0.16117014
41	0xbeb5a214	-0.35475218
42	0xbe144ff9	-0.14483632
43	0xbdca3f9b	-0.09875413
44	0x3e9db869	0.30804756
45	0xbea09bec	-0.3136896
46	0x3f0b204d	0.5434616
47	0xbe280e50	-0.1641171
48	0xbef06402	-0.469513
49	0xbdcb65f5	-0.09931556
50	0xbd747c73	-0.059688997
51	0x3eb9ea47	0.36311552
52	0x3f05c901	0.5225983
53	0x3f15574e	0.5833634
54	0xbda43652	-0.08018173
55	0x3eda70d5	0.4266421
56	0xbdac497e	-0.08412455
57	0x3d121a4b	0.035669606
58	0x3e38f3e6	0.1806179
59	0xbecf422a	-0.40480167
60	0x3f1266e4	0.5718825
61	0xbe84c3bb	-0.2593058
62	0xbefb9d89	-0.49143627
63	0x3eafe41a	0.34353715
64	0x3ea0fbc8	0.31442094
65	0x3ec9a177	0.39381
66	0xbed46bd8	-0.41488528
67	0x3e993e0e	0.29930156
68	0x3ee3efc9	0.4451888
69	0x3e416c99	0.18889083
70	0x3d5cf7f5	0.053947408
71	0xbec3eb72	-0.38265568
72	0x3ed59c5e	0.4172086
73	0xbef95568	-0.48697972
74	0x3ebca05a	0.3684109
75	0x3e949da7	0.2902653
76	0x3e69074f	0.22756694
77	0x3e81006f	0.25195643
78	0xbd7edc66	-0.062221907
79	0xbf127c69	-0.57221085
80	0x3eb2a011	0.34887746
81	0x3ea888bf	0.3291683
82	0x3eb4f9fd	0.35346976
83	0xbf03d25b	-0.5149285
84	0xbe89582e	-0.26825088
85	0xbdc66a4f	-0.096882455
86	0xbe9de268	-0.30836797
87	0xbe5d33be	-0.2160177
88	0x3ebda925	0.3704311
89	0x3e2241be	0.15845391
90	0x3f1156e3	0.56773204
91	0xbe313a65	-0.17307432
92	0x3f160d76	0.5861429
93	0x3e092d12	0.13396099
94	0xbe371583	-0.178793
95	0x3eb76e5e	0.3582639
96	0x3f0e7581	0.55648047
97	0x3f041d36	0.5160707
98	0xbf0838f7	-0.5321192
99	0xbd37049e	-0.044682138
100	0xbe4453d2	-0.191726
101	0x3ea22a29	0.3167279
102	0x3ee5ee33	0.44908294
103	0x3dab0949	0.083513804
104	0x3ea83f3e	0.3286075
105	0x3e700606	0.23439798
106	0xbef33380	-0.4750023
107	0xbe48cbf3	-0.1960905
108	0x3e52dfa2	0.20593122
109	0xbeaf8566	-0.34281462
110	0xbee82e2a	-0.4534772
111	0x3e84037c	0.25783908
112	0x3eeedc61	0.4665251
113	0x3f090739	0.53526646
114	0x3d28ec54	0.041241005
115	0x3d81ffd3	0.06347623
116	0xbd86c8b0	-0.06581247
117	0x3eda2bc5	0.42611519
118	0x3edfc358	0.43703723
119	0x3cac2e3b	0.021018138
120	0xbf0a4190	-0.5400629
121	0x3e36bb26	0.17844829
122	0xbe2a6d8c	-0.16643351
123	0x3f02bcc5	0.5106929
124	0xbd5db419	-0.054126833
125	0x3e5e7123	0.21722846
126	0xbef316b8	-0.4747827
127	0xbebb80e2	-0.36621767
128	0xbe489cd7	-0.1959108
129	0xbecf5f74	-0.40502512
130	0x3e93682c	0.28790414
131	0xbde5ac04	-0.1121445
132	0xbf0bfb9c	-0.546808
133	0xbeb05386	-0.34438723
134	0x3e9b2a2d	0.30305615
135	0x3e040729	0.12893356
136	0x3d04232d	0.03226011
137	0x3eb3d4c0	0.35123253
138	0xbeecc2d6	-0.46242398
139	0x3dc05844	0.09391835
140	0xbed4e6be	-0.41582292
141	0x3f0d58f5	0.5521386
142	0xbe550c6a	-0.20805517
143	0xbe95a2f4	-0.29225886
144	0x3e5bfef0	0.2148397
145	0xbe218ab5	-0.15775569
146	0xbdb77959	-0.08958692
147	0xbec9b860	-0.3939848
148	0xbea4ad3e	-0.32163423
149	0x3e3711e8	0.17877924
150	0xbf0aa6d1	-0.5416079
151	0xbddd75ab	-0.10813459
152	0xbe1f7b73	-0.15574436
153	0xbedd59f2	-0.43232685
154	0x3e548742	0.20754722
155	0x3e81a085	0.2531778
156	0x3e2e2963	0.17007975
157	0xbe5e3317	-0.21699177
158	0x3ed2157c	0.41032016
159	0x3f000845	0.5001262
160	0xbeac34e4	-0.33634102
161	0xbef9811e	-0.4873132
162	0x3ef1576a	0.47137004
163	0xbebda9f0	-0.37043715
164	0x3e04d236	0.12970814
165	0xbf13fcad	-0.5780743
166	0xbf05a55d	-0.5220545
167	0x3dd0f76e	0.102034435
168	0xbee1b9d1	-0.4408708
169	0xbe1da160	-0.15393591
170	0xbed069ee	-0.40705818
171	0xbd68c96e	-0.056832723
172	0x3f0dd114	0.5539715
173	0x3ce75b1f	0.028241692
174	0xbe37db88	-0.17954838
175	0x3f05c1d9	0.52248913
176	0xbeb72916	-0.35773534
177	0x3dc7c902	0.09755136
178	0xbe98c7e6	-0.2984001
179	0xbe6abc0c	-0.22923297
180	0x3ecdeb05	0.40218368
181	0x3f0e3264	0.5554564
182	0xbdb62b0a	-0.08894928
183	0xbe7562b3	-0.23963432
184	0xbe809c20	-0.25119114
185	0x3e8c223d	0.27369872
186	0xbe3e52e3	-0.18586306
187	0x3e90e04b	0.28296122
188	0x3ef87746	0.48528498
189	0x3ddd1a11	0.107959874
190	0xbe5ffa3f	-0.21872805
191	0xbe8ee9f5	-0.2791287

conv1d.bias f4 [64]
0	0x3ecec432	0.4038406
1	0x3f703a79	0.9383922
2	0x3f81ab67	1.0130433
3	0xbe972805	-0.2952272
4	0x3e8d5590	0.27604342
5	0x3f299a49	0.66251045
6	0xbf29a96c	-0.6627414
7	0x3ef95e8f	0.48704955
8	0x3e8c47bf	0.27398488
9	0x3f0f7f5e	0.5605372
10	0x3f452dc7	0.77022976
11	0x3f51b593	0.81917685
12	0x3ed6dff9	0.41967753
13	0x3dc66537	0.09687274
14	0x3f641db2	0.8910781
15	0xbe2ea2cb	-0.17054288
16	0xbedba758	-0.4290111
17	0x3f80f1b6	1.0073764
18	0xbef27681	-0.47356036
19	0xbe918edd	-0.2842931
20	0xbf0c41ec	-0.5478809
21	0x3f2e5c6a	0.6810976
22	0x3f17687f	0.59143823
23	0x3e8d4d7f	0.27598187
24	0x3e43db44	0.19126612
25	0xbdab9534	-0.083780676
26	0xbede8c28	-0.43466306
27	0xbe4960ee	-0.19665882
28	0x3f073932	0.5282165
29	0x3e264670	0.16237807
30	0x3f84489d	1.033466
31	0x3e8d7333	0.27626953
32	0xbf84e5f4	-1.0382676
33	0x3f94e388	1.1631937
34	0x3f0f955b	0.56087273
35	0x3e96dffc	0.29467762
36	0x3e1ea219	0.15491523
37	0x3f943966	1.1580017
38	0xbf329f3a	-0.6977421
39	0x3f596580	0.849205
40	0xbeb5a275	-0.35475507
41	0x3f5aed0f	0.8551797
42	0x3e45a601	0.19301607
43	0x3d9f572a	0.07780297
44	0x3e3330cc	0.17499083
45	0x3d802812	0.06257643
46	0x3b093be0	0.002094023
47	0xbe76a215	-0.24085267
48	0xbee2f3a3	-0.44326505
49	0xbeef1ece	-0.4670319
50	0xbeb41ca7	-0.3517811
51	0x3f5534d2	0.8328372
52	0x3dc11a37	0.09428828
53	0x3dda3324	0.106542856
54	0x3f272d02	0.6530305
55	0xbea0c1ab	-0.31397757
56	0xbd9de5c5	-0.07709841
57	0xbf84f5be	-1.0387495
58	0x3f27f134	0.6560242
59	0xbe358776	-0.17727455
60	0xbf3fc98e	-0.74916923
61	0x3e3586d3	0.17727213
62	0x3e78993d	0.24277206
63	0x3e11de38	0.14244926

fc1.weight f4 [50, 64]
0	0xbddd4d71	-0.108057864
1	0x3c903e42	0.017607812
2	0xbda5a4e9	-0.08088095
3	0xbd54297d	-0.05179738
4	0xbd887332	-0.06662597
5	0x3d433f29	0.047667656
6	0x3def4e0c	0.11684808
7	0x3cfc050f	0.03076413
8	0x3d83cece	0.06435929
9	0xbde052ee	-0.109533176
10	0x3cca8591	0.024721893
11	0x3da5591a	0.080736354
12	0x3d9fd339	0.078039594
13	0x3d3e64e0	0.04648292
14	0x3dc5e8ac	0.09663519
15	0x3d0fd24e	0.03511267
16	0xbcb76560	-0.022387207
17	0x3cc002f7	0.023438914
18	0xbdfc7f4b	-0.12328967
19	0x3c8bab9f	0.017049609
20	0x3c7f66ed	0.015588504
21	0xbd2fd62d	-0.042928863
22	0x3d93f504	0.072244674
23	0xbcd7ea09	-0.026356714
24	0xbd0226e2	-0.031775363
25	0xbe0fb091	-0.14032198
26	0x3d8bf276	0.06833355
27	0xbd9ce0a3	-0.076600336
28	0x3defc0a4	0.11706665
29	0xbd97a8b0	-0.074052215
30	0x3d1e1446	0.038593553
31	0xbdbb874c	-0.09156665
32	0xbd9a3dc6	-0.075313136
33	0x3dda247c	0.1065149
34	0xbda22ff2	-0.07919301
35	0xbd19cee7	-0.037550833
36	0xbd84d16e	-0.06485258
37	0x3dbcd4f9	0.09220309
38	0x3d4ef1ae	0.050523452
39	0x3b09962d	0.0020994053
40	0x3d970b1f	0.07375168
41	0xbe07a10e	-0.13245031
42	0xbcd31988	-0.02576901
43	0xbd928da3	-0.07155921
44	0xbd9e0999	-0.07716674
45	0xbdab6239	-0.08368344
46	0xbdb41304	-0.087926894
47	0x3d71714b	0.058945935
48	0x3daa848b	0.08326062
49	0x3db7578f	0.08952247
50	0xbd660be8	-0.0561637
51	0xbce108a5	-0.027469942
52	0xbd2ac478	-0.041691273
53	0x3dfa8c45	0.122337855
54	0x3dbc9e5d	0.09209893
55	0xbc3658d6	-0.011129579
56	0xbdda4cac	-0.10659155
57	0xbda789c6	-0.08180575
58	0xbd452d17	-0.048138704
59	0xbda2cea5	-0.079495706
60	0x3d43cdc8	0.04780367
61	0xbd295a56	-0.041345917
62	0x3da8e74d	0.08247242
63	0x3d7d5a09	0.061853442
64	0xbd8d7cbf	-0.06908559
65	0x3e23b3b5	0.15986522
66	0x3e0290c3	0.12750535
67	0x3a3c51b9	0.00071838085
68	0x3df54856	0.119766876
69	0x3daa9b05	0.08330349
70	0xbda71f45	-0.08160261
71	0xbd85907b	-0.06521698
72	0xbc07c99f	-0.008287816
73	0xbd8826f4	-0.06648055
74	0x3de70d64	0.11281851
75	0x3dc1161c	0.09428045
76	0x3cf03a9c	0.029324822
77	0x3dbb013a	0.09131093
78	0x3e15a693	0.14614324
79	0xbe0d9a81	-0.1382847
80	0xbd1602d0	-0.036623776
81	0x3cbb5503	0.022867685
82	0xbd9e19c9	-0.07719762
83	0xbd3ecca8	-0.046581894
84	0xbc2ad52f	-0.0104268035
85	0x3d6a2428	0.057163388
86	0x3d65501f	0.055984613
87	0x3d229420	0.039692044
88	0xbc2da09d	-0.010597375
89	0xbdad8b22	-0.08473803
90	0xbd0875de	-0.033315532
91	0x3d5b38bd	0.053520907
92	0x3d42c440	0.04755044
93	0x3e0fc548	0.140401
94	0x39dae6b6	0.00041752093
95	0x3c99756b	0.018732747
96	0xbd527b9d	-0.051387418
97	0x3b9fce05	0.0048768544
98	0x3d846f2b	0.06466516
99	0xbdaabc00	-0.083366394
100	0xbdc1adb3	-0.094569586
101	0x3e0aee21	0.13567401
102	0xbe612095	-0.21985085
103	0xbc5e6325	-0.013573443
104	0xbcef9b41	-0.029248836
105	0xbb356ada	-0.0027682097
106	0xbdc7333c	-0.09726569
107	0xbda2eb2c	-0.07955012
108	0x3e3cbb6c	0.18430871
109	0x3d9502cd	0.07275925
110	0xbd59a92d	-0.053139854
111	0x3d283ef8	0.041075677
112	0xbcffa855	-0.031208197
113	0x3e169ba4	0.1470781
114	0xbdbe1948	-0.09282166
115	0x3d9f0c13	0.07765975
116	0x3d0532d4	0.032519177
117	0xbd50a857	-0.05094179
118	0x3dbf4dc2	0.09341003
119	0xbcde13da	-0.027109075
120	0x3dbcdbc2	0.09221603
121	0xbdf739d5	-0.120715775
122	0x3d360742	0.044440515
123	0xbd820698	-0.06348914
124	0xbd4ebc87	-0.050472762
125	0xbd6afb04	-0.057368293
126	0x3da5aea4	0.08089951
127	0x3da7c62b	0.081920944
128	0xbcdad689	-0.026713626
129	0xbd6e9d09	-0.05825523
130	0xbcefa3cd	-0.029252911
131	0xbdfc5630	-0.123211265
132	0xbdc23e78	-0.09484571
133	0x3de16b85	0.11006836
134	0xbdd23789	-0.10264499
135	0xbb9130ee	-0.0044308817
136	0x3dc9bdf6	0.09850685
137	0xbdad3ff3	-0.08459463
138	0x3d8693aa	0.065711334
139	0xbd1e2fa9	-0.03861967
140	0x3de961b1	0.11395586
141	0x3c0cbaea	0.008589486
142	0x3bf9473c	0.0076073688
143	0xbdbf13dc	-0.0932996
144	0xbd957d42	-0.07299282
145	0xbdc8997a	-0.09794898
146	0xbdd30f6a	-0.103056744
147	0x3de0289e	0.10945247
148	0x3bca29b1	0.006169521
149	0x3dae1423	0.084999345
150	0xbe08d0dc	-0.13360924
151	0xbd627782	-0.055289753
152	0x3d70160b	0.05861477
153	0xbd812bd4	-0.06307188
154	0xbcce3314	-0.02517084
155	0xbdc02044	-0.09381154
156	0x3c917f80	0.017760992
157	0x3d960eea	0.073270634
158	0xbcadd4f7	-0.021219714
159	0x3dab7562	0.08371998
160	0x3d895331	0.067053206
161	0xbdaef60e	-0.08543025
162	0xbba5e315	-0.0050624707
163	0x3d1c9b21	0.03823388
164	0xbd6c669d	-0.057715047
165	0x3db64f20	0.08901811
166	0x3b76d47d	0.0037663274
167	0xbde9ffea	-0.11425765
168	0xbd6c1528	-0.057637364
169	0x3cc8a603	0.024493223
170	0x3d0f5070	0.03498882
171	0xbd2df934	-0.042473987
172	0x3d05ca39	0.032663558
173	0x3d17e830	0.037086666
174	0xbddc5fea	-0.10760482
175	0x3da75056	0.0816962
176	0x3ba60d32	0.005067491
177	0xbcc339f4	-0.023831345
178	0xbd282360	-0.04104936
179	0xbdd78f42	-0.10525371
180	0xbdef3b04	-0.11681178
181	0x3cc8c590	0.024508268
182	0xbdfed4f8	-0.12442964
183	0xbd910702	-0.07081415
184	0xbdef86f0	-0.11695659
185	0xbdb767ae	-0.08955322
186	0xbd939886	-0.07206826
187	0x3de82f17	0.11337107
188	0x3dba90c4	0.09109643
189	0x3daa8ab0	0.08327234
190	0x3d9bf64c	0.07615337
191	0x3ccb7f7c	0.024841063
192	0x3dba15e7	0.09086209
193	0x3e04e29e	0.12977073
194	0x3dbdcff7	0.09268182
195	0xbe517be8	-0.20457423
196	0x3cb2eea4	0.021842308
197	0xbbac5894	-0.005259583
198	0xbd55056a	-0.052007116
199	0x3e119e34	0.14220506
200	0x3d00da1d	0.03145801
201	0x3e0dfa5e	0.13865039
202	0x3e0cd9f1	0.13755013
203	0x3dfe8156	0.124270126
204	0x3e013365	0.12617262
205	0xbc92900c	-0.017890953
206	0x3c4059e7	0.011740184
207	0xbdaafe57	-0.08349293
208	0x3d5cd014	0.053909376
209	0xbc84e4a9	-0.016222315
210	0x3ceb8c5c	0.028753452
211	0xbe0ca88a	-0.13736168
212	0x3c33c4af	0.010972186
213	0xbc4fa83e	-0.012674389
214	0xbd3ef1a5	-0.04661717
215	0x3df07d02	0.11742593
216	0xbd12cd76	-0.035840474
217	0x3d1e2649	0.03861073
218	0x3da1ccba	0.079003766
219	0xbdbefc78	-0.09325498
220	0xbcb8e560	-0.022570312
221	0x3d272831	0.040809814
222	0x3e234ee4	0.15948063
223	0x3db5e328	0.08881217
224	0xbd5bbeb0	-0.05364865
225	0x3dd4e338	0.10394901
226	0x3d770d4b	0.06031541
227	0x3d5db953	0.054131817
228	0x3d918323	0.071050905
229	0x3d895eb2	0.06707515
230	0xbd4f2f82	-0.050582416
231	0x3dc77086	0.09738259
232	0xbcc80fa6	-0.024421524
233	0x3d8a2c86	0.067467734
234	0x3c874550	0.016512543
235	0xbe54627d	-0.20740695
236	0x3e32db91	0.1746657
237	0x3dfb5d47	0.122736506
238	0x3dd1c077	0.10241788
239	0x3d6ef9f8	0.058343858
240	0xbe012bdb	-0.12614386
241	0x3e3acfe0	0.1824336
242	0x3d5980b0	0.05310124
243	0x3d804d8d	0.06264792
244	0xbd93478d	-0.071913816
245	0xbd17fa55	-0.03710397
246	0xbdab5632	-0.0836605
247	0xbdda4155	-0.10656992
248	0x3d9d0cb0	0.076684356
249	0xbd9168f1	-0.07100094
250	0x3dc40a9d	0.09572337
251	0xbd355eaa	-0.04427973
252	0x3d0e5740	0.034751177
253	0x3d028b7b	0.0318713
254	0x3d2b65ec	0.041845247
255	0x3d9b48a7	0.07582217

fc1.bias f4 [50]
0	0xbc226647	-0.00991208
1	0x3f2f0f6c	0.68382907
2	0x3d5b42b9	0.05353043
3	0x3f267f50	0.65038013
4	0xbf2089f6	-0.6271051
5	0xbd66a740	-0.056311846
6	0x3dc7e156	0.09759776
7	0x3ee93c94	0.4555403
8	0x3f049cbc	0.5180166
9	0xbf311edb	-0.69187707
10	0x3f027721	0.50963026
11	0x3f2b5d7f	0.6693954
12	0xbd95f274	-0.07321635
13	0x3ef68c81	0.4815407
14	0xbf237f56	-0.63866174
15	0xbf2119f8	-0.6293025
16	0x3f302940	0.6881294
17	0xbefeeb63	-0.4978896
18	0x3dd79ad2	0.105275765
19	0xbd785511	-0.060628
20	0x3dcddfde	0.10052465
21	0xbb88b1ce	-0.0041715866
22	0x3d6b6567	0.05746975
23	0x3f25a90a	0.6471106
24	0x3f1f51c6	0.6223415
25	0xbf24bded	-0.64352304
26	0xbdcdbe74	-0.10046092
27	0x3de8b8ce	0.11363374
28	0xbda0aea8	-0.07845813
29	0x3d29f248	0.041490823
30	0x3cc8b3d7	0.024499817
31	0xbbc12120	-0.0058938414
32	0x3f0b8846	0.5450481
33	0x3aa55480	0.0012613684
34	0x3dc15448	0.094399035
35	0xbd8da86e	-0.06916891
36	0x3efc1630	0.49235678
37	0x3d0685cc	0.032842442
38	0x3efb60ef	0.49097392
39	0x3b324e40	0.0027207285
40	0x3c9ae492	0.018907819
41	0x3ed786aa	0.42094928
42	0x3f2c224b	0.67239827
43	0xbe07cd59	-0.13261928
44	0xbe0084c4	-0.12550646
45	0x3f2c18eb	0.6722552
46	0x3f0bf887	0.546761
47	0xbf214e8d	-0.63010484
48	0x3f1020e2	0.56300175
49	0x3dd6e20b	0.10492333

fc2.weight f4 [1, 50]
0	0xbc3191cc	-0.010837983
1	0x3e2e1029	0.16998352
2	0xbdfe1724	-0.124067575
3	0x3db5635a	0.088568404
4	0xbde32141	-0.11090327
5	0xbdd26d80	-0.10274792
6	0xbd20f8bd	-0.039299715
7	0x3e24a5c9	0.16078867
8	0x3dc90b89	0.09816653
9	0xbe403488	-0.18770039
10	0x3da1cae6	0.07900028
11	0x3e08b0d2	0.13348702
12	0x3dbeef63	0.09323003
13	0x3d9e1a24	0.0771983
14	0xbe129d36	-0.14317784
15	0xbe5b8116	-0.21435961
16	0x3da7f66c	0.08201298
17	0xbe282252	-0.16419342
18	0x3d00dff0	0.031463563
19	0x3d2d8ff2	0.042373605
20	0x3d9cacaa	0.076501206
21	0xbe20899e	-0.15677497
22	0xbe0d4d80	-0.13799095
23	0x3d928403	0.071540855
24	0x3e05b226	0.1305624
25	0xbdcc1b10	-0.09966099
26	0xbcb271c0	-0.021782756
27	0x3d7ed4fc	0.062214836
28	0xbdce163b	-0.10062834
29	0xbe09ea6e	-0.13468334
30	0x3dab0ae5	0.08351687
31	0xbe0a2d3d	-0.1349382
32	0x3e29e2b9	0.16590394
33	0x3c6a5fda	0.014305079
34	0x3cf527f3	0.029926276
35	0xbd93fdd8	-0.07226151
36	0x3e05816f	0.13037656
37	0xbb9a6d71	-0.0047127535
38	0x3da54177	0.08069127
39	0x3db3e542	0.08783962
40	0xbda084df	-0.07837843
41	0x3e011ed4	0.12609416
42	0x3d9ae081	0.07562352
43	0xbd361f49	-0.04446343
44	0xbb974bee	-0.004617206
45	0x3e3e5192	0.18585804
46	0x3e4179e6	0.18894157
47	0xbe06c044	-0.13159281
48	0x3df72a30	0.120685935
49	0xbd320d3e	-0.04346966
