output/checkpoints/model160.pt (torch, 16479 bytes, 5 tensors)

conv1d.weight f4 [64, 3, 1]
0	0xbf00dd2a	-0.5033747
1	0xbe037275	-0.1283663
2	0x3eb0f607	0.34562704
3	0xbdbf79ba	-0.093493894
4	0x3e78589a	0.24252549
5	0x3e461016	0.19342074
6	0x3eae5a47	0.3405325
7	0x3dffeaea	0.12495978
8	0x3dd13708	0.102155745
9	0xbd0dc582	-0.034612186
10	0x3e6f6061	0.2337661
11	0xbeab3d23	-0.3344508
12	0x3df47242	0.119358554
13	0x3f0589af	0.52163213
14	0x3dd9748d	0.106179334
15	0xbe2e9b4b	-0.17051427
16	0x3ee011d6	0.43763608
17	0x3e9b76e6	0.3036415
18	0x3e54010c	0.20703524
19	0x3eea7bd1	0.4579759
20	0xbef17340	-0.4715824
21	0x3eb2e827	0.34942743
22	0xbecd9614	-0.40153563
23	0xbeb3c806	-0.35113543
24	0x3ee79740	0.45232582
25	0xbeebe05b	-0.46069607
26	0xbdd4ef3b	-0.10397192
27	0x3ea60f5e	0.324336
28	0x3e16e511	0.1473582
29	0xbd9cc639	-0.076549955
30	0x3ec1a3c8	0.37820268
31	0xbf04fd5a	-0.51949084
32	0x3ecd089d	0.40045634
33	0x3c52d387	0.012867815
34	0x3e843b46	0.25826472
35	0xbd98eb95	-0.07466809
36	0x3efef204	0.49794018
37	0xbe15f4d7	-0.1464418
38	0xbe10b457	-0.14131294
39	0x3e96bc06	0.29440325
40	0xbe27dea1	-0.1639352
41	0xbeae67ce	-0.34063572
42	0xbe1635e6	-0.14668998
43	0xbdc84444	-0.09778646
44	0x3e9df2b8	0.30849242
45	0xbe9ef696	-0.31047505
46	0x3f0bf045	0.546635
47	0xbe283f23	-0.16430335
48	0xbef06402	-0.469513
49	0xbdcb65f5	-0.09931556
50	0xbd747c73	-0.059688997
51	0x3eb90ab3	0.36140975
52	0x3f0550c6	0.52076375
53	0x3f144d39	0.5793033
54	0xbda55ff2	-0.08074941
55	0x3eda4696	0.42631978
56	0xbdab8064	-0.08374098
57	0x3d2dbdb0	0.04241723
58	0x3e3e7daa	0.18602625
59	0xbecc432b	-0.39894995
60	0x3f10de9a	0.56589663
61	0xbe84dcca	-0.259497
62	0xbefb5d39	-0.4909456
63	0x3ea5920f	0.32337996
64	0x3e9a75e0	0.30168056
65	0x3ebdc8c7	0.37067243
66	0xbed45246	-0.4146902
67	0x3e994d12	0.29941612
68	0x3ee35f99	0.44408873
69	0x3e442158	0.19153345
70	0x3d70a180	0.05874777
71	0xbecbc973	-0.3980213
72	0x3ed1e7aa	0.40997058
73	0xbefba467	-0.49148867
74	0x3eb91595	0.36149278
75	0x3e936bc3	0.28793153
76	0x3e5feee3	0.21868472
77	0x3e7f5501	0.2493477
78	0xbd80d646	-0.062908694
79	0xbf1372d8	-0.5759711
80	0x3eb46411	0.35232595
81	0x3ea89e1c	0.32933128
82	0x3eb684e1	0.35648254
83	0xbf031230	-0.51199627
84	0xbe7f2df4	-0.24919873
85	0xbd9f626f	-0.077824466
86	0xbe942149	-0.28931645
87	0xbe65bbe8	-0.22434962
88	0x3ebc1ab3	0.3673912
89	0x3e1d4a11	0.15360285
90	0x3f110ac4	0.5665705
91	0xbe3169f2	-0.17325571
92	0x3f157acd	0.58390504
93	0x3e0580fa	0.13037482
94	0xbe38bd7a	-0.1804103
95	0x3eb509d8	0.35359073
96	0x3f0e321c	0.5554521
97	0x3f03bf78	0.51464033
98	0xbf080cae	-0.5314435
99	0xbd34bc00	-0.044124603
100	0xbe4539e1	-0.1926036
101	0x3ea23f75	0.3168904
102	0x3ee525e4	0.4475547
103	0x3daa20a0	0.08307004
104	0x3ea6e04c	0.32593
105	0x3e73935e	0.23786685
106	0xbef37b44	-0.47554982
107	0xbe510420	-0.2041173
108	0x3e4ad65c	0.19808334
109	0xbeae8f76	-0.34093827
110	0xbeecd443	-0.46255693
111	0x3e82f7da	0.2557972
112	0x3eeef154	0.46668494
113	0x3f086767	0.5328278
114	0x3d24ddec	0.040250704
115	0x3d82531b	0.06363507
116	0xbd831f9a	-0.06402512
117	0x3ed986ee	0.42485756
118	0x3ede8d45	0.43467155
119	0x3c86f1fe	0.016472813
120	0xbf05a070	-0.52197933
121	0x3e411c5b	0.18858473
122	0xbe2df832	-0.1698921
123	0x3f01e4a1	0.50739485
124	0xbd60982f	-0.054832634
125	0x3e5b43e3	0.21412615
126	0xbef316b8	-0.4747827
127	0xbebb80e2	-0.36621767
128	0xbe489cd7	-0.1959108
129	0xbed4e62a	-0.4158185
130	0x3e947555	0.28995767
131	0xbde7a461	-0.1131065
132	0xbf0cc26b	-0.5498416
133	0xbeb1d22a	-0.34730655
134	0x3e9be9e4	0.30451882
135	0x3e006763	0.12539439
136	0x3cff7fc5	0.031188855
137	0x3eb26025	0.34838977
138	0xbee3018c	-0.44337118
139	0x3de76024	0.11297634
140	0xbecb2588	-0.39677072
141	0x3f0dcbb1	0.55388933
142	0xbe5a45e0	-0.21315718
143	0xbe92d101	-0.28675082
144	0x3e599493	0.21248083
145	0xbe22b775	-0.15890296
146	0xbdabcb49	-0.08388383
147	0xbec9da95	-0.39424577
148	0xbea42c23	-0.32064924
149	0x3e3580d8	0.17724931
150	0xbf0aa6d1	-0.5416079
151	0xbddd75ab	-0.10813459
152	0xbe1f7b73	-0.15574436
153	0xbedd9620	-0.432786
154	0x3e51df9e	0.2049546
155	0x3e835bda	0.25656015
156	0x3e2daff1	0.16961648
157	0xbe601e13	-0.21886472
158	0x3ed0b392	0.40762
159	0x3eff96e1	0.499198
160	0xbead3d38	-0.3383577
161	0xbef72bc2	-0.48275572
162	0x3ef15e6e	0.47142357
163	0xbebe070f	-0.3711476
164	0x3e0462f8	0.12928379
165	0xbf13e144	-0.57765603
166	0xbf0560e1	-0.5210095
167	0x3dd5fc98	0.10448569
168	0xbee1b9d1	-0.4408708
169	0xbe1da160	-0.15393591
170	0xbed069ee	-0.40705818
171	0xbd6ebf90	-0.058288157
172	0x3f0d5d96	0.55220926
173	0x3ce39a8a	0.02778365
174	0xbe3976d8	-0.18111742
175	0x3f0563be	0.5210532
176	0xbeb674d3	-0.35636005
177	0x3dce36e1	0.10069061
178	0xbe99161d	-0.29899684
179	0xbe6ff5f4	-0.23433667
180	0x3ecda6f9	0.40166453
181	0x3f0dbd61	0.55367094
182	0xbdb5a3aa	-0.08869107
183	0xbe690432	-0.22755507
184	0xbe889722	-0.26677805
185	0x3e8d3ea8	0.27586865
186	0xbe447333	-0.1918457
187	0x3e8f82c6	0.2802946
188	0x3ef72bd8	0.48275638
189	0x3ddfdb41	0.10930491
190	0xbe74ffd8	-0.23925722
191	0xbe8f44f8	-0.27982306

conv1d.bias f4 [64]
0	0x3ed3445e	0.41263098
1	0x3f7edb0f	0.99553007
2	0x3f8998c5	1.0749747
3	0xbeadfc3d	-0.33981505
4	0x3eb6804a	0.35644752
5	0x3f38fabc	0.7225759
6	0xbf3bc319	-0.7334457
7	0x3f06748b	0.5252158
8	0x3e664429	0.22486939
9	0x3f1a8daa	0.6037241
10	0x3f56bedd	0.83884984
11	0x3f61928c	0.8811424
12	0x3ee6327b	0.4496039
13	0x3d7f27a4	0.062293664
14	0x3f6e200a	0.9301764
15	0xbe75094e	-0.2392933
16	0xbedba758	-0.4290111
17	0x3f899606	1.0748909
18	0xbf0f195d	-0.55898076
19	0xbea7ebda	-0.32797128
20	0xbf1de77c	-0.6168134
21	0x3f2a5adc	0.6654489
22	0x3f2ba141	0.6704293
23	0x3eb9e593	0.36307964
24	0x3e728226	0.2368246
25	0xbe08bbb3	-0.13352852
26	0xbed258b5	-0.41083303
27	0xbe8424ae	-0.25809234
28	0x3f0c19b6	0.5472673
29	0x3e613d69	0.21996082
30	0x3f8cad6a	1.0990422
31	0x3ea7f2a0	0.32802296
32	0xbf8e44fc	-1.1114802
33	0x3f9cc6b0	1.2248135
34	0x3f213410	0.62970066
35	0x3e8fad0f	0.2806172
36	0x3e2f2413	0.17103605
37	0x3f9c807c	1.222671
38	0xbf485c67	-0.78265995
39	0x3f6cee28	0.925509
40	0xbeb50b1d	-0.3536004
41	0x3f6b710f	0.9196939
42	0x3e45a601	0.19301607
43	0x3d8a7eff	0.06762504
44	0x3e412aea	0.18864027
45	0x3e08ad5a	0.13347378
46	0x3cad49b3	0.021153307
47	0xbea9ecfe	-0.33188623
48	0xbf038f27	-0.5139031
49	0xbef12d81	-0.4710503
50	0xbeb41ca7	-0.3517811
51	0x3f550c41	0.8322182
52	0x3e300670	0.17189956
53	0x3dad4d8e	0.08462058
54	0x3f3d5103	0.7395174
55	0xbea09425	-0.31363025
56	0xbd9de5c5	-0.07709841
57	0xbf8e1770	-1.1100903
58	0x3f3e88e6	0.7442764
59	0xbe4e3ce4	-0.20140415
60	0xbf51af36	-0.81907976
61	0x3e470e5d	0.19439073
62	0x3e9e824e	0.3095879
63	0x3e1430b2	0.14471701

fc1.weight f4 [50, 64]
0	0xbdddf3f9	-0.1083755
1	0x3c8da418	0.01729016
2	0xbda64b71	-0.08119858
3	0xbd54297d	-0.05179738
4	0xbd8919ba	-0.0669436
5	0x3d41f213	0.04735
6	0x3def4e0c	0.11684808
7	0x3cfc050f	0.03076413
8	0x3d83cece	0.06435929
9	0xbde052ee	-0.109533176
10	0x3cc7eb67	0.02440424
11	0x3da4b293	0.08041873
12	0x3d9fd339	0.078039594
13	0x3d3e64e0	0.04648292
14	0x3dc54224	0.09631756
15	0x3d0fd24e	0.03511267
16	0xbcb76560	-0.022387207
17	0x3cbd68cd	0.023121262
18	0xbdfc7f4b	-0.12328967
19	0x3c8bab9f	0.017049609
20	0x3c7f66ed	0.015588504
21	0xbd312343	-0.04324652
22	0x3d934e7c	0.07192704
23	0xbcd7ea09	-0.026356714
24	0xbd0373f8	-0.03209302
25	0xbe1003d1	-0.14063956
26	0x3d8b4bee	0.06801592
27	0xbd9ce0a3	-0.076600336
28	0x3defc0a4	0.11706665
29	0xbd984f38	-0.07436985
30	0x3d1cc730	0.038275898
31	0xbdbc2dd4	-0.091884285
32	0xbd9a3dc6	-0.075313136
33	0x3dd97df4	0.10619727
34	0xbda2d67a	-0.079510644
35	0xbd19cee7	-0.037550833
36	0xbd84d16e	-0.06485258
37	0x3dbc2e71	0.091885455
38	0x3d4ef1ae	0.050523452
39	0x3ae98986	0.0017817474
40	0x3d970b1f	0.07375168
41	0xbe07f44e	-0.13276789
42	0xbcd31988	-0.02576901
43	0xbd928da3	-0.07155921
44	0xbd9eb021	-0.07748438
45	0xbdac08c1	-0.08400107
46	0xbdb41304	-0.087926894
47	0x3d71714b	0.058945935
48	0x3daa848b	0.08326062
49	0x3db6b107	0.08920484
50	0xbd660be8	-0.0561637
51	0xbce3a2cf	-0.027787594
52	0xbd2c118e	-0.04200893
53	0x3dfa8c45	0.122337855
54	0x3dbbf7d5	0.091781296
55	0xbc3b8d31	-0.011447237
56	0xbdda4cac	-0.10659155
57	0xbda789c6	-0.08180575
58	0xbd452d17	-0.048138704
59	0xbda2cea5	-0.079495706
60	0x3d43cdc8	0.04780367
61	0xbd2aa76c	-0.041663572
62	0x3da840c5	0.08215479
63	0x3d7d5a09	0.061853442
64	0xbd9a7b46	-0.07543044
65	0x3e26563e	0.16243836
66	0x3e0463c9	0.1292869
67	0xbc80cd83	-0.015722996
68	0x3df6e01e	0.12054466
69	0x3dac94c7	0.084268145
70	0xbda8aa4b	-0.08235606
71	0xbd3441bf	-0.044008013
72	0xbd0d80a0	-0.034546494
73	0xbd85716f	-0.06515776
74	0x3de164a2	0.11005522
75	0x3dccd3e4	0.100013524
76	0x3d007f5c	0.03137146
77	0x3da305cc	0.0796009
78	0x3e09e7f7	0.13467394
79	0xbe0a6c52	-0.13517883
80	0xbd1602d0	-0.036623776
81	0x3cc07a54	0.02349583
82	0xbd9c7589	-0.076396056
83	0xbd974bb4	-0.07387486
84	0x3ba64caf	0.0050750594
85	0x3d6c392b	0.057671707
86	0x3d610508	0.05493644
87	0x3dd53efd	0.10412405
88	0xbc743df9	-0.014907354
89	0xbdadf796	-0.08494489
90	0xbcb07df3	-0.021544432
91	0x3d6773ab	0.056506794
92	0x3d886a64	0.066609174
93	0x3e105679	0.14095487
94	0x3a142085	0.0005650598
95	0x3c8beed3	0.017081654
96	0xbd4f65c0	-0.050634146
97	0xb7752153	-1.4610897e-05
98	0x3d84e6a6	0.06489305
99	0xbdbd939e	-0.09256671
100	0xbdb5b924	-0.088732034
101	0x3e0bd504	0.13655478
102	0xbe75b128	-0.23993361
103	0xbc48e96f	-0.012262686
104	0xbc48023a	-0.012207562
105	0xbb09ee96	-0.002104675
106	0xbdc7333c	-0.09726569
107	0xbe05c5e0	-0.13063765
108	0x3e4a9623	0.19783835
109	0x3d9334a3	0.07187774
110	0xbd0b989b	-0.034081083
111	0x3d170937	0.036874022
112	0xbd4810b0	-0.04884404
113	0x3e1b3b36	0.15159306
114	0xbdbe1948	-0.09282166
115	0x3d933dc0	0.07189512
116	0x3cf796a4	0.030223198
117	0xbd81b376	-0.063330576
118	0x3dba45c9	0.09095342
119	0xbd07bee8	-0.033141047
120	0x3dbcdbc2	0.09221603
121	0xbdfa2ce6	-0.12215595
122	0x3d224069	0.039612208
123	0xbdbd3fee	-0.09240709
124	0xbd511734	-0.05104752
125	0xbd3dc699	-0.046331976
126	0x3da425de	0.08015035
127	0x3daa31b9	0.08310265
128	0xbcdad689	-0.026713626
129	0xbd946ca7	-0.07247286
130	0xbcfb409a	-0.030670453
131	0xbdfc5630	-0.123211265
132	0xbdcc3f56	-0.09973018
133	0x3de61c55	0.11235873
134	0xbdd7963f	-0.10526704
135	0xbc4594c6	-0.012059396
136	0x3dd2d707	0.102949195
137	0xbdaec2cd	-0.08533249
138	0x3d8f03b4	0.06983128
139	0xbd6b8a53	-0.057504963
140	0x3ded3cb7	0.11583846
141	0x3b8483aa	0.004044016
142	0x3cc177b0	0.023616642
143	0xbdbf13dc	-0.0932996
144	0xbd957d42	-0.07299282
145	0xbdcc585b	-0.0997779
146	0xbdc6fd8b	-0.09716328
147	0x3df4aa69	0.11946566
148	0x3c41c59a	0.011826897
149	0x3dabe0e9	0.083925076
150	0xbe1c9a55	-0.15293248
151	0xbd8d2b64	-0.06893042
152	0x3d81e066	0.06341629
153	0xbd7f7e36	-0.062376224
154	0xbc9f3c7a	-0.019438017
155	0xbdbaae83	-0.09115317
156	0x3c917f80	0.017760992
157	0x3dbc9f4b	0.0921007
158	0xbca3cd38	-0.019995317
159	0x3db4b00c	0.08822641
160	0x3d92d9a9	0.07170422
161	0xbd951d81	-0.07281018
162	0xbb998a6b	-0.00468569
163	0x3d0fde4b	0.035124104
164	0xbd802d4b	-0.06258639
165	0x3db0e930	0.08638227
166	0x3c736593	0.01485576
167	0xbdee064c	-0.11622295
168	0xbd6c1528	-0.057637364
169	0x3ccd2b14	0.025044955
170	0x3d0f5070	0.03498882
171	0xbd2df934	-0.042473987
172	0x3d05ca39	0.032663558
173	0x3d202928	0.03910175
174	0xbddc5fea	-0.10760482
175	0x3db06ab0	0.08614099
176	0x3c5e8315	0.013581057
177	0xbcc339f4	-0.023831345
178	0xbd282360	-0.04104936
179	0xbdd78f42	-0.10525371
180	0xbde47ce5	-0.11156634
181	0x3cd5c91e	0.026096877
182	0xbdf998d4	-0.12187353
183	0xbd910702	-0.07081415
184	0xbdef86f0	-0.11695659
185	0xbde1d945	-0.11027769
186	0xbd939886	-0.07206826
187	0x3e13fe07	0.14452372
188	0x3dbd64f4	0.09247771
189	0x3daa8ab0	0.08327234
190	0x3db77e2c	0.08959612
191	0x3d075000	0.03303528
192	0x3dad08cb	0.08448943
193	0x3e075202	0.13214877
194	0x3dc107d1	0.09425319
195	0xbe624e6d	-0.2210023
196	0x3cb788e1	0.022404136
197	0xbb93a7dd	-0.004506095
198	0xbd58de32	-0.052946277
199	0x3e2758ec	0.16342515
200	0x3bab00cf	0.0052186023
201	0x3e0f2234	0.13977891
202	0x3e09d561	0.13460304
203	0x3e04ea09	0.12979902
204	0x3e031a21	0.12802936
205	0xbcf2879e	-0.029605683
206	0x38bbf3a3	8.962236e-05
207	0xbda506f9	-0.080579706
208	0x3d5cd014	0.053909376
209	0xbc817b91	-0.015805991
210	0x3cf04bf9	0.029333102
211	0xbe289edf	-0.16466855
212	0x3cd8c148	0.026459351
213	0xbc4ad05a	-0.012378776
214	0xbd44192f	-0.04787558
215	0x3e3a3513	0.18184309
216	0xbd253e68	-0.04034272
217	0x3d1c776c	0.038199827
218	0x3db9c891	0.09071458
219	0xbdb93606	-0.09043507
220	0xbb661e3d	-0.0035113238
221	0x3d289233	0.04115505
222	0x3e233eb2	0.15941885
223	0x3db21553	0.086954735
224	0xbd598080	-0.053101063
225	0x3dca8500	0.09888649
226	0x3d7722b8	0.060335845
227	0x3d381057	0.044937458
228	0x3d9d78cf	0.07689058
229	0x3d8ab984	0.067736655
230	0xbd9124c4	-0.070870906
231	0x3dc9b1f5	0.09848396
232	0xbbf1d969	-0.0073806536
233	0x3d8b1cb7	0.06792586
234	0x3c874550	0.016512543
235	0xbe845619	-0.25846937
236	0x3e40b4cc	0.18818969
237	0x3df91ef3	0.12164106
238	0x3df8c81b	0.12147542
239	0x3d5d6ec5	0.054060716
240	0xbe1345ac	-0.14382046
241	0x3e3f7222	0.18695882
242	0x3d5980b0	0.05310124
243	0x3d685cf9	0.05672929
244	0xbd9867f8	-0.074417055
245	0xbd4aa322	-0.04947198
246	0xbdb0bf5e	-0.086302504
247	0xbde69939	-0.11259694
248	0x3d9d0cb0	0.076684356
249	0xbd94d04e	-0.072662935
250	0x3db9fef5	0.09081832
251	0xbd95ec1c	-0.07320425
252	0x3d0b1f28	0.03396526
253	0x3d2f9b24	0.042872563
254	0x3d277549	0.040883336
255	0x3d9db265	0.07700042

fc1.bias f4 [50]
0	0xbc279aa2	-0.010229738
1	0x3f3ff039	0.74975926
2	0x3d475c76	0.048672162
3	0x3f3758a9	0.7161966
4	0xbf2dcc43	-0.67889804
5	0xbd66a740	-0.056311846
6	0x3dce05fd	0.10059736
7	0x3f032a83	0.5123674
8	0x3f157557	0.5838217
9	0xbf4cd141	-0.80006796
10	0x3f134f03	0.5754244
11	0x3f3c3c0a	0.7352911
12	0xbd5441ac	-0.051820442
13	0x3f0c1ee7	0.54734653
14	0xbf306085	-0.6889728
15	0xbf33b2b8	-0.7019458
16	0x3f410400	0.7539673
17	0xbf0f33a4	-0.5593817
18	0x3df6486e	0.120255336
19	0xbd785511	-0.060628
20	0x3e04f86e	0.12985393
21	0xbccb52a6	-0.024819683
22	0x3d7398a9	0.05947176
23	0x3f367eb6	0.71287096
24	0x3f303059	0.6882377
25	0xbf384c9b	-0.7199189
26	0xbdcdbe74	-0.10046092
27	0x3de8b8ce	0.11363374
28	0xbda0aea8	-0.07845813
29	0x3d29f248	0.041490823
30	0x3cc8b3d7	0.024499817
31	0xbbc12120	-0.0058938414
32	0x3f1c69d2	0.6109897
33	0x3aa55480	0.0012613684
34	0x3ddd8968	0.10817224
35	0xbd8da86e	-0.06916891
36	0x3f0ee9fe	0.55825794
37	0x3d0685cc	0.032842442
38	0x3f0e8ad9	0.55680615
39	0x3b324e40	0.0027207285
40	0x3c145632	0.009053754
41	0x3eef4cd5	0.46738306
42	0x3f3cfa0b	0.73819035
43	0xbe183c14	-0.14866668
44	0xbe0084c4	-0.12550646
45	0x3f3cf997	0.73818344
46	0x3f1cdcbd	0.6127432
47	0xbf3a7eb8	-0.7284961
48	0x3f20fec6	0.62888753
49	0x3dd3be9d	0.10339091

fc2.weight f4 [1, 50]
0	0xbc2c5d78	-0.010520332
1	0x3e304374	0.17213231
2	0xbe341d74	-0.1758936
3	0x3dba1884	0.09086707
4	0xbde872b6	-0.113500044
5	0xbdd26d80	-0.10274792
6	0xbd74b060	-0.059738517
7	0x3e23edd1	0.16008689
8	0x3dcd3897	0.10020559
9	0xbe6ab397	-0.2292007
10	0x3da50702	0.08057977
11	0x3e0b5e68	0.13610232
12	0x3e03da08	0.12876141
13	0x3da1cafb	0.079000436
14	0xbe13320a	-0.14374557
15	0xbe60f433	-0.21968155
16	0x3dac1a27	0.08403426
17	0xbe2852d1	-0.16437842
18	0x3d1211c7	0.035661485
19	0x3d2d8ff2	0.042373605
20	0x3dd9029e	0.10596202
21	0xbe3e3fc3	-0.1857901
22	0xbe1d0747	-0.15334807
23	0x3d960ea9	0.07327015
24	0x3e070c23	0.13188224
25	0xbdca5bf9	-0.09880824
26	0xbcb271c0	-0.021782756
27	0x3d7ed4fc	0.062214836
28	0xbdce163b	-0.10062834
29	0xbe09ea6e	-0.13468334
30	0x3dab0ae5	0.08351687
31	0xbe0a2d3d	-0.1349382
32	0x3e2b9811	0.16757227
33	0x3c6a5fda	0.014305079
34	0x3d507e4a	0.05090169
35	0xbd93fdd8	-0.07226151
36	0x3e07838c	0.13233775
37	0xbb9a6d71	-0.0047127535
38	0x3da5a571	0.08088196
39	0x3db3e542	0.08783962
40	0xbd9cdfc6	-0.07659869
41	0x3e01b531	0.12666775
42	0x3d9eac40	0.07747698
43	0xbd8d4398	-0.06897658
44	0xbb974bee	-0.004617206
45	0x3e40dd1a	0.18834344
46	0x3e43ad87	0.19109164
47	0xbe1951f5	-0.1497267
48	0x3dfd22f1	0.1236018
49	0xbd8abe1d	-0.067745425
