output/checkpoints/model80.pt (torch, 16279 bytes, 5 tensors)

conv1d.weight f4 [64, 3, 1]
000000 2a 5a 01 bf 00 f1 00 be ad a3 af 3e 62 6d bb bd
       -0.50528204 -0.12591934 0.34304562 -0.091517225
000010 31 57 79 3e de c5 4d 3e 8a f5 af 3e d8 08 00 3e
       0.24349667 0.20095012 0.3436702 0.12503374
000020 ba b0 db 3d 6c 38 2a bd 6e 17 6f 3e 73 44 aa be
       0.10727067 -0.041557714 0.23348781 -0.33255348
000030 4b 91 f7 3d 69 c1 05 3f 02 e2 df 3d 39 1b 2b be
       0.12088259 0.52248245 0.109317794 -0.16709603
000040 db a3 e0 3e d6 00 9e 3e fe 30 55 3e dd 3e eb 3e
       0.43875012 0.30860013 0.2081947 0.45946398
000050 09 0e f1 be 1d 46 b2 3e ad 3a d0 be e2 89 ad be
       -0.4708102 0.34819117 -0.40669766 -0.3389426
000060 e1 6f e1 3e 20 80 f1 be 71 e3 05 be 96 cd a9 3e
       0.4403067 -0.47168064 -0.13075043 0.33164662
000070 6b 77 1a 3e ec 3c 84 bd 7c 51 c2 3e 2b 0a 05 bf
       0.15084617 -0.064569324 0.37952793 -0.5196864
000080 ca 87 cd 3e e7 51 7a 3c eb 70 83 3e 7e f5 95 bd
       0.4014266 0.015278316 0.25672087 -0.073222145
000090 7c 2b 03 3f e9 bd 03 be 22 2b f1 bd 6b 86 94 3e
       0.51238227 -0.12865414 -0.11775805 0.29008803
0000a0 11 2b 24 be b1 05 b8 be f0 57 13 be 43 ad ca bd
       -0.16032054 -0.35941842 -0.14389014 -0.09896328
0000b0 41 17 9e 3e 4f cb a0 be 58 c9 0a 3f 9f 39 28 be
       0.30877116 -0.31405112 0.54213476 -0.1642823
0000c0 02 64 f0 be f5 65 cb bd 73 7c 74 bd 97 40 ba 3e
       -0.469513 -0.09931556 -0.059688997 0.36377403
0000d0 92 d7 05 3f ce da 15 3f 1b 13 a3 bd cb 38 da 3e
       0.5228206 0.58536994 -0.079626285 0.42621455
0000e0 71 ac ad bd fb 18 16 3d 99 fc 36 3e 07 bb ce be
       -0.08480156 0.036644917 0.17869796 -0.40377066
0000f0 97 df 12 3f 60 27 84 be fd b5 fc be 61 fa b2 3e
       0.5737242 -0.2581129 -0.49357596 0.3495665
000100 bb 4a a2 3e 01 ac cd 3e ff 74 d4 be c8 58 99 3e
       0.3169764 0.4017029 -0.4149551 0.29950547
000110 90 68 e4 3e d7 bf 3d 3e 16 45 4f 3d 95 fe c1 be
       0.44611025 0.18530212 0.050602995 -0.37889543
000120 85 b0 d6 3e 19 29 f9 be 65 e7 bd 3e f9 aa 94 3e
       0.4193155 -0.48664168 0.37090603 0.29036692
000130 77 7b 6c 3e 25 1a 81 3e 4a c8 77 bd 1f 34 12 bf
       0.23093973 0.2521526 -0.060493745 -0.5711078
000140 f6 fc b1 3e 32 d8 a8 3e ee 66 b4 3e 4d 1a 04 bf
       0.34763306 0.32977444 0.3523478 -0.5160263
000150 a2 98 8c be ef 6c d3 bd d4 22 a1 be d5 41 5b be
       -0.274602 -0.10323512 -0.31471884 -0.21411832
000160 43 23 be 3e 35 55 24 3e 32 77 11 3f f5 3c 31 be
       0.37136278 0.16048129 0.568225 -0.1730841
000170 da 79 16 3f d0 5d 0a 3e 60 ef 36 be 6a a3 b8 3e
       0.5877968 0.13512349 -0.17864752 0.36062175
000180 d5 8d 0e 3f f0 31 04 3f bc 82 08 bf bc 14 38 bd
       0.5568517 0.516387 -0.53324485 -0.04494165
000190 ad 82 44 be d9 5b a2 3e d5 35 e6 3e c1 1c ab 3d
       -0.19190474 0.317107 0.44962946 0.08355094
0001a0 2e 2b a9 3e 19 db 6d 3e b3 bc f4 be 51 09 44 be
       0.33040756 0.2322811 -0.47800216 -0.19144179
0001b0 af a8 54 3e 63 07 b1 be 90 ec e6 be 08 6e 84 3e
       0.20767473 -0.34575948 -0.45102358 0.25865197
0001c0 f1 c9 ee 3e 6b 6e 09 3f 55 0e 2b 3d 23 78 81 3d
       0.46638444 0.5368411 0.041761715 0.063217424
0001d0 b3 e3 88 bd 60 80 da 3e 19 10 e0 3e 62 5d c1 3c
       -0.06684055 0.42676067 0.43762282 0.023604099
0001e0 d6 e1 0b bf 56 a0 31 3e 20 01 2c be 3e 12 03 3f
       -0.54641473 0.1734632 -0.16797304 0.5119971
0001f0 7c fc 5b bd 3d 82 60 3e b8 16 f3 be e2 80 bb be
       -0.053707585 0.21924682 -0.4747827 -0.36621767
000200 d7 9c 48 be c4 d6 cb be 52 10 93 3e d0 30 e3 bd
       -0.1959108 -0.3981229 0.2872339 -0.110932946
000210 25 67 0b bf 3e c7 af be c2 08 9b 3e e1 23 05 3e
       -0.5445426 -0.34331697 0.3028012 0.13001968
000220 51 44 06 3d ed bb b4 3e 56 03 f0 be a4 55 b3 3d
       0.032779995 0.35299626 -0.46877545 0.08756569
000230 3e 27 d8 be d8 40 0d 3f a2 de 52 be 61 be 96 be
       -0.4221744 0.5517707 -0.2059274 -0.29442123
000240 87 cb 5c 3e fc 84 1f be c8 8b be bd 55 5e c9 be
       0.21562015 -0.15578073 -0.09304005 -0.39329782
000250 34 ae a4 be c2 10 37 3e d1 a6 0a bf ab 75 dd bd
       -0.32164156 0.17877486 -0.5416079 -0.10813459
000260 73 7b 1f be 6f 66 dd be 02 66 55 3e ea 50 81 3e
       -0.15574436 -0.43242213 0.20839694 0.25257045
000270 b4 54 2e 3e 19 11 5e be ba ec d2 3e 8a 12 00 3f
       0.17024499 -0.2168621 0.41196233 0.5002829
000280 b7 06 ab be df 0c fb be db de f0 3e d0 3c be be
       -0.3340356 -0.49033257 0.47045025 -0.3715577
000290 e5 9a 04 3e 39 04 14 bf 26 b8 05 bf d3 8d cf 3d
       0.12949713 -0.57818943 -0.52234113 0.10134473
0002a0 d1 b9 e1 be 60 a1 1d be ee 69 d0 be 18 b2 66 bd
       -0.4408708 -0.15393591 -0.40705818 -0.056322187
0002b0 f1 f6 0d 3f eb 06 e1 3c b7 87 37 be 2e eb 05 3f
       0.5545493 0.027469119 -0.17922865 0.5231198
0002c0 88 73 b7 be 1e b3 bd 3d 49 8e 9b be d1 8c 6c be
       -0.3583033 0.092626795 -0.30381992 -0.23100592
0002d0 4c fb cd 3e ff 5b 0e 3f db f6 b7 bd 03 a0 7c be
       0.40230787 0.55609125 -0.08982631 -0.24670415
0002e0 4f e4 7b be 71 3d 8b 3e f2 9e 3c be 6b 74 91 3e
       -0.24598812 0.27195314 -0.18420008 0.28409132
0002f0 3d 3c f9 3e 38 6e da 3d 79 1b 5b be 21 44 90 be
       0.4867877 0.10665554 -0.21397199 -0.28176978

conv1d.bias f4 [64]
000000 f7 5b cb 3e af 87 65 3f f5 2b 78 3f 44 f6 8d be
       0.397186 0.8966016 0.96942073 -0.27726948
000010 77 09 68 3e 15 3f 1e 3f 4a 32 1d bf 57 d1 f2 3e
       0.2265986 0.61815006 -0.6140486 0.4742534
000020 03 6a 90 3e 7d e9 05 3f 03 57 39 3f 6d 67 46 3f
       0.2820588 0.523094 0.72398394 0.77501565
000030 07 eb c5 3e 77 85 fa 3d cc 0a 5b 3f d5 c9 00 be
       0.38655874 0.12232488 0.8556335 -0.12576993
000040 58 a7 db be 61 44 76 3f 1e 07 d9 be 73 69 87 be
       -0.4290111 0.9619809 -0.42388242 -0.2644764
000050 2e 18 05 bf 82 46 2a 3f d5 fe 0a 3f d8 ab 74 3e
       -0.5199002 0.66513836 0.5429509 0.23893678
000060 dd d4 1b 3e 5d 73 3f bd 66 43 e3 be 07 56 19 be
       0.1521792 -0.04674088 -0.44387358 -0.14974223
000070 06 99 05 3f 9e d7 f0 3d 52 fd 7c 3f 68 d0 70 3e
       0.5218662 0.11759876 0.98824036 0.23517
000080 97 b3 7d bf c7 4b 8f 3f 32 cd 03 3f 11 d6 97 3e
       -0.9910216 1.1195 0.5148498 0.29655507
000090 57 57 18 3e 7f 7d 8e 3f 8f c6 25 bf 41 2a 4d 3f
       0.14877068 1.1132048 -0.647561 0.801426
0000a0 09 4a b8 be e1 68 4f 3f 01 a6 45 3e 7e 17 b1 3d
       -0.35993984 0.8101941 0.19301607 0.08647059
0000b0 df 14 2e 3e 07 4c 76 3c fb 8f 8b bb e9 15 40 be
       0.17000149 0.015032775 -0.004259107 -0.18758358
0000c0 fc c1 d2 be ca 91 ee be a7 1c b4 be 73 eb 4f 3f
       -0.41163623 -0.46595603 -0.3517811 0.8121864
0000d0 64 36 3c 3d 92 0a f3 3d b7 b8 19 3f f1 cd a0 be
       0.04595031 0.118672505 0.6004748 -0.3140712
0000e0 c5 e5 9d bd da dc 7d bf ea 6c 1b 3f cf 16 31 be
       -0.07709841 -0.9916512 0.60713065 -0.17293857
0000f0 92 ee 33 bf c3 92 2d 3e 7e 90 48 3e 52 2d 0e 3e
       -0.70285904 0.16950516 0.1958637 0.13884476

fc1.weight f4 [50, 64]
000000 71 4d dd bd 42 3e 90 3c e9 a4 a5 bd 7d 29 54 bd
       -0.108057864 0.017607812 -0.08088095 -0.05179738
000010 32 73 88 bd 29 3f 43 3d 0c 4e ef 3d 0f 05 fc 3c
       -0.06662597 0.047667656 0.11684808 0.03076413
000020 ce ce 83 3d ee 52 e0 bd 91 85 ca 3c 1a 59 a5 3d
       0.06435929 -0.109533176 0.024721893 0.080736354
000030 39 d3 9f 3d e0 64 3e 3d ac e8 c5 3d 4e d2 0f 3d
       0.078039594 0.04648292 0.09663519 0.03511267
000040 60 65 b7 bc f7 02 c0 3c 4b 7f fc bd 9f ab 8b 3c
       -0.022387207 0.023438914 -0.12328967 0.017049609
000050 ed 66 7f 3c 2d d6 2f bd 04 f5 93 3d 09 ea d7 bc
       0.015588504 -0.042928863 0.072244674 -0.026356714
000060 e2 26 02 bd 91 b0 0f be 76 f2 8b 3d a3 e0 9c bd
       -0.031775363 -0.14032198 0.06833355 -0.076600336
000070 a4 c0 ef 3d b0 a8 97 bd 46 14 1e 3d 4c 87 bb bd
       0.11706665 -0.074052215 0.038593553 -0.09156665
000080 c6 3d 9a bd 7c 24 da 3d f2 2f a2 bd e7 ce 19 bd
       -0.075313136 0.1065149 -0.07919301 -0.037550833
000090 6e d1 84 bd f9 d4 bc 3d ae f1 4e 3d 2d 96 09 3b
       -0.06485258 0.09220309 0.050523452 0.0020994053
0000a0 1f 0b 97 3d 0e a1 07 be 88 19 d3 bc a3 8d 92 bd
       0.07375168 -0.13245031 -0.02576901 -0.07155921
0000b0 99 09 9e bd 39 62 ab bd 04 13 b4 bd 4b 71 71 3d
       -0.07716674 -0.08368344 -0.087926894 0.058945935
0000c0 8b 84 aa 3d 8f 57 b7 3d e8 0b 66 bd a5 08 e1 bc
       0.08326062 0.08952247 -0.0561637 -0.027469942
0000d0 78 c4 2a bd 45 8c fa 3d 5d 9e bc 3d d6 58 36 bc
       -0.041691273 0.122337855 0.09209893 -0.011129579
0000e0 ac 4c da bd c6 89 a7 bd 17 2d 45 bd a5 ce a2 bd
       -0.10659155 -0.08180575 -0.048138704 -0.079495706
0000f0 c8 cd 43 3d 56 5a 29 bd 4d e7 a8 3d 09 5a 7d 3d
       0.04780367 -0.041345917 0.08247242 0.061853442
000100 d4 64 89 bd 4b 44 22 3e 1d 88 01 3e 54 1b 56 3c
       -0.067086846 0.15846364 0.1264958 0.013068039
000110 f8 bc f4 3d 87 e3 a9 3d 83 51 a7 bd 88 76 95 bd
       0.119501054 0.082953505 -0.08169844 -0.07297999
000120 90 27 5f 3b 4e 32 8a bd ad 08 eb 3d 89 52 b9 3d
       0.003405068 -0.06747876 0.11476264 0.090489455
000130 92 f6 e6 3c b1 97 bd 3d 71 6d 18 3e 89 04 0e be
       0.028193746 0.092574485 0.14885499 -0.13868918
000140 d0 02 16 bd 3b 8d ba 3c ba 5e 9e bd 40 2e f3 bc
       -0.036623776 0.022772422 -0.077329114 -0.02968514
000150 e9 a4 85 bc 20 ea 69 3d c4 13 68 3d 1d 9e 34 3c
       -0.016313987 0.057108045 0.056659475 0.011024025
000160 a5 af fb bb 3f b3 ac bd 6e 6d 18 bd 31 4b 52 3d
       -0.0076808506 -0.08432626 -0.037213735 0.05134124
000170 88 be 28 3d 8e bf 0f 3e 85 8a 20 3a d9 f8 a4 3c
       0.04119733 0.14037916 0.00061241566 0.020138191
000180 1c 82 54 bd 9d cb ab 3b cf a8 84 3d ae 50 a6 bd
       -0.051881894 0.0052427785 0.0647751 -0.08120857
000190 41 18 c3 bd 73 ad 0a 3e 65 66 54 be 93 78 6a bc
       -0.095261104 0.13542728 -0.20742185 -0.014310974
0001a0 4f c5 0e bd ad e2 47 bb 3c 33 c7 bd 27 28 57 bd
       -0.034856137 -0.00305001 -0.09726569 -0.052528527
0001b0 33 7c 36 3e 9e f8 96 3d db ae 73 bd 1f 10 28 3d
       0.17820816 0.07371639 -0.059492927 0.041031
0001c0 fb ad b0 bc f6 55 12 3e 48 19 be bd 02 e2 a0 3d
       -0.021567335 0.14290604 -0.09282166 0.078556076
0001d0 9c fa 0c 3d 22 8e 47 bd e6 a8 c1 3d b3 ea cf bc
       0.034418687 -0.048719533 0.09456043 -0.025380468
0001e0 c2 db bc 3d 2b ce f4 bd 84 7a 36 3d 66 93 5d bd
       0.09221603 -0.11953386 0.044550434 -0.05409565
0001f0 a6 06 4d bd c8 9b 77 bd 63 4c a7 3d bd f5 a4 3d
       -0.05005517 -0.0604513 0.081688665 0.08054683
000200 89 d6 da bc 0a 93 4f bd db 9a e8 bc 30 56 fc bd
       -0.026713626 -0.050677337 -0.028394153 -0.123211265
000210 d7 f4 bd bd 18 45 e5 3d 93 8a d0 bd 75 3d 34 bb
       -0.09275215 0.11194819 -0.10182681 -0.0027502452
000220 f3 82 c6 3d 16 64 ac bd 17 e4 84 3d b1 2e 02 bd
       0.09692945 -0.084175274 0.06488817 -0.03178281
000230 b1 42 e8 3d 20 d8 26 3c 8f d9 47 3b dc 13 bf bd
       0.113408454 0.010183364 0.0030494665 -0.0932996
000240 42 7d 95 bd 40 f9 c5 bd e8 60 d7 bd 84 4b d6 3d
       -0.07299282 -0.09666681 -0.1051653 0.10463622
000250 cf 9a 7c 3b dc fb af 3d 65 ca 01 be 6f 8f 4e bd
       0.0038544422 0.0859296 -0.12674864 -0.050429758
000260 08 49 6b 3d bc 93 80 bd c8 bd dc bc 29 cc c2 bd
       0.057442695 -0.06278178 -0.026945964 -0.09511597
000270 80 7f 91 3c b5 14 8f 3d b5 b2 ac bc d6 45 aa 3d
       0.017760992 0.069863714 -0.021081308 0.083141014
000280 4e df 85 3d b1 c5 b2 bd a5 ce 9b bb ea 30 1d 3d
       0.065367326 -0.08729113 -0.0047548586 0.038376726
000290 ee 82 71 bd e9 ab b9 3d ca ed a0 ba d7 0a e8 bd
       -0.058962755 0.090659924 -0.0012277898 -0.113301925
0002a0 28 15 6c bd af 0f ca 3c 70 50 0f 3d 34 f9 2d bd
       -0.057637364 0.024665682 0.03498882 -0.042473987
0002b0 39 ca 05 3d 01 5b 18 3d ea 5f dc bd 90 14 a4 3d
       0.032663558 0.037196163 -0.10760482 0.080117345
0002c0 d5 b3 03 3b f4 39 c3 bc 60 23 28 bd 42 8f d7 bd
       0.0020096202 -0.023831345 -0.04104936 -0.10525371
0002d0 f0 26 f1 bd b5 81 bf 3c 50 0e 00 be 02 07 91 bd
       -0.11775005 0.023377279 -0.1250546 -0.07081415
0002e0 f0 86 ef bd 4b 26 a8 bd 86 98 93 bd cb cb d3 3d
       -0.11695659 -0.08210429 -0.07206826 0.10341605
0002f0 c1 fc b9 3d b0 8a aa 3d a7 02 99 3d 96 b6 a5 3c
       0.09081412 0.08327234 0.07471209 0.020228665
000300 a1 32 be 3d 97 84 03 3e 5c e1 bb 3d 6b d7 44 be
       0.092870004 0.12843548 0.09173843 -0.192228
000310 a0 50 b1 3c be 8e b5 bb ff 2b 55 bd 74 aa 09 3e
       0.02164489 -0.005540698 -0.05204391 0.13443929
000320 ac b6 30 3d cc 05 0d 3e 4f e7 0e 3e 3b e1 f6 3d
       0.04314296 0.13771743 0.13955425 0.12054678
000330 3d 1a 00 3e 56 2f 88 bc b6 bc 6d 3c b0 b3 ab bd
       0.12510009 -0.016624134 0.014510324 -0.08383882
000340 14 d0 5c 3d b9 1f 85 bc d9 08 eb 3c c9 b4 f6 bd
       0.053909376 -0.016250478 0.028690742 -0.12046201
000350 82 c7 a6 3b 86 76 4f bc 1e e8 3b bd f6 ca b5 3d
       0.005089701 -0.0126625355 -0.04587566 0.08876602
000360 50 9a 06 bd ad 1a 20 3d b7 db 99 3d 57 58 c3 bd
       -0.032862008 0.03908794 0.075126104 -0.09538334
000370 90 f0 ec bc a7 59 27 3d 30 93 23 3e 4f e7 b8 3d
       -0.028923303 0.040856984 0.15974116 0.090284936
000380 2f 81 5d bd 30 c3 d5 3d 70 c4 77 3d d8 8e 66 3d
       -0.054078277 0.1043762 0.06049007 0.05628857
000390 82 18 90 3d dd fe 88 3d 17 04 1c bd f2 10 c6 3d
       0.070359245 0.06689236 -0.038089838 0.09671201
0003a0 5a fe f5 bc c3 bb 89 3d 50 45 87 3c 40 b8 38 be
       -0.03002851 0.06725266 0.016512543 -0.18039036
0003b0 ac 9c 2c 3e eb 75 fd 3d eb bd c4 3d fa e2 6e 3d
       0.1685664 0.12376007 0.096065365 0.05832193
0003c0 50 96 ee bd 87 89 36 3e b0 80 59 3d 28 3e 82 3d
       -0.116497636 0.178259 0.05310124 0.063595116
0003d0 4b 41 8f bd 79 e7 0e bd 50 dd a8 bd e1 b7 d6 bd
       -0.069948755 -0.03488872 -0.08245337 -0.10484291
0003e0 b0 0c 9d 3d 25 d9 8e bd a7 51 c4 3d 2d e3 0e bd
       0.076684356 -0.06975011 0.095858864 -0.03488462
0003f0 24 53 10 3d fb eb eb 3c 9b e8 2e 3d 0e 79 98 3d
       0.03523554 0.028799048 0.0427023 0.07444964

fc1.bias f4 [50]
000000 47 66 22 bc fa 73 23 3f 53 f7 6b 3d 50 e6 1a 3f
       -0.00991208 0.6384884 0.057608914 0.6050768
000010 7d 1b 16 bf 40 a7 66 bd 17 72 c5 3d d0 33 d4 3e
       -0.58635694 -0.056311846 0.096409015 0.4144578
000020 51 0d f2 3e 72 99 22 bf 89 bf ed 3e 04 c3 1f 3f
       0.47275785 -0.6351539 0.46435192 0.62406945
000030 e1 49 a2 bd b3 5d df 3e b2 15 19 bf 47 a2 15 bf
       -0.079242475 0.43626174 -0.5979873 -0.5845074
000040 0b 90 24 3f 31 1a e9 be 02 99 ce 3d 11 55 78 bd
       0.6428229 -0.45527795 0.10087778 -0.060628
000050 24 02 c2 3d 77 be 73 3b f7 8a 6b 3d 78 11 1a 3f
       0.094730645 0.0037192383 0.057505574 0.60182905
000060 56 b7 13 3f a5 5f 18 bf 74 be cd bd ce b8 e8 3d
       0.57701623 -0.5952094 -0.10046092 0.11363374
000070 a8 ae a0 bd 48 f2 29 3d d7 b3 c8 3c 20 21 c1 bb
       -0.07845813 0.041490823 0.024499817 -0.0058938414
000080 67 d9 ff 3e 80 54 a5 3a 89 00 b7 3d 6e a8 8d bd
       0.49970552 0.0012613684 0.08935649 -0.06916891
000090 a8 e3 e4 3e cc 85 06 3d d2 31 e4 3e 40 4e 32 3b
       0.44704938 0.032842442 0.4456926 0.0027207285
0000a0 ea 16 9a 3c 96 0e c4 3e 12 8a 20 3f 97 26 fe bd
       0.018809754 0.38292378 0.6271068 -0.12409704
0000b0 c4 84 00 be 79 7d 20 3f 56 62 00 3f 84 17 13 bf
       -0.12550646 0.62691456 0.5015005 -0.57457757
0000c0 b5 86 04 3f 31 58 d7 3d
       0.51768047 0.10514868

fc2.weight f4 [1, 50]
000000 cc 91 31 bc e7 c0 2c 3e 26 f7 da bd 02 de b2 3d
       -0.010837983 0.16870461 -0.10691671 0.08733751
000010 a2 de da bd 80 6d d2 bd cb d5 09 bd 2c 2f 21 3e
       -0.10686995 -0.10274792 -0.033651154 0.15740651
000020 a1 d1 c6 3d b3 b6 2f be 2f 2b a0 3d 96 57 07 3e
       0.09707952 -0.17159538 0.078207366 0.13217005
000030 f8 22 bb 3d a5 a9 9c 3d 9b cc 11 be d2 15 56 be
       0.09137529 0.076495446 -0.14238207 -0.20906761
000040 95 7c a5 3d cb b5 25 be e3 78 09 3d f2 8f 2d 3d
       0.08080403 -0.1618263 0.033562552 0.042373605
000050 b8 36 91 3d c4 1e 18 be 14 45 09 be bc 8b 90 3d
       0.07090515 -0.14855486 -0.13405257 0.07057902
000060 6c cb 04 3e f9 24 c3 bd c0 71 b2 bc fc d4 7e 3d
       0.12968224 -0.09528536 -0.021782756 0.062214836
000070 3b 16 ce bd 6e ea 09 be e5 0a ab 3d 3d 2d 0a be
       -0.10062834 -0.13468334 0.08351687 -0.1349382
000080 25 07 29 3e da 5f 6a 3c ad ab ba 3c d8 fd 93 bd
       0.16506632 0.014305079 0.02278694 -0.07226151
000090 82 99 04 3e 71 6d 9a bb fd f3 a4 3d 42 e5 b3 3d
       0.12949184 -0.0047127535 0.080543496 0.08783962
0000a0 b4 40 9a bd 10 ad fd 3d 82 3f 99 3d 3d 34 0f bd
       -0.075318724 0.12386525 0.07482816 -0.034961928
0000b0 ee 4b 97 bb 13 be 3c 3e 68 db 3f 3e 93 d0 f3 bd
       -0.004617206 0.18431883 0.1873604 -0.11905017
0000c0 ac f0 f3 3d 37 89 12 bd
       0.11911139 -0.03577539
