output/checkpoints/model180.pt (torch, 16479 bytes, 5 tensors)

conv1d.weight f4 [64, 3, 1]
-0.5039619 -0.12785193 0.34639195 -0.09388949 0.24203396 0.19239417 0.33992222 0.12471866
0.10165308 -0.028841317 0.23380741 -0.33439913 0.11893953 0.5214033 0.10603179 -0.17139073
0.4369886 0.3028703 0.20753308 0.45833787 -0.4712996 0.35013512 -0.40137783 -0.35359448
0.45205274 -0.46002954 -0.1018395 0.32264018 0.14596292 -0.07936113 0.3778165 -0.5199341
0.40069336 0.012367849 0.2583839 -0.07469684 0.4970009 -0.14782675 -0.14184916 0.29480726
-0.16542648 -0.33576095 -0.14725068 -0.097588144 0.30900618 -0.3096708 0.5469806 -0.16510023
-0.469513 -0.09931556 -0.059688997 0.36062384 0.5201101 0.5786024 -0.08082008 0.42594138
-0.08400599 0.044992838 0.18390904 -0.39952132 0.5620369 -0.26321194 -0.49306342 0.31629375
0.29597524 0.3631522 -0.41471034 0.29981065 0.44417623 0.19196299 0.060781386 -0.40245834
0.40718627 -0.49427006 0.3586535 0.28666875 0.21604155 0.24800505 -0.063208856 -0.577348
0.35320157 0.32979953 0.35749018 -0.51104844 -0.24284881 -0.0714718 -0.28296736 -0.22736384
0.36593446 0.15211618 0.5662285 -0.17346323 0.5836723 0.12912223 -0.18135215 0.3524671
0.55515033 0.5141 -0.53174746 -0.04380054 -0.19301052 0.31736657 0.44708216 0.08285165
0.32564652 0.2356078 -0.478802 -0.21005164 0.19700082 -0.3410069 -0.46325245 0.25517935
0.46655613 0.5325094 0.040064853 0.06370322 -0.063688576 0.424285 0.43395555 0.015668295
-0.5163408 0.19095169 -0.1723365 0.5065185 -0.055318363 0.21348953 -0.4747827 -0.36621767
-0.1959108 -0.416963 0.2903698 -0.11352753 -0.550469 -0.3484475 0.30491573 0.124347076
0.030542066 0.34771627 -0.43942672 0.11692854 -0.3928172 0.55436563 -0.21485396 -0.2852228
0.21166818 -0.15860395 -0.083095044 -0.39324862 -0.31969374 0.17682725 -0.5416079 -0.10813459
-0.15574436 -0.43322575 0.20405963 0.2580354 0.1690829 -0.21953824 0.4072264 0.49868476
-0.33787733 -0.4823673 0.47123203 -0.37156317 0.12942673 -0.577501 -0.5206238 0.105381064
-0.4408708 -0.15393591 -0.40705818 -0.058601063 0.5516787 0.02708746 -0.181865 0.52089936
-0.35572612 0.10121215 -0.29912713 -0.2367605 0.4014198 0.5531423 -0.089091904 -0.2244014
-0.2711513 0.27654335 -0.19365825 0.27907124 0.4820291 0.112815 -0.24332917 -0.27578518
00000000: a603 01bf 9eeb 02be 495a b13e 2249 c0bd
00000010: c0d7 773e fa02 453e 490a ae3e 7f6c ff3d
00000020: 7d2f d03d a044 ecbc 366b 6f3e 5d36 abbe
00000030: 9196 f33d b07a 053f 3227 d93d 0d81 2fbe
00000040: f8bc df3e d111 9b3e 8d83 543e 43ab ea3e
00000050: 2e4e f1be e944 b33e 6581 cdbe 560a b5be
00000060: 7573 e73e fe88 ebbe 3a91 d0bd 1831 a53e
00000070: 4e77 153e 1788 a2bd 2a71 c13e 671a 05bf
00000080: ae27 cd3e 85a2 4a3c e54a 843e a8fa 98bd
00000090: e776 fe3e e55f 17be e840 11be faf0 963e
000000a0: 8f65 29be dce8 abbe e2c8 16be 4bdc c7bd
000000b0: 0f36 9e3e 2c8d 9ebe ec06 0c3f 0910 29be
000000c0: 0264 f0be f565 cbbd 737c 74bd b0a3 b83e
000000d0: ef25 053f 491f 143f 0085 a5bd fd14 da3e
000000e0: 550b acbd 694a 383d a752 3c3e 0f8e ccbe
000000f0: a6e1 0f3f b7c3 86be cf72 fcbe 41f1 a13e
00000100: 118a 973e 16ef b93e ea54 d4be c880 993e
00000110: 116b e33e f291 443e e7f5 783d 050f cebe
00000120: b87a d03e f710 fdbe 6ea1 b73e 3fc6 923e
00000130: ff39 5d3e 09f5 7d3e a573 81bd 14cd 13bf
00000140: d6d6 b43e 7cdb a83e f408 b73e 12d4 02bf
00000150: 5cad 78be cf5f 92bd 19e1 90be 11d2 68be
00000160: c35b bb3e 58c4 1b3e 5af4 103f 58a0 31be
00000170: 8c6b 153f 9e38 043e 61b4 39be 9176 b43e
00000180: 551e 0e3f 0f9c 033f 9a20 08bf 3268 33bd
00000190: 8da4 45be df7d a23e f4e7 e43e 20ae a93d
000001a0: 24bb a63e 2c43 713e 8925 f5be c717 57be
000001b0: 95ba 493e 7598 aebe 6d2f edbe dea6 823e
000001c0: 72e0 ee3e 8952 083f 0b1b 243d d576 823d
000001d0: 286f 82bd e23b d93e 6c2f de3e cc5a 803c
000001e0: e92e 04bf d788 433e fb78 30be 32ab 013f
000001f0: 8295 62bd 009d 5a3e b816 f3be e280 bbbe
00000200: d79c 48be 2d7c d5be 5aab 943e 1f81 e8bd
00000210: 89eb 0cbf b667 b2be ea1d 9c3e aea9 fe3d
00000220: 5b33 fa3c de07 b23e 8afc e0be 3b78 ef3d
00000230: 561f c9be e8ea 0d3f ad02 5cbe b908 92be
00000240: 8bbf 583e 1369 22be bc2d aabd e257 c9be
00000250: e6ae a3be 3412 353e d1a6 0abf ab75 ddbd
00000260: 737b 1fbe c4cf ddbe 02f5 503e 371d 843e
00000270: 1124 2d3e a2ce 60be fb7f d03e 9c53 ff3e
00000280: 42fe acbe d9f8 f6be 5345 f13e 873d bebe
00000290: 7188 043e 1bd7 13bf 9a47 05bf 07d2 d73d
000002a0: d1b9 e1be 60a1 1dbe ee69 d0be ab07 70bd
000002b0: d13a 0d3f 85e6 dd3c d23a 3abe a959 053f
000002c0: bc21 b6be 5148 cf3d 3127 99be 5871 72be
000002d0: e586 cd3e bc9a 0d3f d175 b6bd 7bc9 65be
000002e0: 58d4 8abe 1797 8d3e 594e 46be 6de2 8e3e
000002f0: 85cc f63e 8d0b e73d 482b 79be b733 8dbe

conv1d.bias f4 [64]
0.41308784 1.0029823 1.0841243 -0.35371116 0.37171885 0.7298388 -0.7443852 0.53665215
0.21181211 0.6056123 0.84990734 0.88976276 0.45395857 0.057455167 0.93210167 -0.25176132
-0.4290111 1.085247 -0.5772751 -0.34243467 -0.6350979 0.6500275 0.68572545 0.3883221
0.23913015 -0.14089978 -0.40417817 -0.26414898 0.5536176 0.22644368 1.1086909 0.33283713
-1.1244506 1.2339544 0.6410099 0.2692812 0.17767847 1.232413 -0.79952097 0.9394862
-0.35513502 0.9291715 0.19301607 0.06695356 0.19277976 0.14463556 0.025110794 -0.35122633
-0.53247416 -0.4722203 -0.3517811 0.82194185 0.18600471 0.07986456 0.75722945 -0.3135004
-0.07709841 -1.1217502 0.76349825 -0.20988034 -0.83066416 0.19951472 0.31904444 0.14545076
00000000: 4080 d33e b961 803f 96c4 8a3f a119 b5be
00000010: ef51 be3e b7d6 3a3f 0790 3ebf 0962 093f
00000020: 46e5 583e 6809 1b3f 8793 593f 7ec7 633f
00000030: 426d e83e 1c56 6b3d 379e 6e3f dce6 80be
00000040: 58a7 dbbe 60e9 8a3f 4dc8 13bf 9953 afbe
00000050: c795 22bf 3468 263f b48b 2f3f 27d2 c63e
00000060: 89de 743e 0848 10be 71f0 cebe 893e 87be
00000070: e2b9 0d3f dae0 673e 95e9 8d3f a169 aa3e
00000080: ffed 8fbf 38f2 9d3f 3a19 243f 3adf 893e
00000090: 58f1 353e b6bf 9d3f 68ad 4cbf 2b82 703f
000000a0: 42d4 b5be 2fde 6d3f 01a6 453e f31e 893d
000000b0: 0f68 453e 581b 143e 27b5 cd3c f0d3 b3be
000000c0: 3a50 08bf dcc6 f1be a71c b4be c86a 523f
000000d0: 0578 3e3e 0890 a33d cad9 413f 2083 a0be
000000e0: c5e5 9dbd 8395 8fbf 9f74 433f dfea 56be
000000f0: 68a6 54bf 964d 4c3e cb59 a33e 0bf1 143e

fc1.weight f4 [50, 64]
-0.1083755 0.01729016 -0.08119858 -0.05179738 -0.0669436 0.04735 0.11684808 0.03076413
0.06435929 -0.109533176 0.02440424 0.08041873 0.078039594 0.04648292 0.09631756 0.03511267
-0.022387207 0.023121262 -0.12328967 0.017049609 0.015588504 -0.04324652 0.07192704 -0.026356714
-0.03209302 -0.14063956 0.06801592 -0.076600336 0.11706665 -0.07436985 0.038275898 -0.091884285
-0.075313136 0.10619727 -0.079510644 -0.037550833 -0.06485258 0.091885455 0.050523452 0.0017817474
0.07375168 -0.13276789 -0.02576901 -0.07155921 -0.07748438 -0.08400107 -0.087926894 0.058945935
0.08326062 0.08920484 -0.0561637 -0.027787594 -0.04200893 0.122337855 0.091781296 -0.011447237
-0.10659155 -0.08180575 -0.048138704 -0.079495706 0.04780367 -0.041663572 0.08215479 0.061853442
-0.07739556 0.16294685 0.12961347 -0.018742949 0.12070952 0.08451572 -0.08308655 -0.03661852
-0.040334668 -0.06511877 0.109869905 0.10073179 0.031806108 0.07543713 0.13041112 -0.13412915
-0.036623776 0.023735803 -0.076176204 -0.07970952 0.008916802 0.05787481 0.05476925 0.12139218
-0.015411961 -0.0848342 -0.018241491 0.056696996 0.07296169 0.14112847 0.00076474535 0.017044183
-0.050717786 -0.0020487956 0.06504907 -0.09554138 -0.08348549 0.13684149 -0.24351074 -0.012064008
-0.0063433247 -0.0019300785 -0.09726569 -0.13938457 0.2010805 0.07192653 -0.027975583 0.036121517
-0.052963875 0.151359 -0.09282166 0.06954754 0.030110858 -0.067457594 0.09043117 -0.035310876
0.09221603 -0.12234564 0.03778424 -0.10268237 -0.051188324 -0.04262208 0.08016517 0.082504824
-0.026713626 -0.07614461 -0.031205889 -0.11812915 -0.101413295 0.11412547 -0.10591075 -0.014475535
0.10438701 -0.08568338 0.07117083 -0.0636612 0.11637618 0.0033115824 0.02935512 -0.0932996
-0.07299282 -0.100377694 -0.09476186 0.122712515 0.013734765 0.08354583 -0.15866387 -0.073106304
0.064960554 -0.062184107 -0.017020052 -0.09029842 0.017760992 0.10316071 -0.019626267 0.089804605
0.07313019 -0.06782951 -0.0046338527 0.033430196 -0.065838166 0.085551776 0.01818429 -0.11697086
-0.057637364 0.025145913 0.03498882 -0.042473987 0.032663558 0.03979087 -0.10760482 0.08755336
0.01638811 -0.023831345 -0.04104936 -0.10525371 -0.1098115 0.026746457 -0.12112634 -0.07081415
-0.11695659 -0.117110886 -0.07206826 0.15550126 0.092805475 0.08327234 0.09573184 0.035510782
0.08251354 0.13258879 0.094504304 -0.22402057 0.022497403 -0.0043322276 -0.053739876 0.1708172
-0.0005616806 0.139748 0.13434896 0.13044512 0.12840562 -0.033767592 -0.0042198813 -0.079602115
0.053909376 -0.015638052 0.02947821 -0.17051424 0.030297203 -0.012247616 -0.04811288 0.19911104
-0.040912665 0.038237266 0.09399468 -0.09030082 0.002841593 0.04125221 0.15954368 0.08684791
-0.053254858 0.09679639 0.060418807 0.041963533 0.08213686 0.06795063 -0.07451379 0.09861208
-0.0015166309 0.068029545 0.016512543 -0.26719913 0.19142969 0.12161848 0.12758087 0.05327947
-0.14794879 0.18672766 0.05310124 0.05433504 -0.07459975 -0.053590953 -0.08688868 -0.11476483
0.076684356 -0.072929904 0.08896362 -0.08348154 0.033750623 0.04657008 0.040827733 0.076401666
00000000: f9f3 ddbd 18a4 8d3c 714b a6bd 7d29 54bd
00000010: ba19 89bd 13f2 413d 0c4e ef3d 0f05 fc3c
00000020: cece 833d ee52 e0bd 67eb c73c 93b2 a43d
00000030: 39d3 9f3d e064 3e3d 2442 c53d 4ed2 0f3d
00000040: 6065 b7bc cd68 bd3c 4b7f fcbd 9fab 8b3c
00000050: ed66 7f3c 4323 31bd 7c4e 933d 09ea d7bc
00000060: f873 03bd d103 10be ee4b 8b3d a3e0 9cbd
00000070: a4c0 ef3d 384f 98bd 30c7 1c3d d42d bcbd
00000080: c63d 9abd f47d d93d 7ad6 a2bd e7ce 19bd
00000090: 6ed1 84bd 712e bc3d aef1 4e3d 8689 e93a
000000a0: 1f0b 973d 4ef4 07be 8819 d3bc a38d 92bd
000000b0: 21b0 9ebd c108 acbd 0413 b4bd 4b71 713d
000000c0: 8b84 aa3d 07b1 b63d e80b 66bd cfa2 e3bc
000000d0: 8e11 2cbd 458c fa3d d5f7 bb3d 318d 3bbc
000000e0: ac4c dabd c689 a7bd 172d 45bd a5ce a2bd
000000f0: c8cd 433d 6ca7 2abd c540 a83d 095a 7d3d
00000100: 9081 9ebd 8adb 263e 65b9 043e d08a 99bc
00000110: 8e36 f73d 9416 ad3d 4829 aabd 4dfd 15bd
00000120: f735 25bd fd5c 85bd 7903 e13d 784c ce3d
00000130: 1f47 023d c87e 9a3d 7e8a 053e 2759 09be
00000140: d002 16bd 9671 c23c 4502 9cbd bf3e a3bd
00000150: c717 123c 230e 6d3d b955 603d 779c f83d
00000160: 7382 7cbc 8ebd adbd 2e6f 95bc 1c3b 683d
00000170: f06c 953d fb83 103e 3179 483a 3ea0 8b3c
00000180: 74bd 4fbd 1645 06bb 7238 853d 33ab c3bd
00000190: 71fa aabd 2d20 0c3e e15a 79be 1ea8 45bc
000001a0: aadb cfbb b0fa fcba 3c33 c7bd d4ba 0ebe
000001b0: 0ce8 4d3e 374e 933d 0d2d e5bc 28f4 133d
000001c0: a6f0 58bd dbfd 1a3e 4819 bebd f16e 8e3d
000001d0: 0cab f63c 3527 8abd fa33 b93d 23a2 10bd
000001e0: c2db bc3d 5a90 fabd a6c3 1a3d 224b d2bd
000001f0: d9aa 51bd 7d94 2ebd a32d a43d 4af8 a83d
00000200: 89d6 dabc b5f1 9bbd 7ea3 ffbc b2ed f1bd
00000210: c6b1 cfbd 9dba e93d bce7 d8bd cb2a 6dbc
00000220: dbc8 d53d c57a afbd 03c2 913d ce60 82bd
00000230: a256 ee3d 2207 593b 267a f03c dc13 bfbd
00000240: 427d 95bd d292 cdbd 8212 c2bd b350 fb3d
00000250: c807 613c 131a ab3d c878 22be c2b8 95bd
00000260: 0a0a 853d c3b4 7ebd a36d 8bbc 61ee b8bd
00000270: 807f 913c ec45 d33d 44c7 a0bc 7aeb b73d
00000280: 48c5 953d 33ea 8abd 93d7 97bb 1aee 083d
00000290: 29d6 86bd c535 af3d 38f7 943c 6b8e efbd
000002a0: 2815 6cbd cdfe cd3c 7050 0f3d 34f9 2dbd
000002b0: 39ca 053d c0fb 223d ea5f dcbd 2d4f b33d
000002c0: 5c40 863c f439 c3bc 6023 28bd 428f d7bd
000002d0: dae4 e0bd 631b db3c 1611 f8bd 0207 91bd
000002e0: f086 efbd d5d7 efbd 8698 93bd b93b 1f3e
000002f0: cc10 be3d b08a aa3d 0e0f c43d c173 113d
00000300: dcfc a83d 5bc5 073e 798b c13d a665 65be
00000310: 794c b83c 5cf5 8dbb 581e 5cbd b4ea 2e3e
00000320: bf3d 13ba 1a1a 0f3e c692 093e 6893 053e
00000330: c37c 033e e34f 0abd ee46 8abb 6f06 a3bd
00000340: 14d0 5c3d 5f1b 80bc 497c f13c 499b 2ebe
00000350: d731 f83c 3aaa 48bc 0312 45bd c4e3 4b3e
00000360: 0a94 27bd ae9e 1c3d 4880 c03d a3ef b8bd
00000370: 053a 3a3b 14f8 283d 6b5f 233e 51dd b13d
00000380: c421 5abd 303d c63d b679 773d f4e1 2b3d
00000390: 5f37 a83d b329 8b3d b09a 98bd 21f5 c93d
000003a0: b0c9 c6ba 1353 8b3d 5045 873c 53ce 88be
000003b0: 2506 443e 1c13 f93d 8fa4 023e 933b 5a3d
000003c0: e37f 17be 8935 3f3e b080 593d 6b8e 5e3d
000003d0: c1c7 98bd 3082 5bbd b1f2 b1bd d309 ebbd
000003e0: b00c 9d3d 465c 95bd 8f32 b63d 5ff8 aabd
000003f0: 183e 0a3d 45c0 3e3d fb3a 273d 7a78 9c3d

fc1.bias f4 [50]
-0.010229738 0.7598021 0.047920577 0.72619545 -0.68435746 -0.056311846 0.10174858 0.51951706
0.5938473 -0.8254348 0.5854124 0.74532264 -0.046817616 0.55734414 -0.69356835 -0.71654975
0.76396686 -0.5687263 0.12611994 -0.060628 0.1440837 -0.028828155 0.05998433 0.7228496
0.6982699 -0.7339081 -0.10046092 0.11363374 -0.07845813 0.041490823 0.024499817 -0.0058938414
0.6210348 0.0012613684 0.11415205 -0.06916891 0.56829154 0.032842442 0.56680757 0.0027207285
0.0057043573 0.4711173 0.74817616 -0.1529345 -0.12550646 0.74822783 0.6228463 -0.7497729
0.6389169 0.10203872
00000000: a29a 27bc 6482 423f 5e48 443d f2e7 393f
00000010: 0d32 2fbf 40a7 66bd 8f61 d03d 12ff 043f
00000020: 6006 183f b24f 53bf 96dd 153f 77cd 3e3f
00000030: d4c3 3fbd 1bae 0e3f b28d 31bf ce6f 37bf
00000040: 5593 433f 0c98 11bf 9625 013e 1155 78bd
00000050: ad8a 133e 0629 ecbc 21b2 753d ac0c 393f
00000060: d1c1 323f 67e1 3bbf 74be cdbd ceb8 e83d
00000070: a8ae a0bd 48f2 293d d7b3 c83c 2021 c1bb
00000080: 23fc 1e3f 8054 a53a 8dc8 e93d 6ea8 8dbd
00000090: 8e7b 113f cc85 063d 4d1a 113f 404e 323b
000000a0: 9eeb ba3b 4936 f13e 7988 3f3f dd9a 1cbe
000000b0: c484 00be dc8b 3f3f db72 1f3f 1ef1 3fbf
000000c0: 0f90 233f adf9 d03d

fc2.weight f4 [1, 50]
-0.010520332 0.17252348 -0.19285646 0.09134804 -0.11280786 -0.10274792 -0.07199631 0.1576096
0.100610204 -0.23826775 0.08088959 0.13665113 0.14238285 0.07948519 -0.14371267 -0.21954387
0.08435308 -0.16310404 0.038661264 0.042373605 0.11843948 -0.19459759 -0.15844816 0.073601484
0.13206968 -0.095943324 -0.021782756 0.062214836 -0.10062834 -0.13468334 0.08351687 -0.1349382
0.16796395 0.014305079 0.058345273 -0.07226151 0.13282377 -0.0047127535 0.08090788 0.08783962
-0.078065306 0.12606353 0.07796128 -0.07630638 -0.004617206 0.18869607 0.19126746 -0.15190051
0.12415284 -0.074274085
00000000: 785d 2cbc ffa9 303e 2a7c 45be ae14 bb3d
00000010: cf07 e7bd 806d d2bd cd72 93bd 6964 213e
00000020: b90c ce3d 76fc 73be 71a9 a53d 46ee 0b3e
00000030: cfcc 113e 22c9 a23d 6a29 13be 1cd0 60be
00000040: 4fc1 ac3d bf04 27be 465b 1e3d f28f 2d3d
00000050: 6690 f23d 9744 47be 3c40 22be 60bc 963d
00000060: 463d 073e ef7d c4bd c071 b2bc fcd4 7e3d
00000070: 3b16 cebd 6eea 09be e50a ab3d 3d2d 0abe
00000080: befe 2b3e da5f 6a3c 74fb 6e3d d8fd 93bd
00000090: f402 083e 716d 9abb 08b3 a53d 42e5 b33d
000000a0: b4e0 9fbd cc16 013e 2aaa 9f3d 8546 9cbd
000000b0: ee4b 97bb 8b39 413e 9edb 433e cf8b 1bbe
000000c0: d843 fe3d 031d 98bd
