output/checkpoints/model20.pt (torch, 16279 bytes, 5 tensors)

conv1d.weight f4 [64, 3, 1]
00000000: 4fc6 01bf 0439 edbd 20df ae3e 3f48 b7bd
00000010: accb 7a3e 70f3 573e ca54 b13e 4562 013e
00000020: 4662 ed3d f086 15bd 6e08 623e 474b aabe
00000030: aa3a fc3d b655 063f f8b4 ee3d 2d8b 29be
00000040: 5752 e13e a0c1 a13e 4bea 633e 759c f23e
00000050: 4f0d e8be 100b b63e 8783 d0be 95b5 afbe
00000060: a5b3 d83e b2f6 f8be f9b8 23be fd45 ad3e
00000070: 9850 1f3e 2c7a 43bd 074f c23e 5ce6 05bf
00000080: 2d5a cf3e fd35 963c 26f0 833e 1436 83bd
00000090: 8275 063f 040f f0bd afd2 b5bd 01b4 8e3e
000000a0: 67b7 28be 3b45 c6be 93b4 12be 39ee c9bd
000000b0: 536c a03e f59f 9ebe 8ec8 0a3f 973d 24be
000000c0: 0264 f0be f565 cbbd 737c 74bd 3bf8 bb3e
000000d0: c751 063f c7ef 173f 0e67 9abd ade0 d93e
000000e0: 5de2 aabd f6eb 5cbc 085a e23d 74ea f1be
000000f0: c54d 0f3f 5d8c 87be a360 05bf 0a0a b93e
00000100: 4961 a53e a99c d93e f409 d5be aae2 993e
00000110: 9831 e63e 8b62 313e 876a cf3c e834 c7be
00000120: 9c72 d83e e889 fabe 7b5c c13e 89e5 933e
00000130: 91e3 723e 33fd 7d3e 77ad 3dbd 8ba8 10bf
00000140: ffde b03e 080a ae3e 3ec0 b63e 2f6b 02bf
00000150: 225a 96be cf74 fabd 44e4 aabe ba8f 56be
00000160: 265e c03e 1c58 2c3e 13ed 113f 3c34 30be
00000170: 319c 183f 152c 0d3e df18 36be c3cf bd3e
00000180: 25e2 0e3f 8b51 043f 21ed 09bf 97b7 4fbd
00000190: 7fe9 47be 73f6 a23e 9740 e73e b16c ae3d
000001a0: a46a ad3e d622 643e 4718 ffbe d790 40be
000001b0: c596 563e 7618 b7be 94af e5be 2fbb 853e
000001c0: 9b70 ef3e 0670 0b3f 0a1f 2f3d a073 7c3d
000001d0: f7f4 8fbd 1acb db3e a6cb e03e f8d3 053d
000001e0: 412c 0dbf af3f 333e 99b3 1ebe 91a8 033f
000001f0: bbc5 55bd 9122 683e b816 f3be e280 bbbe
00000200: d79c 48be 61d7 cabe 59e5 863e 5c09 ebbd
00000210: 874a 0ebf 0e2b b9be 9f68 8f3e 8d9d 063e
00000220: d136 0f3d 90fe b73e d6c4 f9be c44d 8c3d
00000230: bee8 e1be 5919 0f3f b66f 45be bc14 94be
00000240: f770 5a3e 6c82 1abe 5f30 d3bd 19d2 cabe
00000250: 5dc6 a4be ae5e 2d3e d1a6 0abf ab75 ddbd
00000260: 737b 1fbe a574 dfbe 1fa4 563e 9c3d 813e
00000270: 8c50 303e 1ed3 5dbe 7436 d73e 998b 003f
00000280: bbb1 a4be 1f30 00bf 441c ef3e db53 c1be
00000290: 3f1a 043e 440f 14bf 2ed3 05bf e972 cd3d
000002a0: d1b9 e1be 60a1 1dbe ee69 d0be e501 62bd
000002b0: 6a3b 0e3f 09e0 b73c eb2f 3dbe 3d6d 043f
000002c0: 3370 b9be 540f be3d c799 a1be 8d4f 60be
000002d0: 1eaa cd3e 5a4b 0e3f 4b1e c5bd c7bd 80be
000002e0: 4a56 61be 20cb 8b3e f47d 3abe ece9 923e
000002f0: b1f5 fb3e 88e7 c13d 455f 5ebe 6b6c 98be
-0.5069322 -0.115831405 0.34154606 -0.08949327 0.24491757 0.21088958 0.34635 0.12635143
0.1159101 -0.03650564 0.22073528 -0.33260557 0.12315877 0.52474535 0.11655611 -0.16556998
0.44008133 0.31593037 0.22257344 0.47384992 -0.45322654 0.35555315 -0.40725347 -0.34318224
0.42324558 -0.48625714 -0.1598853 0.3384246 0.15558088 -0.047723934 0.37950918 -0.52304626
0.40498486 0.01833629 0.25769156 -0.06406799 0.5252305 -0.11721614 -0.08878075 0.27871707
-0.16476212 -0.38724694 -0.14326696 -0.098598905 0.31332645 -0.30981413 0.5421227 -0.1603912
-0.469513 -0.09931556 -0.059688997 0.36712822 0.5246853 0.59350246 -0.07539187 0.42554227
-0.083439566 -0.013483992 0.11052328 -0.47249186 0.5597804 -0.26474276 -0.5210058 0.36140472
0.32300785 0.42502335 -0.41609156 0.30055743 0.44959712 0.17322747 0.02531935 -0.38907552
0.4227494 -0.4893334 0.3776587 0.2888606 0.23719622 0.24803619 -0.046308007 -0.56507176
0.34545133 0.33992028 0.35693544 -0.509448 -0.2936564 -0.12229311 -0.33377278 -0.20953265
0.3757183 0.16830486 0.5700237 -0.17207426 0.5961333 0.13786347 -0.17782925 0.37072572
0.5581382 0.51686925 -0.53877455 -0.050712194 -0.19522665 0.3182865 0.45166466 0.08516825
0.33870423 0.22278914 -0.4982321 -0.18805252 0.20955952 -0.3576085 -0.44860518 0.26119372
0.467656 0.5446781 0.04275421 0.061633706 -0.07029145 0.42928392 0.4390537 0.032672852
-0.5514565 0.17504762 -0.15498199 0.51429087 -0.052190524 0.22669436 -0.4747827 -0.36621767
-0.1959108 -0.39617446 0.26346853 -0.114763945 -0.5558247 -0.3616566 0.28009507 0.13146038
0.034964386 0.35936403 -0.48782986 0.0685077 -0.4412288 0.5589805 -0.19280896 -0.2892207
0.21332155 -0.15088814 -0.103119604 -0.39613417 -0.3218259 0.16930649 -0.5416079 -0.10813459
-0.15574436 -0.4364368 0.20961045 0.25242317 0.17218226 -0.21662566 0.42033732 0.5021301
-0.32166848 -0.50073427 0.46701252 -0.3775929 0.12900637 -0.57835793 -0.5227536 0.10031683
-0.4408708 -0.15393591 -0.40705818 -0.055177588 0.5555941 0.022445695 -0.1847531 0.51729184
-0.36218414 0.09280267 -0.31562635 -0.21905346 0.40168852 0.5558373 -0.096249186 -0.2514479
-0.22005573 0.2730341 -0.1821211 0.28694093 0.49210885 0.09467989 -0.2171603 -0.29770216

conv1d.bias f4 [64]
00000000: 1211 b93e 7e85 1b3f 16fd 2a3f 2a83 53be
00000010: 5282 bcbd a91f a13e b183 90be b932 ef3e
00000020: f392 ab3e 82a8 7e3e a88d d43e 9aa0 f33e
00000030: f3c4 103e 6dc8 573e f4ae 143f ce64 303e
00000040: 58a7 dbbe c5c6 283f 5567 e8bd 61ee 8ebe
00000050: 949a cebe 377c e63e d028 6b3e 449d 6b3e
00000060: ff17 0fbe 9695 753e bd21 f6be f5dd 333e
00000070: 82b8 003f 3272 46be b114 2f3f 9c75 79bd
00000080: e580 2dbf 475c 513f 6063 543e 80e8 8e3e
00000090: 7977 003e 135b 4e3f f494 adbe 3365 fe3e
000000a0: 4e8f bfbe f63d 003f 01a6 453e 813c e03d
000000b0: d494 073e e4c9 9abe 3f06 bfbc d03d 103e
000000c0: 5a29 89be 4af5 f0be a71c b4be 63d4 1a3f
000000d0: a152 87be 4e47 463e 05fb 8b3e 10df a0be
000000e0: c5e5 9dbd f010 2fbf 3b39 ac3e 4749 1dbe
000000f0: 33e0 c8be aaa7 153e 34f3 f6bd 059f fb3d
0.36145836 0.6075057 0.6679243 -0.20655504 -0.09204544 0.31469467 -0.28225473 0.46718386
0.3351055 0.24868968 0.41514325 0.47583467 0.1413763 0.2107255 0.5807946 0.17225954
-0.4290111 0.659283 -0.11347834 -0.27916244 -0.4035231 0.45016643 0.22964787 0.23009211
-0.13973998 0.23982844 -0.48072615 0.17565139 0.50281537 -0.193795 0.6839095 -0.060903177
-0.677748 0.8178143 0.20741034 0.27911758 0.12545575 0.8060772 -0.33902705 0.49686584
-0.3741402 0.50094545 0.19301607 0.1094904 0.13240367 -0.30232155 -0.023318408 0.1408608
-0.2678936 -0.4706214 -0.3517811 0.60480326 -0.26430228 0.19363138 0.2733995 -0.31420183
-0.07709841 -0.6838522 0.33637413 -0.15359984 -0.3923355 0.1461474 -0.12058106 0.1228619

fc1.weight f4 [50, 64]
00000000: 6100 dcbd 9672 953c d957 a4bd 7d29 54bd
00000010: 2226 87bd 55d9 453d 0c4e ef3d 0f05 fc3c
00000020: cece 833d ee52 e0bd e5b9 cf3c a1ff a53d
00000030: 39d3 9f3d e064 3e3d bc35 c73d 4ed2 0f3d
00000040: 6065 b7bc 4b37 c53c 4b7f fcbd 9fab 8b3c
00000050: ed66 7f3c 013c 2dbd 1442 953d 09ea d7bc
00000060: 7019 ffbc 110a 0fbe 863f 8d3d a3e0 9cbd
00000070: a4c0 ef3d a05b 96bd 72ae 203d 3c3a babd
00000080: c63d 9abd 8c71 db3d e2e2 a0bd e7ce 19bd
00000090: 6ed1 84bd 0922 be3d aef1 4e3d f738 333b
000000a0: 1f0b 973d 8efa 06be 8819 d3bc a38d 92bd
000000b0: 89bc 9cbd 2915 aabd 0413 b4bd 4b71 713d
000000c0: 8b84 aa3d 9fa4 b83d e80b 66bd 51d4 dbbc
000000d0: 4c2a 28bd 458c fa3d 6deb bd3d 20f0 2bbc
000000e0: ac4c dabd 45e3 a6bd 172d 45bd a5ce a2bd
000000f0: c8cd 433d 2ac0 26bd 5d34 aa3d 095a 7d3d
00000100: 8771 84bd 8dba 1b3e 1030 f83d dc63 b43d
00000110: 5d09 f73d 44dc a93d c90e a9bd 531a cbbd
00000120: ced8 e73c 800d 93bd 723e f53d 4e1d 963d
00000130: 56f8 b93c 9c7c c03d 8b28 183e dff4 0dbe
00000140: d002 16bd 6b6a bc3c 4990 99bd 098e 483d
00000150: 5004 3dbc 732c 6b3d 5797 7c3d 2b19 3abd
00000160: 3a7d a43b ecb2 a8bd 1b4f 6ebd 2ebe 243d
00000170: ff5a b53c 1f69 143e 9013 673a 7d35 e13c
00000180: 4b46 55bd 3d6d 06bc 6be7 863d 85f4 b3bd
00000190: e729 dabd 46f0 093e 62c8 13be cd99 8cbc
000001a0: a0e0 11bd 9c82 a2bb 3c33 c7bd 6eb7 853d
000001b0: 79bb 173e 4ee3 a43d 6adf a0bd 140a 003d
000001c0: 0b57 0c3d 8f3a e53d 4819 bebd 7ef7 a43d
000001d0: fcbc 373d ba37 1abd 3413 c53d ff22 b8bc
000001e0: c2db bc3d 74b1 e1bd a42b c0bb 9bbb e3bc
000001f0: 55fa 3ebd a4aa 98bd fc80 b33d 449d 9d3d
00000200: 633c d8bc 86cc ffbc 9777 e5bc 3056 fcbd
00000210: d544 b7bd da5c ee3d b645 e3bd a677 853b
00000220: e831 b33d f297 b0bd 7148 803d 70b3 95bc
00000230: c657 de3d 961d b33c ce40 0cbc dc13 bfbd
00000240: 427d 95bd dd7d c0bd 7285 e1bd 4974 b63d
00000250: 2bbb 3fbc 872e b33d a72a d7bd a08d 01bd
00000260: bce8 5c3d 716a 80bd a3e6 e0bc 646a debd
00000270: 807f 913c cb23 8d3d 7b73 aebc a3a4 a83d
00000280: 4dc9 5a3d af4d bbbd b307 a9bb ac45 643d
00000290: cc06 4fbd d86d c13d 5d68 c4bc 80e6 e7bd
000002a0: 2815 6cbd 54d9 c03c 7050 0f3d 34f9 2dbd
000002b0: 39ca 053d dee7 183d ea5f dcbd 3d2f 913d
000002c0: 3cbc 44bc f439 c3bc 6023 28bd a535 e5bd
000002d0: 02e7 f4bd d073 413c f6bb 03be 0207 91bd
000002e0: f086 efbd 817a 85bd 8698 93bd 551d 9f3d
000002f0: ba82 b23d 9cde 9e3d 3f74 913d c813 3b3a
00000300: fe36 c33d 6c55 fa3d 3460 b13d f70b f0bd
00000310: 9ff6 bb3c 16ed afbb 5705 58bd c2a8 dd3d
00000320: f444 8b3d ffc4 083e fe2a 143e 010a d43d
00000330: 3d48 f53d 82f7 78bc d248 6c3c 9c41 abbd
00000340: 14d0 5c3d 3ec3 81bc e4d3 ff3c b637 2bbd
00000350: 29fd 213c 6a6e 47bc 0ca2 26bd 8f7a 043d
00000360: edc6 a3bc cadc 283d b913 5e3d 9dd7 d9bd
00000370: 6089 44bd 08cc 3a3d 2607 243e a457 c83d
00000380: c495 5dbd 4291 ba3d 2ff8 7c3d cf3f 4b3d
00000390: b00f 723d fee7 873d 2f17 ce3c fd96 c03d
000003a0: 0e35 fcbc 0a2e 863d 5045 873c 722f 80bd
000003b0: 8cdc 0d3e fae1 053e 45b6 9d3d 0421 473d
000003c0: da63 78bd 68d2 163e b080 593d 2ea2 863d
000003d0: 7f05 73bd db3f c3bc 9a22 a5bd 5cc7 d0bd
000003e0: b00c 9d3d 8cbc 76bd c152 3a3d 2ba9 0cbc
000003f0: 831d 1f3d c46b 713c ca13 483d eb22 913d
-0.1074226 0.018243115 -0.08024568 -0.05179738 -0.0659907 0.048302967 0.11684808 0.03076413
0.06435929 -0.109533176 0.025357196 0.08105398 0.078039594 0.04648292 0.09727046 0.03511267
-0.022387207 0.024074217 -0.12328967 0.017049609 0.015588504 -0.042293552 0.07287994 -0.026356714
-0.03114006 -0.13968684 0.06896882 -0.076600336 0.11706665 -0.07341695 0.039228864 -0.090931386
-0.075313136 0.10715017 -0.078557745 -0.037550833 -0.06485258 0.092838354 0.050523452 0.0027347186
0.07375168 -0.13181517 -0.02576901 -0.07155921 -0.07653148 -0.08304817 -0.087926894 0.058945935
0.08326062 0.09015774 -0.0561637 -0.026834639 -0.041055962 0.122337855 0.092734195 -0.010494262
-0.10659155 -0.08148817 -0.048138704 -0.079495706 0.04780367 -0.040710606 0.08310769 0.061853442
-0.06466966 0.15207882 0.12118542 0.08808109 0.12062333 0.082939655 -0.08254773 -0.0991713
0.028301623 -0.07180309 0.11974801 0.07329808 0.022701424 0.09398767 0.14859216 -0.13862942
-0.036623776 0.022999963 -0.07498223 0.04896358 -0.011536673 0.057415437 0.061667766 -0.04543416
0.005019811 -0.08237252 -0.05818091 0.040220432 0.022138117 0.14493226 0.0008814866 0.027491326
-0.05206899 -0.008204755 0.06587108 -0.08786873 -0.106525235 0.13470563 -0.14431909 -0.017163182
-0.03561461 -0.0049594175 -0.09726569 0.06529127 0.14817609 0.080511674 -0.07855113 0.03125961
0.0342627 0.1119281 -0.09282166 0.08055018 0.044857964 -0.0376508 0.09622803 -0.022477625
0.09221603 -0.110201746 -0.0058645774 -0.027799418 -0.046625454 -0.07454422 0.08764836 0.07696012
-0.026395982 -0.031225454 -0.028011126 -0.123211265 -0.089486755 0.11638804 -0.11097281 0.004073101
0.08749753 -0.08622731 0.06263817 -0.018274039 0.10856585 0.021864694 -0.0085603725 -0.0932996
-0.07299282 -0.093990065 -0.11011781 0.089088984 -0.011702339 0.08749109 -0.10506182 -0.031629205
0.05393289 -0.06270302 -0.027453726 -0.10860136 0.017760992 0.068915926 -0.0212953 0.08234527
0.05341463 -0.09145676 -0.0051583885 0.055730507 -0.05054359 0.09444779 -0.023975546 -0.11323261
-0.057637364 0.02354113 0.03498882 -0.042473987 0.032663558 0.0373305 -0.10760482 0.07089088
-0.012007769 -0.023831345 -0.04104936 -0.111918725 -0.11958124 0.011807397 -0.1286467 -0.07081415
-0.11695659 -0.065175064 -0.07206826 0.077692665 0.0871634 0.07757303 0.0710225 0.00071364315
0.09531973 0.12223324 0.086609274 -0.11721032 0.022944747 -0.005368839 -0.052739467 0.108232036
0.06800261 0.13356398 0.14469525 0.103534706 0.11976669 -0.015195729 0.014421659 -0.08362123
0.053909376 -0.015840169 0.031228967 -0.041801177 0.009887018 -0.012172321 -0.040681884 0.032343443
-0.019992316 0.041226186 0.054218028 -0.10636828 -0.047982574 0.045604736 0.16018352 0.09782341
-0.054097906 0.09109737 0.061760124 0.0496214 0.059096992 0.06636046 0.02515754 0.09403799
-0.030787017 0.0655175 0.016512543 -0.062590495 0.13853663 0.13074484 0.07700781 0.04861547
-0.0606421 0.14728701 0.05310124 0.06573902 -0.059331413 -0.02383416 -0.0806324 -0.10194275
0.076684356 -0.060238406 0.045489077 -0.008585255 0.038846504 0.014735166 0.048846997 0.07086738

fc1.bias f4 [50]
00000000: 91fd 17bc a2e9 a93e 6a17 873d 92df 983e
00000010: 6549 98be 40a7 66bd fad2 bf3d d080 f93d
00000020: f047 2a3e 1222 a4be 7da5 213e 478d a23e
00000030: 98da c2bd e6dc 043e de6f 9dbe 7b8d 8ebe
00000040: 0c32 ac3e 1a00 23be 8437 ab3d fc07 77bd
00000050: 2846 9c3d d2e7 f83c 7ccd 6d3d 3f3e 973e
00000060: c977 8a3e eb1c 92be 74be cdbd ceb8 e83d
00000070: a8ae a0bd 48f2 293d d7b3 c83c 2021 c1bb
00000080: 24ae 453e 8054 a53a 1a7f 953d 6ea8 8dbd
00000090: bbcd 0f3e cc85 063d 3b71 0e3e 404e 323b
000000a0: 3091 8c3c bee8 dc3d 152c a43e f6fe cdbd
000000b0: c484 00be 64fc a33e 5797 473e 3095 7cbe
000000c0: 5227 583e 7de2 d63d
-0.009276764 0.3318606 0.06596263 0.2985807 -0.29743496 -0.056311846 0.093664125 0.12182772
0.16629004 -0.32057244 0.15785785 0.3174841 -0.0951435 0.12974891 -0.3074941 -0.27842316
0.33631933 -0.15918007 0.08360198 -0.06031035 0.07630569 0.030383978 0.058057293 0.29539678
0.27044514 -0.28537688 -0.10046092 0.11363374 -0.07845813 0.041490823 0.024499817 -0.0058938414
0.1930471 0.0012613684 0.07299633 -0.06916891 0.14043324 0.032842442 0.13910381 0.0027207285
0.017159075 0.107865795 0.32064882 -0.100583956 -0.12550646 0.32028496 0.19491325 -0.24666286
0.2110875 0.10492418

fc2.weight f4 [1, 50]
00000000: 76fa 3bbc 31d6 263e babf 9abd 0f10 a73d
00000010: b0d2 98bd 806d d2bd b256 abbc f168 073e
00000020: 02cb bc3d ee9d dbbd 4c2d 993d d84e 013e
00000030: c636 a73d 84cb 973d 6263 0bbe cdaa 2fbe
00000040: 44e7 983d f118 10be 1be9 283d 7fdc 2e3d
00000050: e8a2 6a3d 78c4 0abe 1fa3 06be 2500 863d
00000060: e9fe ff3d a581 82bd c071 b2bc fcd4 7e3d
00000070: 3b16 cebd 6eea 09be e50a ab3d 3d2d 0abe
00000080: 26a4 243e da5f 6a3c 7d08 d93a d8fd 93bd
00000090: 583c 013e 716d 9abb cb9e a23d 42e5 b33d
000000a0: ceb3 8fbd 96b8 d73d a239 943d 0e5c 9abc
000000b0: ee4b 97bb e691 353e c6a6 363e 1a3b 91bd
000000c0: 3353 e63d 8860 87bc
-0.011473289 0.16292645 -0.075561 0.0815736 -0.074620605 -0.10274792 -0.020915363 0.13223626
0.09218408 -0.10723482 0.07479343 0.12627733 0.08164744 0.074118644 -0.1361213 -0.17154999
0.074659854 -0.14072014 0.04123793 0.04269075 0.057284266 -0.1355151 -0.13148163 0.06542996
0.12499792 -0.06372384 -0.021782756 0.062214836 -0.10062834 -0.13468334 0.08351687 -0.1349382
0.16078243 0.014305079 0.0016558316 -0.07226151 0.12620676 -0.0047127535 0.079404436 0.08783962
-0.07016717 0.10533254 0.07237555 -0.018842723 -0.004617206 0.17731437 0.17837057 -0.07091351
0.11246338 -0.016525522
