output/checkpoints/model60.pt (torch, 16279 bytes, 5 tensors)

conv1d.weight f4 [64, 3, 1]
00000000: 55b0 01bf a1ea fdbd f95c af3e 52da b9bd
00000010: 1f3b 793e a5ec 503e 3473 b03e 7f90 ff3d
00000020: cbb1 e03d 96ef 1fbd cb20 6d3e be2c aabe
00000030: b9be f83d a7ce 053f 42e2 e33d 8655 2abe
00000040: d3cc e03e 7840 9f3e fc3e 583e 88e3 ec3e
00000050: 2351 efbe 3fc0 b13e 5b1e d2be 4727 acbe
00000060: 5495 de3e b98b f3be 92e5 11be f6c4 aa3e
00000070: 4e15 1b3e 299f 76bd 355b c23e 4d5f 05bf
00000080: 31fb cd3e 67b7 833c 9244 833e 0f82 92bd
00000090: ac15 043f 9bd5 00be aa4c e3bd 5860 943e
000000a0: 59c7 20be 3303 bbbe 99c6 12be 9080 cbbd
000000b0: a699 9e3e 4ce9 9fbe 7bd0 0a3f 77f9 26be
000000c0: 0264 f0be f565 cbbd 737c 74bd a7cf ba3e
000000d0: 0ee0 053f 0e81 163f e814 a2bd 37ce d93e
000000e0: c290 afbd fd40 1f3d aa65 323e ad98 cebe
000000f0: 6d09 133f 2e10 83be 3da3 febe 0081 b53e
00000100: cd61 a33e d7e8 d13e fe60 d4be 2871 993e
00000110: 9517 e53e f53f 2b3e bf69 053d 50cb c9be
00000120: 0382 d73e a688 f9be d51d bf3e d896 943e
00000130: e6ec 6f3e a7d9 803e ec44 6fbd 1afe 11bf
00000140: a538 b13e 5e57 a93e 53c6 b33e 3868 04bf
00000150: 22d9 8fbe 8f6f e0bd 4e63 a4be 4a95 59be
00000160: bea6 be3e 5fe2 263e 019e 113f 8f3d 31be
00000170: c210 173f 676e 0b3e 88fb 36be 291f ba3e
00000180: 49a0 0e3f fd46 043f 5ef0 08bf 81a1 3dbd
00000190: 27dc 45be f568 a23e 9985 e63e bafe aa3d
000001a0: 145b aa3e 518b 6c3e 9060 f7be 2fcf 3ebe
000001b0: dcf6 553e 46c6 b2be b857 e6be 17df 843e
000001c0: 84b3 ee3e 68fd 093f 6032 2d3d 4456 813d
000001d0: 376b 8abd 7bf8 da3e 753a e03e 0af9 da3c
000001e0: c582 0dbf db43 2d3e 7eae 2cbe 285b 033f
000001f0: b8e7 59bd d41f 633e b816 f3be e280 bbbe
00000200: d79c 48be 7cc6 c8be 33b4 913e 631b e2bd
00000210: e3c8 0abf 596b afbe 1daa 9a3e 89e7 053e
00000220: 133d 083d b2d0 b53e d643 f3be 0453 a63d
00000230: be67 dbbe 3da6 0d3f 9651 4ebe 2786 96be
00000240: b0b8 5c3e 231f 1dbe 1f43 c6bd a5ec c8be
00000250: dc53 a4be c5a5 363e d1a6 0abf ab75 ddbd
00000260: 737b 1fbe eea4 ddbe 5e51 563e 623c 813e
00000270: 7fd4 2e3e b222 5ebe ea1b d43e f20e 003f
00000280: 2851 a9be 0870 fdbe 823d f03e 1174 bfbe
00000290: 9b00 043e 110a 14bf 58c6 05bf 2975 ce3d
000002a0: d1b9 e1be 60a1 1dbe ee69 d0be 2944 65bd
000002b0: ce1d 0e3f 8537 d63c b9f5 37be 4ef3 053f
000002c0: d1dd b7be 96f2 b43d 7721 9fbe d32d 6dbe
000002d0: 86ea cd3e b278 0e3f b918 bbbd 3325 81be
000002e0: a433 77be d902 8a3e b14e 3bbe 8001 923e
000002f0: f740 fa3e 7b4a d63d e869 5abe 2123 92be
-0.50659686 -0.123982675 0.3425062 -0.090748444 0.24338959 0.20402773 0.34462893 0.12478732
0.10971411 -0.039046846 0.23157041 -0.3323726 0.121457525 0.5226845 0.1112714 -0.16634187
0.43906268 0.31103873 0.21117777 0.46267343 -0.4674159 0.34716985 -0.41038784 -0.33623716
0.43473303 -0.47567537 -0.1424773 0.33353394 0.15144846 -0.06021038 0.3796021 -0.5209854
0.40230706 0.016078664 0.25638252 -0.07153713 0.5159557 -0.12581484 -0.11098607 0.28979754
-0.15701045 -0.36525878 -0.14333571 -0.09936631 0.309766 -0.3123268 0.54224366 -0.16306101
-0.469513 -0.09931556 -0.059688997 0.3648655 0.52295005 0.5879067 -0.07914144 0.42540142
-0.08572532 0.038880337 0.17421594 -0.40350857 0.5743626 -0.25598282 -0.49733916 0.35449982
0.31910554 0.40997955 -0.4148025 0.29969144 0.44744554 0.16723616 0.03257155 -0.39412928
0.4209138 -0.48737067 0.37327448 0.29021335 0.23430213 0.25166056 -0.05841534 -0.57028353
0.3461353 0.33074468 0.35112247 -0.51721525 -0.28095347 -0.10958778 -0.32107013 -0.21248356
0.3723659 0.16297291 0.5688172 -0.17308639 0.59009945 0.13616334 -0.17869389 0.36351898
0.55713326 0.5167082 -0.5349177 -0.0462966 -0.19322263 0.317207 0.45023802 0.083493665
0.33272612 0.2310002 -0.4831586 -0.18633722 0.2089495 -0.34916896 -0.449888 0.25951454
0.46621335 0.5390229 0.04228437 0.06315282 -0.06758731 0.427677 0.437946 0.02673008
-0.55277663 0.16920416 -0.16863438 0.5131097 -0.0531995 0.2218011 -0.4747827 -0.36621767
-0.1959108 -0.39213932 0.28457794 -0.1104038 -0.5421278 -0.34261587 0.3020791 0.13076605
0.03326137 0.35510784 -0.47512692 0.08121303 -0.42852587 0.55331784 -0.2014831 -0.29399225
0.21554828 -0.15343909 -0.09680771 -0.39243045 -0.3209523 0.17836674 -0.5416079 -0.10813459
-0.15574436 -0.43289894 0.20929477 0.2524138 0.17073248 -0.21692923 0.41427547 0.50022805
-0.3306973 -0.49499536 0.46921927 -0.3739324 0.12890856 -0.5782786 -0.52255774 0.1008094
-0.4408708 -0.15393591 -0.40705818 -0.055973206 0.5551423 0.02614952 -0.1796483 0.5232438
-0.3591142 0.08835332 -0.3108022 -0.23162012 0.4021799 0.55652916 -0.09135575 -0.25223693
-0.24140793 0.26955298 -0.18291737 0.2851677 0.4887769 0.10463425 -0.21329463 -0.28542426

conv1d.bias f4 [64]
00000000: b3ff c63e e0b8 553f 64af 673f 5992 83be
00000010: c225 203e b985 0d3f 62cc 0abf 4e71 ec3e
00000020: 45bf 953e bb90 ee3e f216 283f 4ed6 353f
00000030: 8556 ac3e a9a3 1a3e a09e 4c3f 974a 74bd
00000040: 58a7 dbbe 507c 653f 8976 b5be 0c07 79be
00000050: 233e f9be 2235 213f f50d f33e 004a 4a3e
00000060: fcf6 ba3d ce67 343c 47de e8be ae90 a4bd
00000070: daf8 033f dfc2 513d 0518 6c3f e402 313e
00000080: 4148 6cbf baf7 863f 8063 e53e 75b2 973e
00000090: 2d03 113e 3611 863f 1f36 14bf e1d2 3b3f
000000a0: 8227 bcbe 8e6e 3e3f 01a6 453e db6c c23d
000000b0: 5404 283e e9f2 5cbd efde 2dbc ad97 e7bd
000000c0: 3fda bfbe a824 eebe a71c b4be 6db5 453f
000000d0: 6cff b8bc 5243 093e b4e0 063f 01d7 a0be
000000e0: c5e5 9dbd 6188 6cbf 2e2e 0a3f 91de 2bbe
000000f0: 54b8 22bf 52d7 253e e86e 023e 30f3 0a3e
0.38866958 0.8348522 0.90502 -0.25697592 0.15639403 0.5528217 -0.54218113 0.46180195
0.2924749 0.46594796 0.6566001 0.7103013 0.3365976 0.15101494 0.7992954 -0.059641447
-0.4290111 0.8964281 -0.35441998 -0.24319094 -0.4868022 0.629717 0.47471586 0.19754791
0.0912914 0.011011077 -0.45482084 -0.08035408 0.5155159 0.051211234 0.9222415 0.17286259
-0.9229775 1.054435 0.44802475 0.2962834 0.14161368 1.0474002 -0.5789508 0.7336865
-0.36748892 0.74387443 0.19301607 0.09493419 0.16407901 -0.053942595 -0.010612234 -0.11308227
-0.37471196 -0.46512341 -0.3517811 0.7722996 -0.022582732 0.13404587 0.5268662 -0.31414035
-0.07709841 -0.923956 0.53976715 -0.16784121 -0.6356251 0.1619542 0.1273762 0.13569331

fc1.weight f4 [50, 64]
00000000: e9a6 dcbd 6cd8 923c 61fe a4bd 7d29 54bd
00000010: aacc 87bd 3f8c 443d 0c4e ef3d 0f05 fc3c
00000020: cece 833d ee52 e0bd bb1f cd3c a1ff a53d
00000030: 39d3 9f3d e064 3e3d 348f c63d 4ed2 0f3d
00000040: 6065 b7bc 219d c23c 4b7f fcbd 9fab 8b3c
00000050: ed66 7f3c 1789 2ebd 8c9b 943d 09ea d7bc
00000060: ccd9 00bd 515d 0fbe fe98 8c3d a3e0 9cbd
00000070: a4c0 ef3d 2802 97bd 5c61 1f3d c4e0 babd
00000080: c63d 9abd 04cb da3d 6a89 a1bd e7ce 19bd
00000090: 6ed1 84bd 817b bd3d aef1 4e3d 9267 1e3b
000000a0: 1f0b 973d ce4d 07be 8819 d3bc a38d 92bd
000000b0: 1163 9dbd b1bb aabd 0413 b4bd 4b71 713d
000000c0: 8b84 aa3d 17fe b73d e80b 66bd 7b6e debc
000000d0: 6277 29bd 458c fa3d e544 bd3d 7b24 31bc
000000e0: ac4c dabd c689 a7bd 172d 45bd a5ce a2bd
000000f0: c8cd 433d 400d 28bd d58d a93d 095a 7d3d
00000100: 14d3 84bd a469 203e 0f24 003e 4c1a ed3c
00000110: 1953 f43d 5b2f a93d 25d8 a7bd ef7d a8bd
00000120: cd4a 3a3c 54f9 8cbd 2e28 f03d c9e1 ae3d
00000130: 278e da3c 43c2 bb3d 6432 1a3e 7990 0dbe
00000140: d002 16bd 5a43 ba3c ae6a 9ebd b1e9 24bc
00000150: fae0 95bc 67ef 693d cbec 6b3d 2ce4 72bc
00000160: fbda 75bb ae7d abbd 20f9 27bd 0162 463d
00000170: d0b8 0e3d 7c01 103e 11fd 6f3a 239a b53c
00000180: efc7 56bd b96f 8a3b 8f24 853d 1be8 a5bd
00000190: 37f3 c7bd 7e6a 0a3e 7589 43be e9fd 79bc
000001a0: ef99 25bd 7900 60bb 3c33 c7bd bcb4 a8bc
000001b0: 2231 2f3e db08 9a3d 2ada 86bd 09b4 263d
000001c0: 1694 a3bb c31b 0c3e 4819 bebd 44e2 a33d
000001d0: b63f 183d aba9 41bd db5d c43d dfdf c3bc
000001e0: c2db bc3d f629 f1bd 0903 293d ce58 37bd
000001f0: 938f 4abd 2ff1 81bd 30d1 a93d 874d a13d
00000200: 89d6 dabc f97f 2fbd 937d e5bc 3056 fcbd
00000210: b8f9 babd 1cad e83d 702a d0bd 2170 4aba
00000220: 7844 c23d 60c1 acbd c3bd 823d 1500 d4bc
00000230: 6a01 e63d e8ce 483c 232a beba dc13 bfbd
00000240: 427d 95bd 441f c4bd 5926 e3bd 4b59 cb3d
00000250: 3c9f 783a c710 b13d 12fd f6bd 9d8c 39bd
00000260: a440 653d c8c3 80bd 8443 eabc 8031 c7bd
00000270: 807f 913c 08d2 883d 8242 aebc a6da a83d
00000280: 1cdc 803d 6d88 b5bd a6d4 9fbb 8d83 213d
00000290: 5a24 75bd cd53 bc3d 9619 e8bb f641 e7bd
000002a0: 2815 6cbd fcda c73c 7050 0f3d 34f9 2dbd
000002b0: 39ca 053d cb9a 173d ea5f dcbd ecc4 9f3d
000002c0: 0f3d ccba f439 c3bc 6023 28bd 428f d7bd
000002d0: 8365 f3bd 0833 b33c 3723 01be 0207 91bd
000002e0: f086 efbd af0c 9bbd 8698 93bd a92a c03d
000002f0: ec24 b83d b08a aa3d 8aea 963d 52a0 693c
00000300: 2ec9 c23d c5ba 013e db3a b93d 3d96 34be
00000310: 3131 b03c b8a9 bebb 09fd 55bd aa25 003e
00000320: 3748 513d 48b3 0b3e f184 113e e691 ec3d
00000330: 6937 fd3d f279 8fbc 057f 853c f8ae aabd
00000340: 14d0 5c3d 6ae2 84bc f467 eb3c 2784 cebd
00000350: 360c 4c3b 7f52 4ebc a0cb 37bd e4e0 803d
00000360: 6888 ecbc 53cb 223d 0622 923d d833 c9bd
00000370: f07d 10bd 79a6 283d 21f3 233e b231 bd3d
00000380: c387 5fbd 3ccb d33d 75fc 783d 0b5e 673d
00000390: cb3d 8b3d 4f9b 883d 99b5 b0bc 4241 c43d
000003a0: aad3 11bd ec1a 893d 5045 873c 9c07 18be
000003b0: cd51 253e 5454 003e 5fbb b73d b99e 6d3d
000003c0: 6a9f ccbd cd4e 303e b080 593d 2259 853d
000003d0: 1c7e 89bd 0709 09bd 3d0b a6bd dcb5 d3bd
000003e0: b00c 9d3d 6114 8bbd 5fa1 bd3d 7a4e d1bc
000003f0: 9f0e 133d c878 d33c 2b33 343d a6d1 943d
-0.10774023 0.017925464 -0.080563314 -0.05179738 -0.066308334 0.04798531 0.11684808 0.03076413
0.06435929 -0.109533176 0.025039544 0.08105398 0.078039594 0.04648292 0.096952826 0.03511267
-0.022387207 0.023756566 -0.12328967 0.017049609 0.015588504 -0.042611208 0.07256231 -0.026356714
-0.031457707 -0.14000441 0.068651184 -0.076600336 0.11706665 -0.07373458 0.03891121 -0.09124902
-0.075313136 0.106832534 -0.07887538 -0.037550833 -0.06485258 0.09252072 0.050523452 0.002417062
0.07375168 -0.13213274 -0.02576901 -0.07155921 -0.07684911 -0.083365805 -0.087926894 0.058945935
0.08326062 0.08984011 -0.0561637 -0.02715229 -0.041373618 0.122337855 0.09241656 -0.01081192
-0.10659155 -0.08180575 -0.048138704 -0.079495706 0.04780367 -0.04102826 0.082790054 0.061853442
-0.064855725 0.15665299 0.12513755 0.028943203 0.11929912 0.082609855 -0.08195523 -0.08227145
0.011370373 -0.06883493 0.11726414 0.08539159 0.026679112 0.09167912 0.15058285 -0.13824643
-0.036623776 0.022737194 -0.07735191 -0.010065482 -0.018295754 0.057113077 0.05759887 -0.014824908
-0.0037514556 -0.08373581 -0.04100907 0.048433308 0.03484422 0.14063066 0.00091548363 0.022168225
-0.052436765 0.004224744 0.065011136 -0.08100911 -0.097631864 0.13517186 -0.19095404 -0.015258291
-0.040430006 -0.003417997 -0.09726569 -0.020593993 0.17108586 0.0752122 -0.0658458 0.04069904
-0.0049920185 0.13682465 -0.09282166 0.08002141 0.037170134 -0.04728095 0.09588214 -0.023910461
0.09221603 -0.117755815 0.04126266 -0.044762425 -0.04945333 -0.0634483 0.082918525 0.07876115
-0.026713626 -0.042846654 -0.02801398 -0.123211265 -0.09129661 0.11361143 -0.10164344 -0.0007722397
0.09485716 -0.08435321 0.063838504 -0.025878945 0.112307385 0.012256362 -0.0014508407 -0.0932996
-0.07299282 -0.09576276 -0.110912986 0.09929141 0.0009484177 0.08645778 -0.12059988 -0.045300115
0.05596985 -0.06287342 -0.028596647 -0.09726238 0.017760992 0.06680685 -0.021271948 0.08244829
0.062919825 -0.08863912 -0.0048776446 0.039432097 -0.05984912 0.09195671 -0.007083128 -0.11291878
-0.057637364 0.024396412 0.03498882 -0.042473987 0.032663558 0.037012856 -0.10760482 0.07801232
-0.0015582162 -0.023831345 -0.04104936 -0.10525371 -0.11884596 0.02187492 -0.1261109 -0.07081415
-0.11695659 -0.075707786 -0.07206826 0.09383137 0.08991417 0.08327234 0.073689535 0.014259415
0.09511028 0.12668903 0.09044429 -0.17635436 0.021507831 -0.005818572 -0.052243266 0.12514368
0.05109426 0.13642609 0.1421087 0.115512654 0.12364084 -0.017514203 0.01629592 -0.08334154
0.053909376 -0.016221244 0.028736092 -0.100838 0.0031135208 -0.012592911 -0.044871926 0.062928945
-0.028873637 0.039744686 0.07135396 -0.098243415 -0.035276353 0.041174386 0.16010715 0.09237994
-0.05457283 0.10341498 0.060787637 0.05648617 0.067988954 0.06670248 -0.021570968 0.095827594
-0.03560225 0.06694588 0.016512543 -0.14846653 0.16144486 0.12532169 0.08971285 0.058012698
-0.09991343 0.1721756 0.05310124 0.06511141 -0.067135066 -0.033455875 -0.08107612 -0.10337421
0.076684356 -0.06790996 0.09259295 -0.025550116 0.035902616 0.025814429 0.04399411 0.0726655

fc1.bias f4 [50]
00000000: ec31 1dbc 0f83 123f c315 7d3d d7f7 093f
00000010: e265 06bf 40a7 66bd f987 c33d 7671 b43e
00000020: 0630 d03e cb7e 0fbf fcde cb3e c7d2 0e3f
00000030: b95a afbd 827c bd3e 3667 09bf 2aef 04bf
00000040: 80a1 133f 6959 c8be 66c4 c33d fc07 77bd
00000050: 5e33 b63d 6b28 443c 6e14 6f3d 2f24 093f
00000060: 12c7 023f e10e 07bf 74be cdbd ceb8 e83d
00000070: a8ae a0bd 48f2 293d d7b3 c83c 2021 c1bb
00000080: 39f2 dd3e 8054 a53a 4966 ac3d 6ea8 8dbd
00000090: eafd c23e cc85 063d a44f c23e 404e 323b
000000a0: 5a2b 8f3c 99bd a63e 3b9c 0f3f 5e18 edbd
000000b0: c484 00be 7e8c 0f3f 0ff1 de3e 8fa2 ffbe
000000c0: 4b29 e73e 5b15 d83d
-0.009594422 0.5723123 0.06178833 0.538938 -0.5249921 -0.056311846 0.09547419 0.35242814
0.4066164 -0.56052846 0.3981856 0.5579037 -0.08562226 0.37009054 -0.5367311 -0.51927435
0.57668304 -0.39130715 0.095589444 -0.06031035 0.08896516 0.011972527 0.058369093 0.53570837
0.5108501 -0.5275708 -0.10046092 0.11363374 -0.07845813 0.041490823 0.024499817 -0.0058938414
0.43348864 0.0012613684 0.08417947 -0.06916891 0.38084346 0.032842442 0.37951386 0.0027207285
0.017476726 0.32566527 0.56097764 -0.11576913 -0.12550646 0.5607375 0.43543288 -0.4992871
0.45148692 0.10550948

fc2.weight f4 [1, 50]
00000000: 21c6 36bc c611 2b3e 9e3f bebd 18af af3d
00000010: 73d7 cdbd 806d d2bd 2321 eabc b1a7 1a3e
00000020: 3f0a c43d 9664 1dbe 8122 9e3d 4ba5 053e
00000030: 4685 b43d 2113 9b3d 4477 10be 304e 4dbe
00000040: a22e a23d 108b 21be ccf1 113d 7fdc 2e3d
00000050: 2a78 853d 3d72 11be bcdc 06be 12ee 8d3d
00000060: 5199 033e 80d2 b2bd c071 b2bc fcd4 7e3d
00000070: 3b16 cebd 6eea 09be e50a ab3d 3d2d 0abe
00000080: b5f8 273e da5f 6a3c e7cf 803c d8fd 93bd
00000090: 5a90 033e 716d 9abb b974 a43d 42e5 b33d
000000a0: 555a 90bd 3fea f53d ec7c 973d 5d32 e4bc
000000b0: ee4b 97bb f0af 3a3e 9b8e 3d3e 6fe8 d1bd
000000c0: 07fd ef3d b7c8 e3bc
-0.011155636 0.16705999 -0.09289478 0.08578318 -0.10050859 -0.10274792 -0.028580254 0.15103032
0.09572267 -0.15370402 0.07721425 0.13051336 0.088144824 0.07572008 -0.14107996 -0.20049357
0.07919051 -0.15775704 0.035630986 0.04269075 0.0651706 -0.14203735 -0.13170141 0.06930174
0.12851454 -0.08731556 -0.021782756 0.062214836 -0.10062834 -0.13468334 0.08351687 -0.1349382
0.16403468 0.014305079 0.015724136 -0.07226151 0.12848035 -0.0047127535 0.080300756 0.08783962
-0.070484795 0.120075695 0.07396874 -0.027856046 -0.004617206 0.18231177 0.18511431 -0.10249411
0.11718183 -0.02780567
