output/checkpoints/model180.pt (torch, 16914 bytes, 5 tensors)

conv1d.weight f4 [64, 3, 1]
0.13579412 0.091236465 -0.46653104 0.14174096 -0.48490185 -0.23712094 0.36201963 0.52233744
-0.14495976 -0.5681766 -0.30692953 -0.21696521 0.52065283 -0.52497274 -0.12601827 -0.52159095
0.056307543 0.18475552 -0.48353896 -0.37375242 -0.20512323 0.36591277 0.3481063 0.35763735
-0.44058883 0.31010076 -0.44793046 0.33263534 0.5871313 -0.34596553 0.34126323 0.31662437
0.42665502 -0.37169772 0.3527669 0.5254933 -0.16904372 0.07579022 -0.50971615 0.2965732
-0.58620167 -0.40322533 -0.21918552 -0.5088826 -0.33159313 0.30934545 0.06550205 0.2625904
0.092275806 -0.2082053 -0.23371495 -0.18577357 0.43230453 -0.151814 -0.29302055 -0.4085316
0.3949124 0.13940944 -0.38072175 -0.05063493 0.5367607 -0.29236612 -0.13378157 0.37617803
-0.2443403 -0.19186883 0.32485053 -0.4746853 0.5254551 0.56903666 0.16759287 -0.2665908
-0.38920665 0.20893317 0.5802271 0.18718188 0.47061366 0.45319846 0.33925065 -0.02332915
-0.082200706 -0.36780187 0.06292195 0.32444084 0.48275727 -0.53772354 0.5287436 -0.19191855
0.22984333 -0.13785394 0.3543857 0.042959407 0.49160486 -0.22657458 -0.12890407 0.46175757
-0.1514061 -0.26356137 0.43725887 -0.5004444 -0.55100936 -0.053293247 -0.3098146 0.54572964
-0.078614764 0.5229375 -0.36519334 0.011500934 -0.07022352 0.29640123 0.2552271 0.025154138
0.09241554 0.54084426 0.12042316 0.10580292 -0.45710346 0.24878219 -0.44021586 0.4189579
0.3130797 0.064971946 -0.31435588 -0.38785517 0.0718107 0.4072776 -0.3813136 -0.007812723
0.52170503 0.028168822 0.14159322 0.16402388 -0.35022968 0.37362555 0.327684 0.16699737
0.38455376 -0.09293693 -0.27860263 0.33676624 0.25627702 -0.026951896 0.4709958 0.54994535
0.46100494 -0.023173291 0.55205405 -0.049798492 -0.5662358 0.16301173 -0.22095624 0.35298374
-0.3817386 0.47151625 0.07181914 0.41285464 -0.39895833 0.44245622 -0.4038704 0.37551504
0.20857793 -0.39001527 -0.09144908 -0.3190143 -0.4689405 -0.5059724 0.14818034 0.55209917
-0.020263053 0.5225637 -0.27516627 0.0061934018 -0.052495077 -0.042907614 0.33774218 0.11911069
0.1271023 0.06759475 0.012505139 -0.49631235 -0.5360604 0.070889585 -0.05053947 0.0423904
-0.38176227 -0.42013177 -0.44974273 -0.29230872 0.0014372832 0.32713437 -0.36812037 0.035207126
00000000: 9d0d 0b3e 2fda ba3d 28dd eebe 8b24 113e
00000010: 0e45 f8be d5cf 72be a35a b93e e8b7 053f
00000020: 5570 14be 0674 11bf de25 9dbe 212c 5ebe
00000030: 8149 053f 9d64 06bf ef0a 01be fc86 05bf
00000040: bda2 663d 8d30 3d3e 6b92 f7be 7a5c bfbe
00000050: d30b 52be eb58 bb3e fd3a b23e 3e1c b73e
00000060: dc94 e1be 87c5 9e3e 2457 e5be 2e4f aa3e
00000070: 3d4e 163f 6522 b1be 0eba ae3e 971c a23e
00000080: 8772 da3e 2a4f bebe dd9d b43e bb86 063f
00000090: cc19 2dbe e737 9b3d c27c 02bf 71d8 973e
000000a0: 5011 16bf 8d73 cebe 2b72 60be 2146 02bf
000000b0: 93c6 a9be 8762 9e3e f025 863d 4072 863e
000000c0: 19fb bc3d c533 55be f952 6fbe 6d3b 3ebe
000000d0: 0557 dd3e 2175 1bbe ca06 96be 0e2b d1be
000000e0: f531 ca3e 59c1 0e3e f6ed c2be 9366 4fbd
000000f0: 2669 093f 03b1 95be 09fe 08be 689a c03e
00000100: 5834 7abe 4379 44be cf52 a63e f409 f3be
00000110: 3a84 063f 63ac 113f 779d 2b3e 977e 88be
00000120: 1846 c7be 94f2 553e c389 143f 9bac 3f3e
00000130: 46f4 f03e a109 e83e 43b2 ad3e c61c bfbc
00000140: d858 a8bd 8750 bcbe 39dd 803d 1c1d a63e
00000150: f62b f73e 40a8 09bf be5b 073f 4c86 44be
00000160: 0d5c 6b3e 9529 0dbe 0b72 b53e 34f6 2f3d
00000170: a2b3 fb3e 2b03 68be 6eff 03be 7d6b ec3e
00000180: 330a 1bbe 84f1 86be 65e0 df3e 201d 00bf
00000190: f30e 0dbf 054a 5abd 05a0 9ebe f0b4 0b3f
000001a0: c700 a1bd 3bdf 053f 9ffa babe 6a6e 3c3c
000001b0: 59d1 8fbd e7c1 973e 20ad 823e 0d10 ce3c
000001c0: 5c44 bd3d c574 0a3f 6ba0 f63d 34af d83d
000001d0: 7709 eabe c2c0 7e3e f963 e1be a681 d63e
000001e0: fc4b a03e 0310 853d 41f3 a0be f494 c6be
000001f0: 7d11 933d b186 d03e 893b c3be ef00 00bc
00000200: 768e 053f 4dc2 e63c d0fd 103e e0f5 273e
00000210: 4e51 b3be d94b bf3e 32c6 a73e 5c01 2b3e
00000220: 3be4 c43e b855 bebd 01a5 8ebe a06c ac3e
00000230: be36 833e 39ca dcbc 5d26 f13e 38c9 0c3f
00000240: d708 ec3e ead5 bdbc 6a53 0d3f 81f9 4bbd
00000250: d4f4 10bf 8cec 263e 5a42 62be 49ba b43e
00000260: 3e73 c3be 946a f13e ea15 933d af61 d33e
00000270: 4444 ccbe 9f89 e23e 1ac8 cebe 8243 c03e
00000280: 7495 553e 15b0 c7be a849 bbbd d855 a3be
00000290: f818 f0be 6887 01bf 96bc 173e 5f56 0d3f
000002a0: b4fe a5bc bcc6 053f 98e2 8cbe 05f2 ca3b
000002b0: 1405 57bd e5bf 2fbd 8bec ac3e 4ef0 f33d
000002c0: 1b27 023e 1e6f 8a3d 5be2 4c3c a71c febe
000002d0: 413b 09bf 8f2e 913d 7a02 4fbd 8ea1 2d3d
000002e0: 5876 c3be 831b d7be ae44 e6be 7da9 95be
000002f0: 3963 bc3a 287e a73e 467a bcbe 5935 103d

conv1d.bias f4 [64]
-0.25052342 -0.007671382 -0.28802043 0.21743281 0.23242787 -0.442834 0.5206616 -1.2555403
0.50224 0.93000805 0.51142895 0.508045 -0.18030572 -0.59041977 -0.5001444 1.1135374
0.074078485 -1.2275935 0.060317285 -0.64305776 0.4685681 -0.6605442 0.25624838 -0.7915086
0.88477963 -0.08048228 0.92448974 0.9254041 0.5153046 -0.35350728 1.1725225 0.73796225
0.47576502 -0.34751984 -0.055164427 0.05134763 0.94786924 1.306601 -0.24064052 0.8484761
-1.0812609 0.8254162 1.1261333 0.92046565 0.50758785 -0.64799064 -0.07022665 0.89576244
0.21091753 0.6894285 -0.36526778 0.9181181 0.30023354 -0.7687148 0.09461664 0.8657099
0.20611082 -0.43982613 1.080407 0.65193176 -0.54827607 0.38663697 -0.3936112 0.25194687
00000000: 9b44 80be 3760 fbbb 6a77 93be b5a6 5e3e
00000010: 9201 6e3e 23bb e2be 144a 053f 8bb5 a0bf
00000020: cd92 003f 0215 6e3f 02ed 023f 3d0f 023f
00000030: 10a2 38be c025 17bf 7709 00bf 6588 8e3f
00000040: 76b6 973d c921 9dbf 420f 773d 6f9f 24bf
00000050: 28e8 ef3e 6d19 29bf fd32 833e 4fa0 4abf
00000060: eb80 623f e5d3 a4bd 5cab 6c3f 48e7 6c3f
00000070: 01eb 033f e8fe b4be 3815 963f 18eb 3c3f
00000080: 7997 f33e 1fee b1be 18f4 61bd e451 523d
00000090: 8fa7 723f b43e a73f 786a 76be bb35 593f
000000a0: c266 8abf 7a4e 533f 2325 903f a3a3 6b3f
000000b0: 47f1 013f b7e2 25bf fdd2 8fbd b050 653f
000000c0: c4fa 573e 637e 303f 6104 bbbe ca09 6b3f
000000d0: 36b8 993e 7eca 44bf 5ec6 c13d 2a9f 5d3f
000000e0: b70e 533e e430 e1be c74a 8a3f 00e5 263f
000000f0: d25b 0cbf 48f5 c53e 6887 c9be 2eff 803e

fc1.weight f4 [50, 64]
0.071978 -0.01411703 0.07004886 -0.048581615 0.048019107 0.02232797 -0.055220857 0.03263513
-0.08224411 -0.12932976 0.093057156 -0.0940961 0.08889975 -0.012744468 0.09047234 0.062309835
0.111581415 0.15842105 -0.07769226 0.13646415 0.09944448 0.07156778 0.07176782 0.0012783357
0.092659354 0.019464968 -0.12975548 -0.11263172 0.09361634 -0.13016075 0.02756987 -0.011207916
-0.1511223 -0.10816865 0.014470679 -0.10041695 -0.07692506 0.058576185 0.012044355 -0.022816245
0.012969962 0.06742202 -0.0948751 -0.040572207 0.006054472 0.034095004 -0.021831429 -0.07714511
0.037961945 -0.12358889 -0.09241742 -0.1326908 -0.04151124 0.061470706 -0.007943854 -0.11317978
-0.049275983 0.03450936 0.054064568 -0.090772584 -0.007990673 0.007063323 -0.038386002 -0.011070825
-0.057896774 0.06919241 0.06284353 0.085364744 0.00081704435 -0.082671605 -0.11845189 0.02174779
-0.15732192 0.018431151 -0.062240392 0.0915438 0.09673882 -0.05010582 -0.06265114 0.07658207
-0.07545818 0.23370567 -0.02199368 0.13184363 0.009448167 0.17956479 0.08472064 0.0972205
0.054082908 0.07929117 0.01437484 -0.1654872 -0.0057941712 0.07355432 -0.1079615 -0.07241159
-0.23241304 0.08311254 -0.01650266 0.05750478 -0.07629513 0.06157821 -0.040187154 -0.010355463
0.087656744 -0.06984516 -0.013101816 -0.14957856 -0.07665835 0.010360094 0.09238718 -0.117529236
0.058230918 0.05450526 0.101105906 0.0731243 0.17875645 0.023908937 -0.08806431 -0.13130239
-0.048152708 0.01484482 0.017228864 -0.110331684 0.02483502 -0.06758509 0.006705746 -0.05345628
0.09315147 0.054531127 0.102978535 -0.073278114 0.0037350953 -0.04749757 0.05935052 0.009245152
-0.012728657 0.04586524 -0.06966273 0.1187463 -0.07777724 0.06914404 -0.042240784 0.100143686
-0.0083257705 -0.06853864 0.06652789 0.03581214 0.030952781 -0.017447144 -0.04629229 -0.11846194
-0.028198095 -0.09340211 0.0072570993 0.024644306 -0.11010826 -0.08613075 -0.07423064 0.11210249
-0.0016829462 0.07177532 -0.12027567 -0.0162234 -0.117990986 -0.037045814 -0.109548375 0.061820585
-0.094983496 0.004738054 0.046189763 -0.022796541 0.08408459 0.05093086 -0.030158876 -0.004381524
-0.059744343 -0.119038254 0.06833411 0.05916462 0.102931686 -0.14847554 -0.06341989 -0.06970364
-0.06244336 0.02544862 0.12298324 -0.091549315 -0.0836608 -0.124764234 -0.085340396 -0.06945379
-0.11689985 -0.009107725 -0.13021737 0.0187978 -0.07279852 -0.057169717 -0.0065406263 -0.09439653
0.11773616 0.021250052 -0.020960834 -0.07144055 0.078212306 -0.044739112 0.0022951812 0.068436116
-0.03934644 -0.09342364 0.030707425 0.050245237 -0.112156 0.10661823 0.038774878 -0.19634824
0.009436213 0.10476454 0.05615445 0.07355431 0.07288884 -0.12346935 -0.08625618 -0.0344408
-0.004387741 -0.119673386 -0.122603424 0.10065607 -0.117235504 -6.472559e-06 0.015204206 0.033914432
0.09989251 -0.12662013 -0.011666446 -0.04162083 -0.100222446 0.05363625 0.04653188 0.09190167
-0.002289856 0.027398225 0.06575804 0.011569913 0.07474129 -0.04647336 -0.06976196 -0.020226635
-0.06725672 -0.110944256 -0.0026840568 -0.04288674 0.022292973 -0.08976233 -0.1072527 -0.044984482
00000000: 3469 933d 1e4b 67bc c775 8f3d 84fd 46bd
00000010: afaf 443d 26e9 b63c 442f 62bd 6aac 053d
00000020: 9a6f a8bd 056f 04be c094 be3d 75b5 c0bd
00000030: 1211 b63d 2cce 50bc 9049 b93d 9938 7f3d
00000040: cc84 e43d 2139 223e 1f1d 9fbd 42bd 0b3e
00000050: 8ca9 cb3d 2192 923d 02fb 923d d48d a73a
00000060: 30c4 bd3d ff74 9f3c 9fde 04be 76ab e6bd
00000070: ecb9 bf3d dc48 05be 35da e13c 68a1 37bc
00000080: cebf 1abe 8687 ddbd 6d16 6d3c 67a7 cdbd
00000090: e38a 9dbd 95ed 6f3d b055 453c 22e9 babc
000000a0: f77f 543c 8e14 8a3d e04d c2bd 0b2f 26bd
000000b0: 9864 c63b 34a7 0b3d d3d7 b2bc 41fe 9dbd
000000c0: fc7d 1b3d 2c1c fdbd 5845 bdbd 19e0 07be
000000d0: b107 2abd b5c8 7b3d f026 02bc cdca e7bd
000000e0: 9dd5 49bd b059 0d3d cf72 5d3d fae6 b9bd
000000f0: 50eb 02bc 7373 e73b a43a 1dbd 6862 35bc
00000100: 2b25 6dbd c0b4 8d3d 1cb4 803d b6d3 ae3d
00000110: eb2e 563a bb4f a9bd e896 f2bd 6c28 b23c
00000120: ff18 21be edfc 963c c8ef 7ebd 517b bb3d
00000130: 011f c63d c33b 4dbd 3e4f 80bd 0fd7 9c3d
00000140: d189 9abd 8a50 6f3e 172c b4bc 0402 073e
00000150: 7ccc 1a3c d5df 373e 0482 ad3d 8b1b c73d
00000160: 0a86 5d3d 6963 a23d 7384 6b3c 7a75 29be
00000170: 08dd bdbb a6a3 963d eb1a ddbd 874c 94bd
00000180: affd 6dbe e836 aa3d 9630 87bc 228a 6b3d
00000190: 9f40 9cbd 6f39 7c3d 499b 24bd f6a9 29bc
000001a0: 6185 b33d fb0a 8fbd 00a9 56bc 1f2b 19be
000001b0: 0eff 9cbd 62bd 293c 7d35 bd3d 2bb3 f0bd
000001c0: 8b83 6e3d e840 5f3d 9d10 cf3d 31c2 953d
000001d0: ee0b 373e addc c33c 105b b4bd 2274 06be
000001e0: c63b 45bd b037 733c 8c23 8d3c 94f5 e1bd
000001f0: d072 cb3c 0d6a 8abd e0bb db3b f9f4 5abd
00000200: 33c6 be3d 085c 5f3d 69e6 d23d d612 96bd
00000210: 80c8 743b d08c 42bd 8819 733d fa78 173c
00000220: db8b 50bc 31dd 3b3d 55ab 8ebd 4331 f33d
00000230: ac49 9fbd 649b 8d3d ac04 2dbd 2218 cd3d
00000240: d068 08bc fd5d 8cbd c63f 883d c0af 123d
00000250: b090 fd3c 50ed 8ebc fc9c 3dbd 2c9c f2bd
00000260: b1ff e6bc 9b49 bfbd f6cc ed3b dbe2 c93c
00000270: 7080 e1bd 5265 b0bd 3c06 98bd fe95 e53d
00000280: 4e96 dcba f0fe 923d 1753 f6bd f0e6 84bc
00000290: 42a5 f1bd 5abd 17bd e65a e0bd 9537 7d3d
000002a0: b586 c2bd ad41 9b3b 7a31 3d3d d0bf babc
000002b0: 8b34 ac3d e19c 503d bf0f f7bc e392 8fbb
000002c0: 7cb6 74bd 54ca f3bd c1f2 8b3d 9a56 723d
000002d0: d9cd d23d f909 18be 4ae2 81bd c8c0 8ebd
000002e0: 9cc4 7fbd a079 d03c a3de fb3d 357e bbbd
000002f0: 5a56 abbd 6484 ffbd f2c6 aebd ca3d 8ebd
00000300: 3069 efbd 9138 15bc b457 05be d8fd 993c
00000310: 6417 95bd cb2a 6abd c052 d6bb f852 c1bd
00000320: a81f f13d 9714 ae3c 0eb6 abbc 6c4f 92bd
00000330: c62d a03d 5c40 37bd c06a 163b 3c28 8c3d
00000340: bc29 21bd e554 bfbd 238e fb3c f3cd 4d3d
00000350: 0cb2 e5bd a95a da3d 68d2 1e3d 830f 49be
00000360: 599a 1a3c cb8e d63d 3502 663d a4a3 963d
00000370: bf46 953d 80dd fcbd 15a7 b0bd cc11 0dbd
00000380: 0ac7 8fbb 5217 f5bd 8117 fbbd c524 ce3d
00000390: 2b19 f0bd dc2e d9b6 101b 793c dce9 0a3d
000003a0: 7294 cc3d b5a8 01be 9f24 3fbc 9a7a 2abd
000003b0: 6d41 cdbd afb1 5b3d 3698 3e3d f136 bc3d
000003c0: 6911 16bb 3e72 e03c 27ac 863d bb8f 3d3c
000003d0: f611 993d da5a 3ebd 5cdf 8ebd 54b2 a5bc
000003e0: e4bd 89bd be36 e3bd 00e7 2fbb 02aa 2fbd
000003f0: c19f b63c 50d5 b7bd 4ea7 dbbd a641 38bd

fc1.bias f4 [50]
-0.7966765 -0.6768257 0.014713798 -0.1280103 -0.11195445 -0.9394983 0.8564809 -0.06704872
0.8368581 0.19091193 0.051718757 0.696073 -0.71617 0.086626686 -0.8398991 0.47175807
-0.12774006 0.71033365 -0.6814629 -0.61601883 -0.111708 0.77854586 0.7070041 -0.8019031
0.8323066 0.018395398 -0.094839744 -0.10914737 -0.82630605 0.6738901 0.8558926 0.77755404
-0.11824055 -0.08112009 -0.48063487 -0.07922547 0.657364 -0.04035361 0.8521386 0.020636272
0.81509465 0.107973725 -0.05700435 -0.023132622 0.7289287 -0.11764269 0.7797768 0.78882647
-0.74909395 0.0014598075
00000000: fef2 4bbf 7344 2dbf 2412 713c 2215 03be
00000010: 6048 e5bd f682 70bf 5542 5b3f d750 89bd
00000020: 553c 563f 6b7e 433e 0cd7 533d d731 323f
00000030: eb56 37bf 5569 b13d a103 57bf 468a f13e
00000040: 4ace 02be 6dd8 353f 5a74 2ebf 69b3 1dbf
00000050: 2ac7 e4bd c84e 473f 38fe 343f 8649 4dbf
00000060: 0c12 553f f2b1 963c 573b c2bd a888 dfbd
00000070: cb88 53bf 1084 2c3f c71b 5b3f c80d 473f
00000080: 1a28 f2bd 4a22 a6bd c615 f6be f740 a2bd
00000090: 0249 283f d449 25bd c125 5a3f 660d a93c
000000a0: 0baa 503f 5421 dd3d 657d 69bd a080 bdbc
000000b0: 129b 3a3f a7ee f0bd 749f 473f 88f0 493f
000000c0: 9fc4 3fbf 0357 bf3a

fc2.weight f4 [1, 50]
-0.17677878 -0.1482033 0.08538641 -0.03534592 -0.03400771 -0.19650993 0.1501866 0.06923885
0.16401872 0.13722129 0.083012335 0.14027973 -0.16932842 -0.022981185 -0.14498971 0.106419526
0.024028374 0.12546888 -0.118355095 -0.26219463 -0.07737388 0.10059315 0.15322247 -0.14631374
0.058850404 -0.0436955 -0.1412551 -0.048513144 -0.2540251 0.17025396 0.15101847 0.15224223
-0.12964924 -0.032126352 -0.11507297 -0.20451641 0.07448189 -0.041259203 0.17648788 -0.089884154
0.13318394 0.019211411 -0.051785883 0.13351566 0.15597285 -0.049246907 0.1875067 0.054618552
-0.086315036 0.14388672
00000000: 7f05 35be 9bc2 17be 12df ae3d e2c6 10bd
00000010: ab4b 0bbd e639 49be 84ca 193e 19cd 8d3d
00000020: 86f4 273e bd83 0c3e 5f02 aa3d 7da5 0f3e
00000030: 6e64 2dbe 0a43 bcbc 2f78 14be 7bf2 d93d
00000040: 27d7 c43c ea7a 003e 2864 f2bd 603e 86be
00000050: 3276 9ebd c803 ce3d 5ae6 1c3e 45d3 15be
00000060: 1f0d 713d 0dfa 32bd 2da5 10be b8b5 46bd
00000070: 940f 82be 0e57 2e3e 96a4 1a3e 63e5 1b3e
00000080: c5c2 04be ec96 03bd 61ab ebbd c06c 51be
00000090: f689 983d 69ff 28bd 3db9 343e 2f15 b8bd
000000a0: 5f61 083e 4061 9d3c 6f1d 54bd 54b8 083e
000000b0: 59b7 1f3e 20b7 49bd c201 403e b4b7 5f3d
000000c0: f0c5 b0bd 0a57 133e
