output/checkpoints/model80.pt (torch, 16712 bytes, 5 tensors)

conv1d.weight f4 [64, 3, 1]
000000 8f 16 ff 3d 81 18 d5 3d 33 50 f0 be 8f 98 10 3e
       0.124554746 0.104050644 -0.46936187 0.14120696
000010 63 01 00 bf cc 20 67 be f6 75 b9 3e ad 69 03 3f
       -0.50002116 -0.22571105 0.3622281 0.51333123
000020 ef ce 0e be 06 74 11 bf de 25 9d be 21 2c 5e be
       -0.13946126 -0.5681766 -0.30692953 -0.21696521
000030 47 e0 05 3f 66 9a 07 bf bb 0d ff bd 45 ff 08 bf
       0.52295345 -0.5296997 -0.12453791 -0.5351451
000040 b3 1b 90 3d 54 64 37 3e 6b 92 f7 be 7a 5c bf be
       0.07036533 0.17909366 -0.48353896 -0.37375242
000050 d3 0b 52 be 40 79 bc 3e bf ad b3 3e 64 59 b9 3e
       -0.20512323 0.36811256 0.35093495 0.36201012
000060 74 46 ef be de 07 93 3e bb 22 de be 29 c2 ab 3e
       -0.4673344 0.2871694 -0.43385872 0.3354657
000070 5b 33 16 3f 21 85 b0 be bd 21 b6 3e cf 8b a8 3e
       0.5867211 -0.3447657 0.35572615 0.32919165
000080 32 2e e0 3e f5 c3 b9 be 7e 80 b5 3e 02 20 07 3f
       0.43785244 -0.36282316 0.35449594 0.52783215
000090 cc 19 2d be e7 37 9b 3d c2 7c 02 bf 61 1b a5 3e
       -0.16904372 0.07579022 -0.50971615 0.3224745
0000a0 b4 3c 0c bf 70 dc c1 be 2b 72 60 be 21 46 02 bf
       -0.54780126 -0.37863493 -0.21918552 -0.5088826
0000b0 93 c6 a9 be f8 46 9f 3e af 62 8c 3d d5 6f 87 3e
       -0.33159313 0.31108832 0.0685476 0.2645251
0000c0 b9 bf 92 3d 1c 08 4b be 26 11 83 be 1d 3b 3f be
       0.071654744 -0.19827312 -0.2559902 -0.18674894
0000d0 4b a4 df 3e 1a 16 15 be f9 82 97 be 66 4a cb be
       0.43680033 -0.14559212 -0.29592112 -0.397052
0000e0 67 d9 c7 3e f7 d3 22 3e b6 79 af be d5 68 20 bd
       0.39033052 0.1590117 -0.34272546 -0.039162476
0000f0 99 85 09 3f 90 a1 95 be d2 be 0a be a5 e5 c1 3e
       0.5371948 -0.29224825 -0.13549355 0.37870517
000100 83 10 81 be 64 23 45 be 64 e4 aa 3e 43 9c f0 be
       -0.2520791 -0.19251782 0.33377373 -0.46994218
000110 51 05 08 3f c5 7d 12 3f bb 7d 30 3e 73 a3 89 be
       0.5313311 0.5722316 0.17235462 -0.26882514
000120 54 f5 c6 be ff de 55 3e 34 72 14 3f 73 74 7e 3e
       -0.38859046 0.20885848 0.5798676 0.2484911
000130 64 03 04 3f 8c 98 00 3f fa d5 b0 3e 90 45 b7 bc
       0.51567674 0.5023277 0.3453825 -0.022372037
000140 cb 7f 9c bd eb fc ba be 9c 1f 82 3d a8 b0 a3 3e
       -0.07641562 -0.36521086 0.06353685 0.31970716
000150 b8 3a f9 3e 2f 98 0a bf f0 a6 06 3f 43 44 41 be
       0.4867761 -0.54138464 0.52598476 -0.18873696
000160 64 4b 65 3e bb cf 07 be bd d9 b6 3e ba e9 3a 3d
       0.2239204 -0.13262837 0.35712996 0.045633055
000170 ed a4 fb 3e 71 fe 5f be 19 51 f7 bd a0 95 ed 3e
       0.49149266 -0.21874405 -0.12076015 0.46403217
000180 9d ba 21 be 0b e0 85 be 9f f0 e1 3e 20 1d 00 bf
       -0.15793844 -0.26147494 0.44128892 -0.5004444
000190 f3 0e 0d bf 05 4a 5a bd f6 4c a3 be 84 b9 08 3f
       -0.55100936 -0.053293247 -0.31894654 0.53408074
0001a0 0e 03 90 bd 92 79 07 3f cc aa b7 be e4 6a ac 3c
       -0.07031833 0.52919877 -0.35872495 0.021047063
0001b0 e1 85 8d bd 6c 53 98 3e cc d5 81 3e 4b 84 fd 3c
       -0.06910301 0.29751146 0.25358427 0.030946871
0001c0 68 66 c7 3d 30 bd 0b 3f 94 a5 d5 3d d1 9c 03 3e
       0.09736329 0.5458555 0.10431972 0.1285279
0001d0 41 ef e6 be 5d 5d 81 3e 82 e1 df be d1 14 d7 3e
       -0.4510441 0.25266543 -0.43726736 0.4200807
0001e0 1f 37 a1 3e 76 17 85 3d 89 3d a5 be 38 43 c8 be
       0.31487367 0.064986154 -0.3227351 -0.39113784
0001f0 c5 d6 93 3d c3 1c ce 3e f6 3e c2 be 78 22 ba bb
       0.072186984 0.40256318 -0.3793866 -0.0056803785
000200 af 97 04 3f 14 22 05 3d 6a 3c 15 3e 1c 6b 29 3e
       0.5179395 0.032503203 0.14573827 0.16544765
000210 bc d8 b1 be 72 13 c5 3e c2 e7 b5 3e 7f 67 2b 3e
       -0.34735668 0.38491398 0.3552838 0.167387
000220 b6 3a c8 3e 6c c6 c3 bd 30 e2 6a be f1 de bd 3e
       0.39107293 -0.0955933 -0.22937846 0.37084153
000230 b0 7e 99 3e 17 ca af bc 87 c5 f1 3e 04 74 0e 3f
       0.29979467 -0.021458669 0.47221014 0.55645776
000240 3d 73 ee 3e 77 1e 82 bc 78 69 0e 3f 23 08 8d bd
       0.46572295 -0.015883667 0.5562968 -0.068863176
000250 32 e4 08 bf cf 94 24 3e 07 05 49 be f8 6a b4 3e
       -0.534732 0.16072391 -0.19630824 0.3523786
000260 ce 79 d2 be a4 a6 f2 3e 61 9f 95 3d 59 ad d3 3e
       -0.41108555 0.47392762 0.0730579 0.4134319
000270 44 70 d5 be 56 30 d8 3e 86 e1 df be 34 fb c0 3e
       -0.41687214 0.42224377 -0.43726748 0.37691653
000280 bc 7e 53 3e 89 10 c8 be a8 49 bb bd d8 55 a3 be
       0.20653814 -0.39075115 -0.09144908 -0.3190143
000290 f8 18 f0 be ea f0 00 bf dc b8 1a 3e cd d4 0c 3f
       -0.4689405 -0.50367606 0.15109581 0.5501221
0002a0 8c 21 a7 bc ec 4a 05 3f 2a 0c 8c be 05 f2 ca 3b
       -0.020401739 0.52067447 -0.2735303 0.0061934018
0002b0 14 05 57 bd e5 bf 2f bd 67 05 b0 3e d7 8a fe 3d
       -0.052495077 -0.042907614 0.34379122 0.12428825
0002c0 05 93 07 3e 23 95 4d 3d ce 2d 53 3c 7c c1 ff be
       0.13239677 0.050191056 0.012889339 -0.49952304
0002d0 41 3b 09 bf 8f 2e 91 3d 7a 02 4f bd 76 00 21 3d
       -0.5360604 0.070889585 -0.05053947 0.03930708
0002e0 58 91 b9 be ca 08 da be ae 44 e6 be 7d a9 95 be
       -0.362437 -0.4258483 -0.44974273 -0.29230872
0002f0 39 63 bc 3a 62 bc a7 3e 92 7c ba be 74 e1 05 3d
       0.0014372832 0.32760912 -0.36423165 0.032685712

conv1d.bias f4 [64]
000000 d0 2d 20 be b0 10 05 3d b4 7a 48 be b5 a6 5e 3e
       -0.15642476 0.032486618 -0.19578058 0.21743281
000010 c8 80 a5 3e 1f 0e d4 be 14 4a 05 3f 97 50 90 bf
       0.32324815 -0.41417024 0.5206616 -1.1274594
000020 a9 57 ed 3e 84 d0 54 3f 0c 13 f8 3e 69 c0 cc 3e
       0.46355942 0.8313067 0.48452032 0.39990547
000030 10 a2 38 be ae ff 09 bf 77 09 00 bf 6a 75 77 3f
       -0.18030572 -0.5390576 -0.5001444 0.96663535
000040 4f dc 81 3d 15 a8 8e bf 06 75 83 3c db fd 18 bf
       0.06340849 -1.1145045 0.016047012 -0.5976235
000050 e4 16 c6 3e a4 a4 04 bf 97 b7 4d 3e 65 3d 24 bf
       0.3868934 -0.5181372 0.20089565 -0.6415618
000060 86 53 4e 3f 2c 03 8a 3b 1e 07 5c 3f 26 dd 75 3f
       0.80596197 0.004211804 0.8594836 0.9604057
000070 65 ac d2 3e 05 0a ac be e2 fa 87 3f 25 52 34 3f
       0.41147152 -0.33601394 1.0623438 0.7043784
000080 7f af fe 3e 1f ee b1 be f0 7f 59 be f5 ae 6b 3d
       0.49743268 -0.34751984 -0.2124021 0.0575399
000090 73 c0 54 3f 1d 42 9a 3f e6 8b 17 be e9 49 48 3f
       0.83106154 1.2051426 -0.14799461 0.7823778
0000a0 f0 4e 72 bf 78 0d 42 3f d2 66 89 3f 8a 83 55 3f
       -0.946517 0.758018 1.0734503 0.8340384
0000b0 8e 01 ab 3e 72 de f3 be de 12 35 bc 6d 6a 39 3f
       0.33399624 -0.4763065 -0.011051862 0.7242802
0000c0 24 b0 0a 3e 30 bb 25 3f f5 d0 ab be 09 a9 4d 3f
       0.13543755 0.6473875 -0.3355786 0.8033605
0000d0 1e cd ad 3e 9f 58 2c bf 5e c6 c1 3d 2f 41 3f 3f
       0.33945554 -0.67322725 0.09461664 0.7470884
0000e0 f6 c8 d2 3d e4 30 e1 be ce 4f 7a 3f 16 97 14 3f
       0.102922365 -0.43982613 0.9777802 0.5804304
0000f0 d2 5b 0c bf af 87 c3 3e 68 87 c9 be ab 51 14 3e
       -0.54827607 0.38189456 -0.3936112 0.14484279

fc1.weight f4 [50, 64]
000000 64 31 b4 3c 0f be 45 bd bd 70 90 3d 84 fd 46 bd
       0.021996208 -0.048276957 0.07052753 -0.048581615
000010 8e a2 d3 3c 26 e9 b6 3c 44 2f 62 bd 4c 16 ef 3c
       0.025834348 0.02232797 -0.055220857 0.029185437
000020 9a 6f a8 bd 11 5a fd bd 53 52 bd 3d 04 ad c0 bd
       -0.08224411 -0.123706944 0.09244218 -0.09408
000030 12 11 b6 3d c1 4b 93 bc 90 49 b9 3d 21 10 82 3d
       0.08889975 -0.017980458 0.09047234 0.063507326
000040 bd 46 ba 3d 8b 2c 1c 3e a3 9a 49 bc 87 62 e8 3d
       0.090955235 0.15251367 -0.012304935 0.113469176
000050 1f 81 b7 3d 1a aa 65 3d 3d e3 84 3d bd 55 0e b9
       0.08960175 0.056070425 0.06488655 -0.00013574115
000060 62 d7 be 3d 71 99 94 3c ac 20 fe bd 6d 6d c1 bd
       0.09318425 0.018139573 -0.124085754 -0.094446994
000070 2b 93 b4 3d 44 d9 2b be 58 27 e2 3c 32 a8 4f bc
       0.088171326 -0.16782099 0.027606651 -0.012674378
000080 07 7d 09 be 86 87 dd bd 82 15 db 3c 44 5b e2 bd
       -0.134266 -0.10816865 0.026743654 -0.11052564
000090 53 9f 98 bd 6a 91 73 3d 95 55 32 bd 4b 6a d1 bc
       -0.07452264 0.05946485 -0.04353865 -0.02556338
0000a0 eb aa da 3c 71 4f 94 3d fe de b9 bd 98 e0 17 bd
       0.026692828 0.07241715 -0.090757355 -0.037079424
0000b0 2d 05 06 3c 52 a3 08 3d 3d 72 b9 bc 5c dd 9d bd
       0.008179945 0.03335888 -0.02263748 -0.077082366
0000c0 62 89 11 3d 5d 20 e1 bd 2f 82 b0 bd e6 3b 08 be
       0.03553141 -0.10992501 -0.086185805 -0.133041
0000d0 88 d4 fc bc de bb 84 3d f0 26 02 bc 7b 87 e4 bd
       -0.030863062 0.06481145 -0.007943854 -0.11158653
0000e0 5f 0d 28 bd b0 59 0d 3d 46 08 66 3d 4c b6 a0 bd
       -0.041028377 0.03450936 0.056160234 -0.0784727
0000f0 50 eb 02 bc a9 a1 52 3c a4 3a 1d bd 55 a5 bf bc
       -0.007990673 0.012855926 -0.038386002 -0.023394266
000100 67 cb 51 bd 3b 1e 6b 3d df f3 78 3d b6 d3 ae 3d
       -0.05121937 0.057401877 0.06077945 0.085364744
000110 13 37 4e bc bb 4f a9 bd e8 96 f2 bd c9 b3 8d 3c
       -0.012586373 -0.082671605 -0.11845189 0.017297642
000120 87 f9 e8 bd 98 3d a3 3c ee 7c 83 bd 4a fd b3 3d
       -0.113757186 0.019926831 -0.06420313 0.087885454
000130 01 1f c6 3d 9d 41 34 bd 3e 4f 80 bd 10 7b 9d 3d
       0.09673882 -0.044007886 -0.06265114 0.07689488
000140 a3 92 a3 bd 3d 58 55 3e a3 52 11 3c ef 39 ed 3d
       -0.07986953 0.20834441 0.0088698 0.115833156
000150 61 d4 91 bb 46 9a 30 3e a6 cc a7 3d f2 e5 c2 3d
       -0.0044503664 0.1724635 0.081933305 0.09516515
000160 99 cd 51 3d bc 1f 9c 3d cd 0b a1 3c bb e6 21 be
       0.051221464 0.0762324 0.019658947 -0.15810673
000170 25 b3 f4 bb ca ff e1 3c f3 4b de bd b6 08 91 bd
       -0.0074676448 0.02758779 -0.1085433 -0.070817396
000180 c0 57 49 be e8 36 aa 3d 21 19 b2 bc a8 56 3e 3d
       -0.1966238 0.08311254 -0.021740498 0.04646936
000190 1d 07 9e bd 48 3b 7a 3d f8 69 e6 bc b8 7d 07 bc
       -0.077162005 0.06109169 -0.028126702 -0.00826972
0001a0 32 45 da 3d 1e 5f 8e bd 52 9a 30 bc 91 35 18 be
       0.10657729 -0.06951736 -0.01077898 -0.14864184
0001b0 82 47 a3 bd 93 bf dc 3b b1 f8 b2 3d 1a 65 f5 bd
       -0.079726234 0.0067367046 0.0873884 -0.11982174
0001c0 cb 7c 64 3d 12 a0 a3 3d de 77 d8 3d 50 e6 93 3d
       0.055783074 0.07989515 0.10569738 0.07221663
0001d0 97 e1 1a 3e 37 19 bc 3c 10 5b b4 bd bf eb 08 be
       0.15125118 0.022961242 -0.08806431 -0.1337118
0001e0 dd ee 51 bd b0 37 73 3c 6a 4a 94 3c 9b 2d 20 bd
       -0.05125319 0.01484482 0.01810189 -0.039105993
0001f0 d0 72 cb 3c d6 19 7d bd e0 bb db 3b b4 13 8b bd
       0.02483502 -0.061792217 0.006705746 -0.067908674
000200 e9 9b c6 3d 08 5c 5f 3d d3 bd d9 3d d6 12 96 bd
       0.09697706 0.054531127 0.10631909 -0.073278114
000210 80 c8 74 3b 78 58 3d bd 88 19 73 3d 6e 66 0a 3d
       0.0037350953 -0.04622695 0.05935052 0.03378909
000220 ad c9 34 bc 4f 81 49 3d 7c 15 88 bd 94 8e f9 3d
       -0.011034411 0.049195584 -0.06644723 0.12185398
000230 ac 49 9f bd 64 9b 8d 3d ac 04 2d bd e3 9e d3 3d
       -0.07777724 0.06914404 -0.042240784 0.103330396
000240 d0 68 08 bc 6e e1 33 bd c6 3f 88 3d c0 af 12 3d
       -0.0083257705 -0.04391616 0.06652789 0.03581214
000250 b0 90 fd 3c 50 ed 8e bc ac 68 38 bd dc 78 c2 bd
       0.030952781 -0.017447144 -0.045021698 -0.09495708
000260 78 6c ce bc 9d b6 b8 bd ee dc 2c 3c 38 05 e0 3c
       -0.025198206 -0.09019206 0.010550721 0.027346238
000270 70 80 e1 bd 11 8e a9 bd 8c 95 91 bd 26 c6 b8 3d
       -0.11010826 -0.0827905 -0.07108602 0.09022169
000280 00 2c d8 b9 f0 fe 92 3d d3 a4 ef bd f0 e6 84 bc
       -0.00041231513 0.07177532 -0.117013596 -0.0162234
000290 33 25 eb bd 93 2a 0b bd a4 1a dd bd f0 35 81 3d
       -0.114817046 -0.03397615 -0.10796097 0.06309116
0002a0 ed 11 ba bd b3 71 f0 3b 8c dc 44 3d a4 d0 a0 bc
       -0.0908545 0.0073377728 0.048061892 -0.019630738
0002b0 eb a5 b2 3d f1 2e 5e 3d 59 26 dd bc 2f 6d 9d ba
       0.087230526 0.054243986 -0.026995825 -0.0012010689
0002c0 43 1b 68 bd 54 ca f3 bd 58 ad 8f 3d fd 6d 7f 3d
       -0.056666624 -0.119038254 0.070154846 0.062360752
0002d0 26 97 d9 3d f2 f2 ff bd 4a e2 81 bd 14 07 89 bd
       0.106245324 -0.1249751 -0.06341989 -0.06690803
0002e0 f5 24 72 bd a0 79 d0 3c 4f 3f 01 3e 42 11 b8 bd
       -0.059117276 0.02544862 0.12621807 -0.08987667
0002f0 5a 56 ab bd 64 84 ff bd f2 c6 ae bd ca 3d 8e bd
       -0.0836608 -0.124764234 -0.085340396 -0.06945379
000300 30 69 ef bd 91 38 15 bc 58 61 05 be d8 fd 99 3c
       -0.11689985 -0.009107725 -0.13025415 0.0187978
000310 a9 de 95 bd cb 2a 6a bd c0 52 d6 bb 15 52 c3 bd
       -0.0731786 -0.057169717 -0.0065406263 -0.0953714
000320 a8 1f f1 3d 97 14 ae 3c 78 48 b2 bc d8 ab 94 bd
       0.11773616 0.021250052 -0.021763071 -0.07259339
000330 c6 2d a0 3d 5c 40 37 bd c0 6a 16 3b bc b4 8a 3d
       0.078212306 -0.044739112 0.0022951812 0.067727536
000340 bc 29 21 bd e5 54 bf bd 07 8d f0 3c 00 93 3c 3d
       -0.03934644 -0.09342364 0.029364122 0.046038628
000350 e7 6e e6 bd a9 5a da 3d 15 56 1b 3d 83 8a 28 be
       -0.11251622 0.10661823 0.03792389 -0.16459088
000360 aa 2e 09 3c f8 ba d4 3d 57 85 64 3d 74 64 94 3d
       0.008372942 0.10387224 0.055791225 0.072457224
000370 0a a1 93 3d 80 dd fc bd 8c 3c b2 bd 56 1b 11 bd
       0.0720845 -0.12346935 -0.08702955 -0.03542646
000380 41 2c b0 bb 52 17 f5 bd 81 17 fb bd 75 e7 cc 3d
       -0.005376369 -0.119673386 -0.122603424 0.100050844
000390 f4 c3 f1 bd 2d 4f 5c ba 10 1b 79 3c dd a6 07 3d
       -0.11804953 -0.0008404132 0.015204206 0.033118118
0003a0 72 94 cc 3d b6 d4 02 be b0 cb 4f bc 95 67 2d bd
       0.09989251 -0.12776455 -0.01268284 -0.04233511
0003b0 59 ff cf bd af b1 5b 3d 3d 0b 38 3d f8 63 ba 3d
       -0.101561256 0.05363625 0.044932593 0.09101099
0003c0 a7 90 4c bb 03 db d9 3c 27 ac 86 3d 1e 33 31 3c
       -0.003121415 0.02659369 0.06575804 0.01081541
0003d0 f6 11 99 3d da 5a 3e bd 5c df 8e bd 92 82 af bc
       0.07474129 -0.04647336 -0.06976196 -0.021424565
0003e0 e4 bd 89 bd be 36 e3 bd 82 fe 58 bb 02 aa 2f bd
       -0.06725672 -0.110944256 -0.0033110683 -0.04288674
0003f0 c1 9f b6 3c 50 d5 b7 bd 4e a7 db bd ec cd 3a bd
       0.022292973 -0.08976233 -0.1072527 -0.04560654

fc1.bias f4 [50]
000000 c3 13 2b bf 8e db 11 bf c1 e0 91 3c 0d 65 03 be
       -0.6682703 -0.5697564 0.017807366 -0.12831517
000010 f6 b0 e9 bd 15 e3 3c bf bd d7 42 3f 6e 91 9a bd
       -0.11410706 -0.73784 0.7611044 -0.0754727
000020 14 d2 3d 3f 4d 35 fa 3d 0c d7 53 3d 57 c9 19 3f
       0.7414868 0.122171976 0.051718757 0.60072845
000030 2d b1 22 bf c7 0f b2 3d 6a 71 3e bf 53 3c fa 3e
       -0.635516 0.086944155 -0.74391806 0.4887415
000040 8a d4 01 be f9 70 1d 3f ec 73 18 bf 62 1a d5 be
       -0.12678733 0.6150051 -0.5955188 -0.4162169
000050 2a c7 e4 bd 1b ea 2e 3f 3d 95 1c 3f 97 7b 36 bf
       -0.111708 0.68325967 0.6116522 -0.71282333
000060 05 be 3c 3f b5 9c 96 3c 9b 2e 1c be da d1 ea bd
       0.73727447 0.01838527 -0.15252154 -0.11465807
000070 2f d1 31 bf 5c 1a 14 3f c6 b2 42 3f 60 75 2f 3f
       -0.69459814 0.5785272 0.76054037 0.68538475
000080 1a 28 f2 bd 4a 22 a6 bd 84 64 b5 be 4e d1 8a bd
       -0.11824055 -0.08112009 -0.3542825 -0.06778203
000090 32 0f 10 3f d4 49 25 bd ad b9 41 3f 85 48 5f 3c
       0.56273186 -0.04035361 0.75673944 0.01362813
0000a0 bc 37 38 3f 54 21 dd 3d 9c 84 5d bd a0 80 bd bc
       0.71960044 0.107973725 -0.054081544 -0.023132622
0000b0 9f 32 22 3f 06 5c d0 bd 86 34 2f 3f 68 4b 31 3f
       0.6335849 -0.10173802 0.6843952 0.69255686
0000c0 af a7 2a bf 84 3a 33 3b
       -0.66662115 0.002734811

fc2.weight f4 [1, 50]
000000 06 f6 13 be 27 e1 0c be f5 94 99 3d 15 3b 0c bd
       -0.14449319 -0.13757764 0.074991144 -0.034236033
000010 89 77 03 bd 66 10 1c be 53 51 15 3e 87 d8 6f 3d
       -0.03209642 -0.1524063 0.14581804 0.058556106
000020 e1 eb 24 3e b9 37 a0 3d 5f 02 aa 3d 54 e3 0b 3e
       0.16105606 0.07823128 0.083012335 0.13660938
000030 c8 8a 2c be f4 cd be bc 2b 26 0f be 8d 63 01 3e
       -0.16849816 -0.023291565 -0.13979404 0.12635632
000040 9d a5 cc 3c 3c 18 fa 3d 87 57 f0 bd f6 56 67 be
       0.024981314 0.122116536 -0.117354445 -0.22591767
000050 32 76 9e bd b5 1d c7 3d 08 85 1a 3e 2a 7b 13 be
       -0.07737388 0.09722463 0.1508981 -0.14402452
000060 7d 88 62 3d 41 a8 32 bd fa db 0c be bc 94 3f bd
       0.055305947 -0.04361749 -0.1375579 -0.046772704
000070 29 23 56 be 6b 2f 2c 3e 88 40 15 3e 17 c2 18 3e
       -0.2091185 0.16814964 0.14575398 0.1491779
000080 c5 c2 04 be ec 96 03 bd 06 bd ef bd ad 65 1e be
       -0.12964924 -0.032126352 -0.11705975 -0.15468474
000090 66 cc 94 3d 69 ff 28 bd 0e 80 2e 3e 91 f8 b0 bd
       0.072655484 -0.041259203 0.17041036 -0.0864116
0000a0 b2 0a 05 3e 40 61 9d 3c 05 05 aa bc 54 b8 08 3e
       0.12992361 0.019211411 -0.020754347 0.13351566
0000b0 0a f5 1c 3e 12 5a e9 bc 29 04 3e 3e 4e bf 55 3d
       0.1532785 -0.028485332 0.18556274 0.052184395
0000c0 77 d4 b4 bd 7e 41 08 3e
       -0.08829587 0.13306233
