output/checkpoints/model200.pt (torch, 16479 bytes, 5 tensors)

conv1d.weight f4 [64, 3, 1]
0	0xbf0170c6	-0.50562704
1	0xbe026430	-0.12733531
2	0x3eb1e353	0.34743747
3	0xbdc0e043	-0.094177745
4	0x3e774587	0.24147616
5	0x3e441ee7	0.19152413
6	0x3eadbd7e	0.33933634
7	0x3dfee8f0	0.12446773
8	0x3dcf81b0	0.10132158
9	0xbcca00f8	-0.024658665
10	0x3e6ce83e	0.23135468
11	0xbeac635e	-0.3366956
12	0x3df2baef	0.11852061
13	0x3f056771	0.52110964
14	0x3dd8d901	0.10588265
15	0xbe3065cf	-0.17226337
16	0x3edf5774	0.4362141
17	0x3e9ab078	0.3021276
18	0x3e54e0b5	0.20788844
19	0x3eeadd64	0.45872033
20	0xbef140e4	-0.4711982
21	0x3eb3a09f	0.35083482
22	0xbecd7fdd	-0.40136614
23	0xbeb63e51	-0.3559442
24	0x3ee6e0ec	0.45093477
25	0xbeeb78a0	-0.45990467
26	0xbdcd7c3b	-0.10033461
27	0x3ea45cf1	0.3210216
28	0x3e13e004	0.14440924
29	0xbda7db17	-0.08196085
30	0x3ec135e8	0.3773644
31	0xbf0544b5	-0.52057964
32	0x3ecd44d6	0.4009158
33	0x3c42a942	0.0118811745
34	0x3e845222	0.25843912
35	0xbd990ef6	-0.07473557
36	0x3efdfd1f	0.4960718
37	0xbe19125e	-0.14948413
38	0xbe11cbb8	-0.14237869
39	0x3e96feae	0.2949118
40	0xbe2b3746	-0.16720304
41	0xbea9698c	-0.33088338
42	0xbe1759a9	-0.14780296
43	0xbdc77e1f	-0.097408526
44	0x3e9e7f95	0.30956712
45	0xbe9e36b7	-0.3090112
46	0x3f0c15f4	0.54721
47	0xbe29f22e	-0.1659629
48	0xbef06402	-0.469513
49	0xbdcb65f5	-0.09931556
50	0xbd747c73	-0.059688997
51	0x3eb84b30	0.35994864
52	0x3f04f8b1	0.5194197
53	0x3f13fecc	0.57810664
54	0xbda58e56	-0.08083789
55	0x3ed9d72f	0.42546985
56	0xbdacac27	-0.08431273
57	0x3d3e9ef3	0.046538305
58	0x3e3aa61e	0.18227431
59	0xbecceab1	-0.40022805
60	0x3f0f7eb9	0.5605274
61	0xbe8722d9	-0.26393774
62	0xbefc4236	-0.49269265
63	0x3e9e471e	0.30913633
64	0x3e94485f	0.28961465
65	0x3eb5fc70	0.35544157
66	0xbed47e55	-0.41502634
67	0x3e99a406	0.30007952
68	0x3ee35cf8	0.44406867
69	0x3e44d5e0	0.19222212
70	0x3d8098ed	0.06279168
71	0xbed032d4	-0.4066378
72	0x3ecef1b6	0.40418786
73	0xbeff009d	-0.49805155
74	0x3eb5b603	0.35490426
75	0x3e922579	0.28544214
76	0x3e5a6645	0.21328075
77	0x3e7c3804	0.24630743
78	0xbd8128c7	-0.06306606
79	0xbf14119a	-0.5783936
80	0x3eb55691	0.35417607
81	0x3ea943e1	0.330596
82	0x3eb7dc71	0.3591037
83	0xbf02742f	-0.5095853
84	0xbe722d66	-0.2365013
85	0xbd855d3f	-0.06511926
86	0xbe8da125	-0.27662006
87	0xbe6bfb7d	-0.23045154
88	0x3eba96e4	0.36443245
89	0x3e1a60b0	0.15075946
90	0x3f10df5b	0.56590813
91	0xbe31df34	-0.17370301
92	0x3f156928	0.5836358
93	0x3e02f341	0.12788107
94	0xbe3acf6a	-0.18243185
95	0x3eb3edc0	0.35142326
96	0x3f0e1407	0.5549931
97	0x3f03859c	0.51375747
98	0xbf082b85	-0.53191406
99	0xbd32a54d	-0.043614674
100	0xbe462e57	-0.19353615
101	0x3ea2bc31	0.31784204
102	0x3ee4ad5c	0.44663513
103	0x3da929ef	0.08259951
104	0x3ea6a64f	0.32548758
105	0x3e701dad	0.2344882
106	0xbef7ace6	-0.483741
107	0xbe5c829c	-0.21534199
108	0x3e495818	0.19662511
109	0xbeae6b79	-0.3406637
110	0xbeecdb3c	-0.46261013
111	0x3e82567f	0.25456616
112	0x3eeecc9b	0.46640477
113	0x3f08461e	0.5323199
114	0x3d22ec0e	0.0397759
115	0x3d826007	0.06365972
116	0xbd82329e	-0.06357311
117	0x3ed8fea3	0.42381772
118	0x3eddccd8	0.43320346
119	0x3c74f569	0.0149510885
120	0xbf02c152	-0.51076233
121	0x3e45c318	0.19312704
122	0xbe332cb0	-0.17497516
123	0x3f0173c5	0.50567275
124	0xbd64b72f	-0.05583876
125	0x3e5a1829	0.21298279
126	0xbef316b8	-0.4747827
127	0xbebb80e2	-0.36621767
128	0xbe489cd7	-0.1959108
129	0xbed5c2b1	-0.417501
130	0x3e94f2a1	0.2909136
131	0xbde91ac2	-0.11382057
132	0xbf0d078d	-0.55089647
133	0xbeb2fc83	-0.34958276
134	0x3e9c55c7	0.30534193
135	0x3dfc54ec	0.12320885
136	0x3cf40187	0.029785885
137	0x3eb1ac35	0.34701696
138	0xbee0ec4a	-0.43930274
139	0x3defd51b	0.117105685
140	0xbec907e5	-0.39263836
141	0x3f0e0723	0.5547964
142	0xbe5dac5c	-0.21647781
143	0xbe91420f	-0.2837071
144	0x3e57ba10	0.21067071
145	0xbe221200	-0.15827179
146	0xbda881ee	-0.08227907
147	0xbec8a58d	-0.39188805
148	0xbea31727	-0.318536
149	0x3e34b0f1	0.17645623
150	0xbf0aa6d1	-0.5416079
151	0xbddd75ab	-0.10813459
152	0xbe1f7b73	-0.15574436
153	0xbede0ac0	-0.43367577
154	0x3e501b20	0.20322847
155	0x3e84f9a6	0.25971717
156	0x3e2caf36	0.16863713
157	0xbe619e04	-0.22032934
158	0x3ed05c4d	0.4069542
159	0x3eff1137	0.4981782
160	0xbeac9dc9	-0.3371413
161	0xbef6ed21	-0.4822779
162	0x3ef12c2f	0.47104022
163	0xbebe6c42	-0.3719197
164	0x3e04cffc	0.12969965
165	0xbf13cbfe	-0.5773314
166	0xbf052c06	-0.520203
167	0x3dd9caa8	0.10634357
168	0xbee1b9d1	-0.4408708
169	0xbe1da160	-0.15393591
170	0xbed069ee	-0.40705818
171	0xbd717d17	-0.058957186
172	0x3f0d19b4	0.55117345
173	0x3cd6916a	0.026192386
174	0xbe3b2a4f	-0.18277858
175	0x3f055855	0.5208791
176	0xbeb5b478	-0.3548925
177	0x3dd08e8b	0.10183438
178	0xbe991bb7	-0.29903957
179	0xbe74be14	-0.23900634
180	0x3ecd656b	0.40116438
181	0x3f0d74f5	0.5525659
182	0xbdb7a087	-0.08966165
183	0xbe633dc5	-0.22191532
184	0xbe8cd35d	-0.27505007
185	0x3e8dfc2b	0.2773145
186	0xbe48312c	-0.19550008
187	0x3e8e3985	0.2777826
188	0x3ef64ebf	0.48106954
189	0x3dea480a	0.114395216
190	0xbe7f9fe6	-0.2496334
191	0xbe8c957d	-0.274578

conv1d.bias f4 [64]
0	0x3ed34044	0.41259968
1	0x3f8102a4	1.0078931
2	0x3f8b8f9a	1.0903199
3	0xbebd0045	-0.36914268
4	0x3ec46e9d	0.3836564
5	0x3f3bf433	0.73419493
6	0xbf40931c	-0.7522447
7	0x3f0c206b	0.54736966
8	0x3e4b5d88	0.19859898
9	0x3f1ad8f4	0.60487294
10	0x3f5b9ac8	0.8578305
11	0x3f653724	0.8953726
12	0x3ee92ddf	0.4554281
13	0x3d5c558e	0.05379253
14	0x3f6e6d86	0.9313587
15	0xbe85b1ee	-0.26112312
16	0xbedba758	-0.4290111
17	0x3f8be29b	1.092853
18	0xbf17c55e	-0.59285533
19	0xbeb61d5f	-0.35569283
20	0xbf268e84	-0.6506121
21	0x3f2209d1	0.6329623
22	0x3f32a279	0.69779164
23	0x3ed32857	0.41241714
24	0x3e747532	0.23872831
25	0xbe146d7b	-0.14494888
26	0xbecbd493	-0.3981062
27	0xbe88075a	-0.2656811
28	0x3f0f5a0e	0.5599679
29	0x3e6af360	0.22944403
30	0x3f8ed249	1.1157924
31	0x3eab6ecd	0.33482972
32	0xbf912b68	-1.1341372
33	0x3f9eb68b	1.2399458
34	0x3f263e1c	0.6493852
35	0x3e846915	0.2586142
36	0x3e3db3ff	0.18525694
37	0x3f9e99a7	1.2390641
38	0xbf505285	-0.81375915
39	0x3f73737f	0.9509811
40	0xbeb6b8ec	-0.3568796
41	0x3f6f8f06	0.9357761
42	0x3e45a601	0.19301607
43	0x3d87e3a5	0.066352166
44	0x3e49a1cd	0.19690628
45	0x3e1c070a	0.1523706
46	0x3ccf348e	0.025293615
47	0xbebc6126	-0.36792868
48	0xbf0d1682	-0.5511247
49	0xbef25b34	-0.47335207
50	0xbeb41ca7	-0.3517811
51	0x3f4f1d86	0.80904424
52	0x3e4a2ec7	0.19744407
53	0x3d9b2b31	0.075765975
54	0x3f45a0bb	0.7719838
55	0xbea0709c	-0.31335914
56	0xbd9de5c5	-0.07709841
57	0xbf90b8f6	-1.1306446
58	0x3f47cf2f	0.7805051
59	0xbe5f6d68	-0.21819079
60	0xbf56dae6	-0.8392776
61	0x3e50d599	0.20393981
62	0x3ea68e10	0.3253026
63	0x3e139768	0.14413226

fc1.weight f4 [50, 64]
0	0xbdde9a81	-0.10869313
1	0x3c8b09ee	0.016972508
2	0xbda6f1f9	-0.08151621
3	0xbd54297d	-0.05179738
4	0xbd89c042	-0.067261234
5	0x3d40a4fd	0.047032345
6	0x3def4e0c	0.11684808
7	0x3cfc050f	0.03076413
8	0x3d83cece	0.06435929
9	0xbde052ee	-0.109533176
10	0x3cc5513d	0.024086589
11	0x3da40c0c	0.0801011
12	0x3d9fd339	0.078039594
13	0x3d3e64e0	0.04648292
14	0x3dc49b9c	0.09599993
15	0x3d0fd24e	0.03511267
16	0xbcb76560	-0.022387207
17	0x3cbacea3	0.02280361
18	0xbdfc7f4b	-0.12328967
19	0x3c8bab9f	0.017049609
20	0x3c7f66ed	0.015588504
21	0xbd327059	-0.043564174
22	0x3d92a7f4	0.07160941
23	0xbcd7ea09	-0.026356714
24	0xbd04c10e	-0.032410674
25	0xbe105711	-0.14095713
26	0x3d8aa566	0.067698285
27	0xbd9ce0a3	-0.076600336
28	0x3defc0a4	0.11706665
29	0xbd98f5c0	-0.07468748
30	0x3d1b7a1a	0.037958242
31	0xbdbcd45c	-0.09220192
32	0xbd9a3dc6	-0.075313136
33	0x3dd8d76c	0.105879635
34	0xbda37d02	-0.07982828
35	0xbd19cee7	-0.037550833
36	0xbd84d16e	-0.06485258
37	0x3dbb87e9	0.09156782
38	0x3d4ef1ae	0.050523452
39	0x3abfe6b3	0.0014640897
40	0x3d970b1f	0.07375168
41	0xbe08478e	-0.13308546
42	0xbcd31988	-0.02576901
43	0xbd928da3	-0.07155921
44	0xbd9f56a9	-0.07780201
45	0xbdacaf49	-0.084318705
46	0xbdb41304	-0.087926894
47	0x3d71714b	0.058945935
48	0x3daa848b	0.08326062
49	0x3db60a7f	0.08888721
50	0xbd660be8	-0.0561637
51	0xbce63cf9	-0.028105246
52	0xbd2d5ea4	-0.042326584
53	0x3dfa8c45	0.122337855
54	0x3dbb514d	0.09146366
55	0xbc40c18c	-0.011764895
56	0xbdda4cac	-0.10659155
57	0xbda789c6	-0.08180575
58	0xbd452d17	-0.048138704
59	0xbda2cea5	-0.079495706
60	0x3d43cdc8	0.04780367
61	0xbd2bf482	-0.041981228
62	0x3da79a3d	0.081837155
63	0x3d7d5a09	0.061853442
64	0xbda26571	-0.07929505
65	0x3e274167	0.16333543
66	0x3e04ff0a	0.12987915
67	0xbcb63811	-0.022243531
68	0x3df77b4d	0.12084065
69	0x3dad8161	0.08471943
70	0xbdabfb92	-0.083975926
71	0xbcef66ba	-0.029223789
72	0xbd36be01	-0.044614796
73	0xbd857814	-0.06517044
74	0x3de10ed0	0.109891534
75	0x3dcf1d5e	0.10113023
76	0x3d03ed36	0.032208644
77	0x3d920c32	0.07131232
78	0x3e00f913	0.12595014
79	0xbe08479e	-0.1330857
80	0xbd1602d0	-0.036623776
81	0x3cc47276	0.02398036
82	0xbd9b9b9e	-0.07598041
83	0xbdb08cf8	-0.08620638
84	0x3c4c4aa5	0.0124689685
85	0x3d6decd9	0.058087204
86	0x3d5fa269	0.054598246
87	0x3e0c40e9	0.13696636
88	0xbc8031d5	-0.015648762
89	0xbdad6a54	-0.08467546
90	0xbc7c30f3	-0.01539253
91	0x3d680d39	0.056653235
92	0x3da26f74	0.07931414
93	0x3e10a5d3	0.14125757
94	0x3a84b565	0.001012486
95	0x3c8c6768	0.017139152
96	0xbd506732	-0.050879665
97	0xbb8ae79d	-0.0042390362
98	0x3d85970c	0.065229505
99	0xbdc9857c	-0.09839913
100	0xbda07ac4	-0.07835916
101	0x3e0c67ef	0.13711523
102	0xbe7c3344	-0.24628931
103	0xbc435a88	-0.01192344
104	0xb9d2fa8f	-0.00040241002
105	0xbae5e0b9	-0.0017538286
106	0xbdc7333c	-0.09726569
107	0xbe157443	-0.14595132
108	0x3e50de19	0.20397224
109	0x3d939121	0.072054155
110	0xbcc0a4d5	-0.023516098
111	0x3d1282c1	0.035769228
112	0xbd6616b9	-0.056174014
113	0x3e1a47e8	0.15066493
114	0xbdbe1948	-0.09282166
115	0x3d8958b8	0.06706375
116	0x3cf71cc1	0.030165078
117	0xbd924b5a	-0.071432784
118	0x3db8631a	0.09003277
119	0xbd19ad16	-0.037518583
120	0x3dbcdbc2	0.09221603
121	0xbdfad8dc	-0.12248394
122	0x3d12dc55	0.035854656
123	0xbde7fc50	-0.11327422
124	0xbd522f3d	-0.05131458
125	0xbd1ffd75	-0.039060075
126	0x3da44b22	0.08022143
127	0x3daad734	0.08341828
128	0xbcd06de1	-0.02544302
129	0xbda4369f	-0.08018231
130	0xbd024a4e	-0.031809144
131	0xbde4eb12	-0.111776486
132	0xbdd393f1	-0.10330952
133	0x3ded1957	0.11577099
134	0xbdd8cb7f	-0.10585689
135	0xbc840baa	-0.016118843
136	0x3dd93cdb	0.106073104
137	0xbdb02e06	-0.08602528
138	0x3d94544b	0.0724264
139	0xbd8f08c3	-0.06984093
140	0x3defaaa2	0.117024675
141	0x3b6f7ee8	0.0036544148
142	0x3d0f2948	0.03495148
143	0xbdbf13dc	-0.0932996
144	0xbd957d42	-0.07299282
145	0xbdcf31b4	-0.10116902
146	0xbdb96143	-0.09051754
147	0x3dfdfa11	0.12401212
148	0x3c84e7dd	0.016223842
149	0x3da9fbf3	0.083000086
150	0xbe27aeae	-0.16375229
151	0xbd9cc4ef	-0.076547496
152	0x3d88143a	0.06644483
153	0xbd7e8f19	-0.062148187
154	0xbc581c4f	-0.013190343
155	0xbdb61dd6	-0.088924095
156	0x3c917f80	0.017760992
157	0x3df71d74	0.120661646
158	0xbc9ed0b7	-0.019386632
159	0x3dbab69d	0.09116862
160	0x3d98fbed	0.07469926
161	0xbd822352	-0.06354393
162	0xbb9a3562	-0.0047060708
163	0x3d05f64b	0.032705586
164	0xbd8d3089	-0.06894023
165	0x3dad1718	0.084516704
166	0x3cb34adf	0.021886287
167	0xbdf1410b	-0.11779984
168	0xbd6c1528	-0.057637364
169	0x3cce43b9	0.025178777
170	0x3d0f5070	0.03498882
171	0xbd2df934	-0.042473987
172	0x3d05ca39	0.032663558
173	0x3d24cc43	0.04023386
174	0xbddc5fea	-0.10760482
175	0x3db6ad40	0.089197636
176	0x3c9fa827	0.019489361
177	0xbcc339f4	-0.023831345
178	0xbd282360	-0.04104936
179	0xbdd4f522	-0.10398318
180	0xbdddc52c	-0.10828623
181	0x3ce6c65e	0.02817076
182	0xbdf6858c	-0.12037191
183	0xbd910702	-0.07081415
184	0xbdef86f0	-0.11695659
185	0xbdfeed02	-0.124475494
186	0xbd939886	-0.07206826
187	0x3e2ac0b2	0.1667507
188	0x3dbe885a	0.09303351
189	0x3dad24d0	0.08454287
190	0x3dd11bef	0.10210406
191	0x3d14d814	0.03633888
192	0x3da51406	0.0806046
193	0x3e0819a2	0.13291028
194	0x3dc1ef02	0.09469415
195	0xbe68fabe	-0.227519
196	0x3cb8c5fb	0.022555342
197	0xbb89a54a	-0.004200612
198	0xbd60022d	-0.054689575
199	0x3e367dff	0.17821501
200	0xbb9e6c18	-0.004834663
201	0x3e0ef799	0.13961639
202	0x3e09878d	0.13430615
203	0x3e05e9b6	0.13077435
204	0x3e03d4d4	0.12874156
205	0xbd1b349b	-0.037891965
206	0xbc0f1f39	-0.008735471
207	0xbda10abf	-0.07863378
208	0x3d5cd014	0.053909376
209	0xbc7d6349	-0.015465566
210	0x3cf27196	0.029595178
211	0xbe3543e8	-0.17701685
212	0x3d0aa0eb	0.03384487
213	0xbc465c54	-0.012106974
214	0xbd460f74	-0.04835458
215	0x3e5bd3a7	0.21467458
216	0xbd28d013	-0.04121406
217	0x3d1cfb60	0.038325667
218	0x3dc64b2c	0.09682307
219	0xbdb9237d	-0.09039972
220	0x3c16a2ef	0.00919412
221	0x3d293171	0.041306917
222	0x3e238d8d	0.15971966
223	0x3db1ea79	0.086873
224	0xbd5b1502	-0.05348683
225	0x3dc1a40e	0.09455119
226	0x3d77ebae	0.060527496
227	0x3d202fbc	0.039108023
228	0x3db2b6d5	0.08726279
229	0x3d8b970a	0.06815918
230	0xbd9e70f3	-0.07736387
231	0x3dca19a5	0.098681726
232	0x3b90f8b5	0.0044241794
233	0x3d8b8be4	0.068137914
234	0x3c874550	0.016512543
235	0xbe8c298c	-0.27375448
236	0x3e46fb65	0.19431837
237	0x3df92fd6	0.12167327
238	0x3e0735b4	0.1320408
239	0x3d58ac19	0.0528985
240	0xbe1acd6b	-0.15117423
241	0x3e3e808c	0.18603724
242	0x3d5980b0	0.05310124
243	0x3d542b6f	0.051799234
244	0xbd98d0b7	-0.07461684
245	0xbd6bbf62	-0.057555564
246	0xbdb2e3ff	-0.08734893
247	0xbdef8e08	-0.11697012
248	0x3d9d0cb0	0.076684356
249	0xbd95cb1b	-0.0731413
250	0x3db232fc	0.08701131
251	0xbdc0aa91	-0.09407533
252	0x3d096de7	0.033552077
253	0x3d4d4b2b	0.050120514
254	0x3d272ce0	0.04081428
255	0x3d9e56ac	0.07731375

fc1.bias f4 [50]
0	0xbc2ccefd	-0.010547397
1	0x3f445572	0.7669288
2	0x3d410f42	0.04713369
3	0x3f3bb8ef	0.7332906
4	0xbf2fdbdb	-0.6869485
5	0xbd66a740	-0.056311846
6	0x3dd2d13c	0.102938145
7	0x3f062e19	0.5241409
8	0x3f19d5e7	0.60092014
9	0xbf58fcdd	-0.8476084
10	0x3f17ae85	0.5925067
11	0x3f409ffa	0.75244105
12	0xbd2f5a5d	-0.042810787
13	0x3f107fd6	0.5644506
14	0xbf320503	-0.695389
15	0xbf3a2a2d	-0.72720605
16	0x3f45651e	0.7710742
17	0xbf133ca3	-0.575144
18	0x3e06e09b	0.13171618
19	0xbd785511	-0.060628
20	0x3e20f674	0.15719014
21	0xbd063c7c	-0.032772526
22	0x3d74ccbb	0.05976556
23	0x3f3add37	0.729938
24	0x3f34945b	0.7053887
25	0xbf3ebb51	-0.7450457
26	0xbdcdbe74	-0.10046092
27	0x3de8b8ce	0.11363374
28	0xbda0aea8	-0.07845813
29	0x3d29f248	0.041490823
30	0x3cc8b3d7	0.024499817
31	0xbbc12120	-0.0058938414
32	0x3f20cf4b	0.62816304
33	0x3aa55480	0.0012613684
34	0x3df3c1eb	0.11902221
35	0xbd8da86e	-0.06916891
36	0x3f134e27	0.57541126
37	0x3d0685cc	0.032842442
38	0x3f12ec1f	0.5739154
39	0x3b324e40	0.0027207285
40	0xbad60789	-0.001632915
41	0x3ef1cd81	0.472271
42	0x3f415963	0.7552702
43	0xbe20f353	-0.15717821
44	0xbe0084c4	-0.12550646
45	0x3f415eed	0.7553547
46	0x3f21493f	0.6300239
47	0xbf44cd2a	-0.76875556
48	0x3f256275	0.6460336
49	0x3dcf0018	0.1010744

fc2.weight f4 [1, 50]
0	0xbc272925	-0.010202681
1	0x3e30f6bf	0.17281626
2	0xbe56ff0b	-0.20995729
3	0x3dbbed06	0.09176068
4	0xbde4dc53	-0.11174836
5	0xbdd26d80	-0.10274792
6	0xbdac2c40	-0.084068775
7	0x3e1e3bde	0.15452525
8	0x3dceb454	0.100929886
9	0xbe7bca82	-0.2458897
10	0x3da62cf4	0.08114043
11	0x3e0c6678	0.13710964
12	0x3e1fbf52	0.15600327
13	0x3da3b20a	0.07992943
14	0xbe131410	-0.14363122
15	0xbe6030f2	-0.21893671
16	0x3dad2fcd	0.08456383
17	0xbe25542e	-0.16145393
18	0x3d2cb3df	0.042163726
19	0x3d2d8ff2	0.042373605
20	0x3e070f8a	0.13189521
21	0xbe503bf3	-0.20335369
22	0xbe26d00d	-0.16290303
23	0x3d974a5f	0.07387232
24	0x3e075bb1	0.13218571
25	0xbdbd40bf	-0.09240865
26	0xbcb271c0	-0.021782756
27	0x3d7ed4fc	0.062214836
28	0xbdce163b	-0.10062834
29	0xbe09ea6e	-0.13468334
30	0x3dab0ae5	0.08351687
31	0xbe0a2d3d	-0.1349382
32	0x3e2c549b	0.1682915
33	0x3c6a5fda	0.014305079
34	0x3d860fbe	0.06545971
35	0xbd93fdd8	-0.07226151
36	0x3e087259	0.1332487
37	0xbb9a6d71	-0.0047127535
38	0x3da5b205	0.08090595
39	0x3db3e542	0.08783962
40	0xbda5ef26	-0.081022546
41	0x3e005314	0.12531692
42	0x3da0912c	0.07840189
43	0xbdac5625	-0.08414868
44	0xbb974bee	-0.004617206
45	0x3e4171fa	0.18891135
46	0x3e43e0c8	0.19128716
47	0xbe1cd6d8	-0.15316331
48	0x3dff247b	0.1245813
49	0xbda5e2aa	-0.08099873
