output/checkpoints/model40.pt (torch, 16279 bytes, 5 tensors)

conv1d.weight f4 [64, 3, 1]
00000000: daee 01bf 7449 f9bd 552b af3e 54cf b8bd
00000010: c653 793e d457 543e 4bd7 b03e 42c4 ff3d
00000020: e594 e63d 8030 17bd a4a6 683e 35dc a9be
00000030: e3f6 f93d 0fe8 053f bed6 e83d 42de 29be
00000040: 7406 e13e 6ab8 a03e 6de9 5d3e 1ac0 ef3e
00000050: 37cd ebbe 5b59 b53e dfec cfbe 7c40 adbe
00000060: b9c5 dd3e 775f f3be 4eb1 18be c0be ab3e
00000070: 553a 1c3e 43b7 60bd c145 c23e 88c3 05bf
00000080: 0ba0 ce3e 8538 8a3c 483c 833e 0ce6 8bbd
00000090: 3428 053f 7544 fabd abaf cdbd b8b0 933e
000000a0: 5693 1fbe a642 bebe 65cf 12be 4e2c ccbd
000000b0: c463 9f3e da7b 9fbe bfa9 0a3f 5ff9 25be
000000c0: 0264 f0be f565 cbbd 737c 74bd 295d bb3e
000000d0: 90ee 053f 2339 173f 33d1 9fbd 666d d93e
000000e0: 22d5 b0bd 64f7 523c 4ca6 0e3e f81d e0be
000000f0: 78f8 123f 1db4 81be c293 00bf 6028 b73e
00000100: 6df3 a33e 76c6 d53e f475 d4be b29a 993e
00000110: 35c4 e53e a689 2c3e 8596 f83c dd47 c8be
00000120: 2f00 d83e a12a fabe 9b61 c03e eb93 943e
00000130: 5f40 733e 1b5c 803e 90d0 5ebd 9d0e 12bf
00000140: 4b34 b03e 0728 ab3e 588a b43e 59e3 03bf
00000150: a219 93be 2f72 edbd cea3 a7be 6f33 58be
00000160: d459 bf3e 92bb 293e 88c0 113f bafd 30be
00000170: 54dd 173f 8034 0c3e 90f5 36be aded bb3e
00000180: 3ebf 0e3f e450 043f a771 09bf fab2 43bd
00000190: 65f0 46be 21d6 a23e 56cc e63e 7d99 ab3d
000001a0: f1cb ab3e 8995 683e 11aa fbbe b830 3fbe
000001b0: c878 573e 635e b4be 5372 e5be 4b3b 853e
000001c0: fbbf ee3e ffac 0a3f 86cf 2e3d 2f85 803d
000001d0: 5cb6 8cbd b160 db3e de68 e03e 6810 f73c
000001e0: d2c4 0ebf 5089 2b3e 561d 2bbe b481 033f
000001f0: 180f 58bd 0303 663e b816 f3be e280 bbbe
00000200: d79c 48be f16c c7be ebe1 8e3e b01c ddbd
00000210: a51c 0bbf 9aaa b0be 5b7d 983e b62c 063e
00000220: 8a9e 0a3d 47ed b63e 5684 f6be 6450 993d
00000230: 3ea8 debe bc2c 0e3f f9f6 49be aee5 95be
00000240: 730c 5c3e 420b 1bbe 36eb cdbd a410 c8be
00000250: 96e8 a2be 4114 363e d1a6 0abf ab75 ddbd
00000260: 737b 1fbe f391 debe b037 563e 1623 813e
00000270: 0f6c 2f3e 3e4e 5ebe 44ae d53e 0583 003f
00000280: 7c93 a6be 4ad4 febe 0a93 ef3e 80b4 c0be
00000290: 95b9 033e fa0d 14bf d9cf 05bf c3b5 cd3d
000002a0: d1b9 e1be 60a1 1dbe ee69 d0be 50e5 63bd
000002b0: c732 0e3f bc05 c63c d0d1 3abe 6e64 053f
000002c0: 2aee b8be dbde b13d a4fd a2be 4183 68be
000002d0: 22d5 cd3e 4d7e 0e3f fef4 bfbd 4c65 82be
000002e0: fe9a 6dbe 4882 8a3e c3a5 3abe 238b 923e
000002f0: 506c fb3e cb80 c93d 55f2 5cbe bf51 96be
-0.50755084 -0.12172213 0.34212747 -0.0902392 0.24348363 0.20736629 0.34539255 0.12488605
0.11258868 -0.036911488 0.22719818 -0.33175817 0.12205293 0.5230722 0.11369084 -0.16588691
0.43950236 0.31390697 0.21671076 0.4682625 -0.46055004 0.35419735 -0.40610406 -0.3383826
0.43314913 -0.4753377 -0.14911386 0.33543968 0.15256627 -0.054862272 0.37943843 -0.5225148
0.40356478 0.016872654 0.25631928 -0.06830987 0.5201447 -0.122200884 -0.10043272 0.28845763
-0.15583548 -0.37160224 -0.14336927 -0.09969388 0.31130803 -0.3114918 0.5416526 -0.16208409
-0.469513 -0.09931556 -0.059688997 0.36594513 0.5231714 0.5907156 -0.078035735 0.42466277
-0.08634402 0.012876365 0.13930625 -0.43772864 0.57410383 -0.25332728 -0.5022546 0.3577299
0.32021657 0.41752976 -0.4149624 0.30000836 0.44876257 0.16849384 0.03034521 -0.39117327
0.4218764 -0.48860648 0.37574467 0.29019102 0.23755024 0.2507027 -0.05439812 -0.5705355
0.34414896 0.33428976 0.35261798 -0.5151878 -0.28730494 -0.115940444 -0.3274216 -0.2111337
0.3737322 0.16575459 0.56934404 -0.17284289 0.59322095 0.13691902 -0.17867112 0.3670477
0.5576056 0.5168593 -0.53689045 -0.047778107 -0.1942764 0.31803992 0.4507777 0.08378885
0.33554032 0.22713293 -0.49153188 -0.18670928 0.21042168 -0.3522826 -0.44813785 0.260218
0.46630844 0.5417022 0.04267838 0.06275403 -0.0687072 0.42847207 0.43830007 0.03015919
-0.55769074 0.167516 -0.1671041 0.51369786 -0.05274877 0.22462086 -0.4747827 -0.36621767
-0.1959108 -0.38950303 0.27906737 -0.10796487 -0.54340583 -0.3450516 0.2978314 0.13102993
0.0338426 0.35727903 -0.4814784 0.074860364 -0.43487734 0.5553701 -0.19723119 -0.29276794
0.21489124 -0.15141013 -0.100546286 -0.39075196 -0.31818074 0.17781164 -0.5416079 -0.10813459
-0.15574436 -0.43470725 0.2091968 0.2522208 0.17131065 -0.21709535 0.41734517 0.5019992
-0.32534397 -0.4977134 0.4679187 -0.3763771 0.12863763 -0.57833827 -0.52270275 0.10044434
-0.4408708 -0.15393591 -0.40705818 -0.05563861 0.5554623 0.024172656 -0.182441 0.5210637
-0.36119205 0.086850844 -0.31834137 -0.2270632 0.4020167 0.5566147 -0.093729004 -0.25467908
-0.23203656 0.27052522 -0.18227296 0.28621778 0.49106073 0.098390184 -0.21576817 -0.29359242

conv1d.bias f4 [64]
00000000: ed22 c13e 1d18 3e3f 3317 4f3f 09e7 6ebe
00000010: c042 613d 04b2 e93e 35f2 debe ed9a ea3e
00000020: 78e6 a03e ece6 c13e f6d2 0e3f 0b73 1d3f
00000030: 0568 853e 48c5 3b3e 2844 363f bc9e 0f3d
00000040: 58a7 dbbe abd7 4c3f 5290 82be 122e 82be
00000050: d2ee e2be 72cd 0f3f af4c c03e 6643 4a3e
00000060: f9fb ddba ce25 d13d 285b efbe 1c94 c93c
00000070: ae58 023f 7cf0 44bd b048 533f 01f9 a03d
00000080: a8c6 52bf ec68 753f e935 b33e e702 943e
00000090: 1b3c 093e 0817 733f 7e21 f6be 1902 233f
000000a0: 194d c0be 2121 253f 01a6 453e 4a1f d93d
000000b0: 90db 1d3e 7436 1fbe f7fa 8abc 3a36 0dbc
000000c0: 1902 a8be 32cd edbe a71c b4be d0d5 343f
000000d0: 1bd9 f7bd 5f42 233e ec36 d83e 07dd a0be
000000e0: c5e5 9dbd a06d 53bf f5d0 e63e d4bc 24be
000000f0: 4a67 09bf 656f 1f3e 33d5 d73c 9f9f 023e
0.3772196 0.74255544 0.80894774 -0.2333032 0.0549953 0.45643628 -0.43544164 0.45821324
0.31425834 0.37871492 0.5579065 0.61503667 0.26055923 0.18336976 0.7119775 0.03506349
-0.4290111 0.80016583 -0.25500733 -0.25425774 -0.4432283 0.5617286 0.37558505 0.19752273
-0.0016936056 0.10212289 -0.46749234 0.024606757 0.50916564 -0.048080906 0.8253279 0.07859994
-0.82334375 0.95863223 0.35002068 0.28908464 0.13401835 0.9495702 -0.48072428 0.63675076
-0.3755882 0.64503676 0.19301607 0.10601671 0.15415788 -0.15548116 -0.016965372 -0.008618886
-0.328141 -0.46445614 -0.3517811 0.7063875 -0.121019565 0.15943287 0.42229402 -0.3141863
-0.07709841 -0.8258915 0.45081297 -0.16087657 -0.5367323 0.15569837 0.026346778 0.12756203

fc1.weight f4 [50, 64]
00000000: 6100 dcbd 9672 953c d957 a4bd 7d29 54bd
00000010: 2226 87bd 55d9 453d 0c4e ef3d 0f05 fc3c
00000020: cece 833d ee52 e0bd e5b9 cf3c a1ff a53d
00000030: 39d3 9f3d e064 3e3d bc35 c73d 4ed2 0f3d
00000040: 6065 b7bc 4b37 c53c 4b7f fcbd 9fab 8b3c
00000050: ed66 7f3c 013c 2dbd 1442 953d 09ea d7bc
00000060: 7019 ffbc 110a 0fbe 863f 8d3d a3e0 9cbd
00000070: a4c0 ef3d a05b 96bd 72ae 203d 3c3a babd
00000080: c63d 9abd 8c71 db3d e2e2 a0bd e7ce 19bd
00000090: 6ed1 84bd 0922 be3d aef1 4e3d f738 333b
000000a0: 1f0b 973d 8efa 06be 8819 d3bc a38d 92bd
000000b0: 89bc 9cbd 2915 aabd 0413 b4bd 4b71 713d
000000c0: 8b84 aa3d 9fa4 b83d e80b 66bd 51d4 dbbc
000000d0: 4c2a 28bd 458c fa3d 6deb bd3d 20f0 2bbc
000000e0: ac4c dabd 45e3 a6bd 172d 45bd a5ce a2bd
000000f0: c8cd 433d 2ac0 26bd 5d34 aa3d 095a 7d3d
00000100: 8b40 7fbd d72c 1e3e 146f fc3d 0b61 653d
00000110: 0793 f43d 09f4 a83d 0dc0 a8bd d28c bbbd
00000120: ae75 a23c 8282 90bd a090 f43d d740 a23d
00000130: 4e20 c93c 0435 bb3d 86c6 1a3e 9c3b 0dbe
00000140: d002 16bd b660 ba3c 6548 9dbd 213d b73c
00000150: 4930 94bc 2313 6a3d 62c4 723d b7bd 03bd
00000160: fbee 363a 3722 aabd 2c56 3bbd b028 373d
00000170: 4766 e93c d63b 113e f378 8a3a 4a40 ca3c
00000180: 1879 58bd 16bc 5c3a e4b8 853d 19b2 a8bd
00000190: a3c0 cfbd 0c1f 0a3e 8298 2dbe 9161 86bc
000001a0: 486b 31bd 0dc5 86bb 3c33 c7bd 0506 9f3c
000001b0: b7e0 253e 7677 9e3d cadc 93bd b071 1b3d
000001c0: 1382 563c 9453 033e 4819 bebd ff51 a63d
000001d0: 68b6 263d 76cd 37bd f3cc c53d 2704 bbbc
000001e0: c2db bc3d 1b4c ebbd bf75 ee3c 4fdc 11bd
000001f0: 08c0 46bd e53b 88bd 51c3 ad3d b85d a33d
00000200: 89d6 dabc d7f4 0fbd 7d24 e2bc 3056 fcbd
00000210: 31fc b7bd ec09 eb3d ec84 d0bd d2d7 aa3b
00000220: fcb0 bd3d 8f5e adbd 0889 813d 7bd8 a8bc
00000230: 9b90 e33d 7388 9d3c 99df c7bb dc13 bfbd
00000240: 427d 95bd 42ba c1bd c637 e9bd ce9a c03d
00000250: f54f 18bb dda9 b23d 34ff e9bd 0083 12bd
00000260: 8c23 613d 1d34 80bd 225f febc 2d06 ccbd
00000270: 807f 913c 40a1 843d 871e adbc 5aa9 a83d
00000280: bbcd 763d 78a8 b9bd 9278 9cbb 748d 473d
00000290: cd74 61bd 6386 bf3d 23bc 3dbc 8583 e6bd
000002a0: 2815 6cbd 3fd5 c63c 7050 0f3d 34f9 2dbd
000002b0: 39ca 053d 7c97 183d ea5f dcbd ec31 9b3d
000002c0: 3cb2 a6bb f439 c3bc 6023 28bd da82 d9bd
000002d0: f258 f4bd 2311 a63c 551a 02be 0207 91bd
000002e0: f086 efbd bed6 8cbd 8698 93bd 136d ad3d
000002f0: f18b b63d 1897 a83d 9207 933d b9f3 9f3b
00000300: a902 c83d 5e1c ff3d d780 b53d fae0 18be
00000310: f8ac b13c f452 c0bb f998 57bd 7739 ed3d
00000320: 23e3 733d 2bfc 093e ecc6 133e 8c10 e03d
00000330: e1f7 f83d 009f 91bc 2d99 8a3c abe8 a9bd
00000340: 14d0 5c3d 6146 84bc cb79 f03c 9d15 8cbd
00000350: eb03 5a3b 8dc4 4cbc 17b2 30bd fac8 3a3d
00000360: 30a0 c7bc 16c3 253d 897d 883d 46ba d0bd
00000370: a883 2abd 67d7 2d3d 0826 243e 0a7b c23d
00000380: 75fe 60bd fafa cc3d e161 7a3d 2dc6 613d
00000390: e470 833d 8b25 883d 5bfb ceb8 2d07 c23d
000003a0: 10a5 1dbd 76cd 873d 5045 873c f922 debd
000003b0: 9a01 1c3e 079c 023e d3b8 aa3d 3a73 623d
000003c0: 0a91 a7bd be86 273e b080 593d 93e3 873d
000003d0: 6323 82bd ca62 febc 3f82 a4bd 687f d1bd
000003e0: b00c 9d3d c416 85bd 1dc6 a43d 7b53 86bc
000003f0: 801c 173d 935e ba3c 755a 3c3d 69e2 963d
-0.1074226 0.018243115 -0.08024568 -0.05179738 -0.0659907 0.048302967 0.11684808 0.03076413
0.06435929 -0.109533176 0.025357196 0.08105398 0.078039594 0.04648292 0.09727046 0.03511267
-0.022387207 0.024074217 -0.12328967 0.017049609 0.015588504 -0.042293552 0.07287994 -0.026356714
-0.03114006 -0.13968684 0.06896882 -0.076600336 0.11706665 -0.07341695 0.039228864 -0.090931386
-0.075313136 0.10715017 -0.078557745 -0.037550833 -0.06485258 0.092838354 0.050523452 0.0027347186
0.07375168 -0.13181517 -0.02576901 -0.07155921 -0.07653148 -0.08304817 -0.087926894 0.058945935
0.08326062 0.09015774 -0.0561637 -0.026834639 -0.041055962 0.122337855 0.092734195 -0.010494262
-0.10659155 -0.08148817 -0.048138704 -0.079495706 0.04780367 -0.040710606 0.08310769 0.061853442
-0.062317412 0.15446793 0.12325874 0.05600075 0.11942106 0.08249671 -0.08239756 -0.09157719
0.019831505 -0.070561424 0.119416475 0.079225235 0.024551537 0.09140971 0.15114793 -0.1379227
-0.036623776 0.022751193 -0.07679824 0.022368016 -0.01808943 0.057147156 0.059269316 -0.032163348
0.000697836 -0.08307307 -0.045736477 0.044716537 0.028491152 0.14182982 0.001056461 0.024688859
-0.05284986 0.0008420361 0.06529406 -0.082370944 -0.101441644 0.13488406 -0.16952708 -0.016403945
-0.043315202 -0.0041128458 -0.09726569 0.01941205 0.16199003 0.07737629 -0.072198465 0.037950218
0.013092536 0.12824851 -0.09282166 0.08121108 0.0407013 -0.044873677 0.096582316 -0.022829128
0.09221603 -0.11489125 0.02910888 -0.035610493 -0.04852298 -0.06652049 0.08484519 0.0797686
-0.026713626 -0.035145607 -0.02760529 -0.123211265 -0.089836486 0.11476502 -0.10181603 0.005213716
0.09262273 -0.08465301 0.06324965 -0.020611038 0.11111566 0.019230103 -0.006099653 -0.0932996
-0.07299282 -0.09459354 -0.11387591 0.09404527 -0.0023241017 0.08723805 -0.11425629 -0.035769463
0.05496554 -0.0625994 -0.031051222 -0.099621154 0.017760992 0.064760685 -0.02113272 0.08235426
0.060254794 -0.09065336 -0.0047751153 0.048718885 -0.05504303 0.09351804 -0.0115805 -0.11255554
-0.057637364 0.024271606 0.03498882 -0.042473987 0.032663558 0.03725384 -0.10760482 0.07577881
-0.005087165 -0.023831345 -0.04104936 -0.10620661 -0.119310275 0.020271843 -0.12705357 -0.07081415
-0.11695659 -0.06876896 -0.07206826 0.0846807 0.089134105 0.08231944 0.07179178 0.004881349
0.097661324 0.124565825 0.08862465 -0.14929572 0.021688923 -0.005869264 -0.05263612 0.11583226
0.059542786 0.134751 0.14431351 0.10940656 0.12156654 -0.017776012 0.016918743 -0.08296331
0.053909376 -0.01614684 0.02935495 -0.0684006 0.0033266495 -0.012498033 -0.04313859 0.045601822
-0.024368376 0.04046925 0.06664569 -0.10191779 -0.041629463 0.04244175 0.16030133 0.09496124
-0.05493017 0.100088075 0.0611285 0.055120636 0.064180166 0.06647786 -9.869664e-05 0.09474025
-0.038487494 0.066309854 0.016512543 -0.10846514 0.15234986 0.12754832 0.08336034 0.05528567
-0.08181961 0.16359994 0.05310124 0.06635203 -0.06354406 -0.031052966 -0.08032655 -0.10229379
0.076684356 -0.06498483 0.080455996 -0.016397228 0.036892414 0.022750175 0.045984704 0.07367403

fc1.bias f4 [50]
00000000: 91fd 17bc 3801 f33e 4d2e 843d 1bf1 e13e
00000010: 5282 ddbe 40a7 66bd 6591 c13d b28a 843e
00000020: 5b36 9e3e ec65 ecbe dbe3 993e 30a3 eb3e
00000030: 6d3e bcbd a780 8b3e a5c4 e3be 5107 d8be
00000040: 4c44 f53e ecd0 97be 0c62 b73d fc07 77bd
00000050: bcc5 a93d 2189 a73c 5033 6b3d 064d e03e
00000060: 968d d33e 01cc dbbe 74be cdbd ceb8 e83d
00000070: a8ae a0bd 48f2 293d d7b3 c83c 2021 c1bb
00000080: dbef ab3e 8054 a53a b94c a13d 6ea8 8dbd
00000090: 68fd 903e cc85 063d bc52 903e 404e 323b
000000a0: 3091 8c3c a761 733e c43b ed3e da17 ddbd
000000b0: c484 00be 4114 ed3e f0ff ac3e afe6 cabe
000000c0: ae29 b53e 3be3 d93d
-0.009276764 0.47461867 0.06454144 0.4412926 -0.4326349 -0.056311846 0.0945156 0.25887066
0.30900845 -0.4617151 0.30056652 0.4602294 -0.09191594 0.2724659 -0.44485965 -0.42193082
0.4790367 -0.29651582 0.08954248 -0.06031035 0.08289668 0.02045113 0.057421982 0.43808764
0.4131896 -0.4292908 -0.10046092 0.11363374 -0.07845813 0.041490823 0.024499817 -0.0058938414
0.33581433 0.0012613684 0.07875962 -0.06916891 0.28318334 0.032842442 0.2818812 0.0027207285
0.017159075 0.2376772 0.4633466 -0.10795565 -0.12550646 0.46304515 0.33789015 -0.39629123
0.35383362 0.10639044

fc2.weight f4 [1, 50]
00000000: 76fa 3bbc 29ff 283e 2741 aabd b18e ab3d
00000010: 4300 b9bd 806d d2bd 586e c7bc 990e 123e
00000020: 129c c03d 84bb 07be 5c98 9b3d fe87 033e
00000030: d4fb a83d ea50 993d d077 0ebe 7a5a 40be
00000040: 1be0 9d3d ccbc 1abe 0e51 1b3d 7fdc 2e3d
00000050: 469a 783d 62b4 0cbe a2fc 05be 9f4a 8a3d
00000060: 8ef4 013e cb3c 9cbd c071 b2bc fcd4 7e3d
00000070: 3b16 cebd 6eea 09be e50a ab3d 3d2d 0abe
00000080: e386 263e da5f 6a3c 63ef 0f3c d8fd 93bd
00000090: 2060 023e 716d 9abb 7aac a33d 42e5 b33d
000000a0: ceb3 8fbd 7159 ea3d b7a3 953d 6dda bcbc
000000b0: ee4b 97bb 0727 383e 1c77 3a3e b627 abbd
000000c0: d83e eb3d 358f b2bc
-0.011473289 0.16503586 -0.08313208 0.083768256 -0.09033253 -0.10274792 -0.024344608 0.14263381
0.09404768 -0.13255125 0.075974196 0.12844846 0.082511574 0.07486136 -0.13912892 -0.18784514
0.0770876 -0.15111083 0.037919097 0.04269075 0.060694 -0.13740686 -0.13084653 0.06752514
0.12690946 -0.07628783 -0.021782756 0.062214836 -0.10062834 -0.13468334 0.08351687 -0.1349382
0.16262393 0.014305079 0.008785102 -0.07226151 0.12731981 -0.0047127535 0.07991882 0.08783962
-0.07016717 0.11442841 0.07306617 -0.023053372 -0.004617206 0.17983638 0.18209499 -0.08357184
0.11486596 -0.021796802
